HloModule pmap__multi_device_update_fn__2.21607

%primitive_computation_add__1.13202 (parameter.13203: f32[], parameter.13204: f32[]) -> f32[] {
  %parameter.13203 = f32[] parameter(0), metadata={op_type="add" op_name="add"}
  %parameter.13204 = f32[] parameter(1), metadata={op_type="add" op_name="add"}
  ROOT %add.13205 = f32[] add(f32[] %parameter.13203, f32[] %parameter.13204), metadata={op_type="add" op_name="add"}
}

%primitive_computation_add__1.13207 (parameter.13208: f32[], parameter.13209: f32[]) -> f32[] {
  %parameter.13208 = f32[] parameter(0), metadata={op_type="add" op_name="add"}
  %parameter.13209 = f32[] parameter(1), metadata={op_type="add" op_name="add"}
  ROOT %add.13210 = f32[] add(f32[] %parameter.13208, f32[] %parameter.13209), metadata={op_type="add" op_name="add"}
}

%primitive_computation_add__1.13265 (parameter.13266: f32[], parameter.13267: f32[]) -> f32[] {
  %parameter.13266 = f32[] parameter(0), metadata={op_type="add" op_name="add"}
  %parameter.13267 = f32[] parameter(1), metadata={op_type="add" op_name="add"}
  ROOT %add.13268 = f32[] add(f32[] %parameter.13266, f32[] %parameter.13267), metadata={op_type="add" op_name="add"}
}

%primitive_computation_add__1.17503 (parameter.17504: f32[], parameter.17505: f32[]) -> f32[] {
  %parameter.17504 = f32[] parameter(0), metadata={op_type="add" op_name="add"}
  %parameter.17505 = f32[] parameter(1), metadata={op_type="add" op_name="add"}
  ROOT %add.17506 = f32[] add(f32[] %parameter.17504, f32[] %parameter.17505), metadata={op_type="add" op_name="add"}
}

%primitive_computation_add__1.18039 (parameter.18040: f32[], parameter.18041: f32[]) -> f32[] {
  %parameter.18040 = f32[] parameter(0), metadata={op_type="add" op_name="add"}
  %parameter.18041 = f32[] parameter(1), metadata={op_type="add" op_name="add"}
  ROOT %add.18042 = f32[] add(f32[] %parameter.18040, f32[] %parameter.18041), metadata={op_type="add" op_name="add"}
}

%primitive_computation_add__1.18044 (parameter.18045: f32[], parameter.18046: f32[]) -> f32[] {
  %parameter.18045 = f32[] parameter(0), metadata={op_type="add" op_name="add"}
  %parameter.18046 = f32[] parameter(1), metadata={op_type="add" op_name="add"}
  ROOT %add.18047 = f32[] add(f32[] %parameter.18045, f32[] %parameter.18046), metadata={op_type="add" op_name="add"}
}

%primitive_computation_add__1.18049 (parameter.18050: f32[], parameter.18051: f32[]) -> f32[] {
  %parameter.18050 = f32[] parameter(0), metadata={op_type="add" op_name="add"}
  %parameter.18051 = f32[] parameter(1), metadata={op_type="add" op_name="add"}
  ROOT %add.18052 = f32[] add(f32[] %parameter.18050, f32[] %parameter.18051), metadata={op_type="add" op_name="add"}
}

%primitive_computation_add__1.18054 (parameter.18055: f32[], parameter.18056: f32[]) -> f32[] {
  %parameter.18055 = f32[] parameter(0), metadata={op_type="add" op_name="add"}
  %parameter.18056 = f32[] parameter(1), metadata={op_type="add" op_name="add"}
  ROOT %add.18057 = f32[] add(f32[] %parameter.18055, f32[] %parameter.18056), metadata={op_type="add" op_name="add"}
}

%primitive_computation_add__1.18059 (parameter.18060: f32[], parameter.18061: f32[]) -> f32[] {
  %parameter.18060 = f32[] parameter(0), metadata={op_type="add" op_name="add"}
  %parameter.18061 = f32[] parameter(1), metadata={op_type="add" op_name="add"}
  ROOT %add.18062 = f32[] add(f32[] %parameter.18060, f32[] %parameter.18061), metadata={op_type="add" op_name="add"}
}

%primitive_computation_add__1.18064 (parameter.18065: f32[], parameter.18066: f32[]) -> f32[] {
  %parameter.18065 = f32[] parameter(0), metadata={op_type="add" op_name="add"}
  %parameter.18066 = f32[] parameter(1), metadata={op_type="add" op_name="add"}
  ROOT %add.18067 = f32[] add(f32[] %parameter.18065, f32[] %parameter.18066), metadata={op_type="add" op_name="add"}
}

%primitive_computation_add__1.18069 (parameter.18070: f32[], parameter.18071: f32[]) -> f32[] {
  %parameter.18070 = f32[] parameter(0), metadata={op_type="add" op_name="add"}
  %parameter.18071 = f32[] parameter(1), metadata={op_type="add" op_name="add"}
  ROOT %add.18072 = f32[] add(f32[] %parameter.18070, f32[] %parameter.18071), metadata={op_type="add" op_name="add"}
}

%primitive_computation_add__1.18074 (parameter.18075: f32[], parameter.18076: f32[]) -> f32[] {
  %parameter.18075 = f32[] parameter(0), metadata={op_type="add" op_name="add"}
  %parameter.18076 = f32[] parameter(1), metadata={op_type="add" op_name="add"}
  ROOT %add.18077 = f32[] add(f32[] %parameter.18075, f32[] %parameter.18076), metadata={op_type="add" op_name="add"}
}

%primitive_computation_add__1.18079 (parameter.18080: f32[], parameter.18081: f32[]) -> f32[] {
  %parameter.18080 = f32[] parameter(0), metadata={op_type="add" op_name="add"}
  %parameter.18081 = f32[] parameter(1), metadata={op_type="add" op_name="add"}
  ROOT %add.18082 = f32[] add(f32[] %parameter.18080, f32[] %parameter.18081), metadata={op_type="add" op_name="add"}
}

%primitive_computation_add__1.18084 (parameter.18085: f32[], parameter.18086: f32[]) -> f32[] {
  %parameter.18085 = f32[] parameter(0), metadata={op_type="add" op_name="add"}
  %parameter.18086 = f32[] parameter(1), metadata={op_type="add" op_name="add"}
  ROOT %add.18087 = f32[] add(f32[] %parameter.18085, f32[] %parameter.18086), metadata={op_type="add" op_name="add"}
}

%primitive_computation_add__1.18089 (parameter.18090: f32[], parameter.18091: f32[]) -> f32[] {
  %parameter.18090 = f32[] parameter(0), metadata={op_type="add" op_name="add"}
  %parameter.18091 = f32[] parameter(1), metadata={op_type="add" op_name="add"}
  ROOT %add.18092 = f32[] add(f32[] %parameter.18090, f32[] %parameter.18091), metadata={op_type="add" op_name="add"}
}

%primitive_computation_add__1.18094 (parameter.18095: f32[], parameter.18096: f32[]) -> f32[] {
  %parameter.18095 = f32[] parameter(0), metadata={op_type="add" op_name="add"}
  %parameter.18096 = f32[] parameter(1), metadata={op_type="add" op_name="add"}
  ROOT %add.18097 = f32[] add(f32[] %parameter.18095, f32[] %parameter.18096), metadata={op_type="add" op_name="add"}
}

%primitive_computation_add__1.18099 (parameter.18100: f32[], parameter.18101: f32[]) -> f32[] {
  %parameter.18100 = f32[] parameter(0), metadata={op_type="add" op_name="add"}
  %parameter.18101 = f32[] parameter(1), metadata={op_type="add" op_name="add"}
  ROOT %add.18102 = f32[] add(f32[] %parameter.18100, f32[] %parameter.18101), metadata={op_type="add" op_name="add"}
}

%primitive_computation_add__1.18104 (parameter.18105: f32[], parameter.18106: f32[]) -> f32[] {
  %parameter.18105 = f32[] parameter(0), metadata={op_type="add" op_name="add"}
  %parameter.18106 = f32[] parameter(1), metadata={op_type="add" op_name="add"}
  ROOT %add.18107 = f32[] add(f32[] %parameter.18105, f32[] %parameter.18106), metadata={op_type="add" op_name="add"}
}

%primitive_computation_add__1.18109 (parameter.18110: f32[], parameter.18111: f32[]) -> f32[] {
  %parameter.18110 = f32[] parameter(0), metadata={op_type="add" op_name="add"}
  %parameter.18111 = f32[] parameter(1), metadata={op_type="add" op_name="add"}
  ROOT %add.18112 = f32[] add(f32[] %parameter.18110, f32[] %parameter.18111), metadata={op_type="add" op_name="add"}
}

%primitive_computation_add__1.18114 (parameter.18115: f32[], parameter.18116: f32[]) -> f32[] {
  %parameter.18115 = f32[] parameter(0), metadata={op_type="add" op_name="add"}
  %parameter.18116 = f32[] parameter(1), metadata={op_type="add" op_name="add"}
  ROOT %add.18117 = f32[] add(f32[] %parameter.18115, f32[] %parameter.18116), metadata={op_type="add" op_name="add"}
}

%primitive_computation_add__1.18119 (parameter.18120: f32[], parameter.18121: f32[]) -> f32[] {
  %parameter.18120 = f32[] parameter(0), metadata={op_type="add" op_name="add"}
  %parameter.18121 = f32[] parameter(1), metadata={op_type="add" op_name="add"}
  ROOT %add.18122 = f32[] add(f32[] %parameter.18120, f32[] %parameter.18121), metadata={op_type="add" op_name="add"}
}

%primitive_computation_add__1.18124 (parameter.18125: f32[], parameter.18126: f32[]) -> f32[] {
  %parameter.18125 = f32[] parameter(0), metadata={op_type="add" op_name="add"}
  %parameter.18126 = f32[] parameter(1), metadata={op_type="add" op_name="add"}
  ROOT %add.18127 = f32[] add(f32[] %parameter.18125, f32[] %parameter.18126), metadata={op_type="add" op_name="add"}
}

%primitive_computation_add__1.18129 (parameter.18130: f32[], parameter.18131: f32[]) -> f32[] {
  %parameter.18130 = f32[] parameter(0), metadata={op_type="add" op_name="add"}
  %parameter.18131 = f32[] parameter(1), metadata={op_type="add" op_name="add"}
  ROOT %add.18132 = f32[] add(f32[] %parameter.18130, f32[] %parameter.18131), metadata={op_type="add" op_name="add"}
}

%primitive_computation_add__1.18134 (parameter.18135: f32[], parameter.18136: f32[]) -> f32[] {
  %parameter.18135 = f32[] parameter(0), metadata={op_type="add" op_name="add"}
  %parameter.18136 = f32[] parameter(1), metadata={op_type="add" op_name="add"}
  ROOT %add.18137 = f32[] add(f32[] %parameter.18135, f32[] %parameter.18136), metadata={op_type="add" op_name="add"}
}

%primitive_computation_add__1.18139 (parameter.18140: f32[], parameter.18141: f32[]) -> f32[] {
  %parameter.18140 = f32[] parameter(0), metadata={op_type="add" op_name="add"}
  %parameter.18141 = f32[] parameter(1), metadata={op_type="add" op_name="add"}
  ROOT %add.18142 = f32[] add(f32[] %parameter.18140, f32[] %parameter.18141), metadata={op_type="add" op_name="add"}
}

%primitive_computation_add__1.18144 (parameter.18145: f32[], parameter.18146: f32[]) -> f32[] {
  %parameter.18145 = f32[] parameter(0), metadata={op_type="add" op_name="add"}
  %parameter.18146 = f32[] parameter(1), metadata={op_type="add" op_name="add"}
  ROOT %add.18147 = f32[] add(f32[] %parameter.18145, f32[] %parameter.18146), metadata={op_type="add" op_name="add"}
}

%primitive_computation_add__1.18149 (parameter.18150: f32[], parameter.18151: f32[]) -> f32[] {
  %parameter.18150 = f32[] parameter(0), metadata={op_type="add" op_name="add"}
  %parameter.18151 = f32[] parameter(1), metadata={op_type="add" op_name="add"}
  ROOT %add.18152 = f32[] add(f32[] %parameter.18150, f32[] %parameter.18151), metadata={op_type="add" op_name="add"}
}

%primitive_computation_add__1.18154 (parameter.18155: f32[], parameter.18156: f32[]) -> f32[] {
  %parameter.18155 = f32[] parameter(0), metadata={op_type="add" op_name="add"}
  %parameter.18156 = f32[] parameter(1), metadata={op_type="add" op_name="add"}
  ROOT %add.18157 = f32[] add(f32[] %parameter.18155, f32[] %parameter.18156), metadata={op_type="add" op_name="add"}
}

%primitive_computation_add__1.18159 (parameter.18160: f32[], parameter.18161: f32[]) -> f32[] {
  %parameter.18160 = f32[] parameter(0), metadata={op_type="add" op_name="add"}
  %parameter.18161 = f32[] parameter(1), metadata={op_type="add" op_name="add"}
  ROOT %add.18162 = f32[] add(f32[] %parameter.18160, f32[] %parameter.18161), metadata={op_type="add" op_name="add"}
}

%primitive_computation_add__1.18164 (parameter.18165: f32[], parameter.18166: f32[]) -> f32[] {
  %parameter.18165 = f32[] parameter(0), metadata={op_type="add" op_name="add"}
  %parameter.18166 = f32[] parameter(1), metadata={op_type="add" op_name="add"}
  ROOT %add.18167 = f32[] add(f32[] %parameter.18165, f32[] %parameter.18166), metadata={op_type="add" op_name="add"}
}

%primitive_computation_add__1.18169 (parameter.18170: f32[], parameter.18171: f32[]) -> f32[] {
  %parameter.18170 = f32[] parameter(0), metadata={op_type="add" op_name="add"}
  %parameter.18171 = f32[] parameter(1), metadata={op_type="add" op_name="add"}
  ROOT %add.18172 = f32[] add(f32[] %parameter.18170, f32[] %parameter.18171), metadata={op_type="add" op_name="add"}
}

%primitive_computation_add__1.18174 (parameter.18175: f32[], parameter.18176: f32[]) -> f32[] {
  %parameter.18175 = f32[] parameter(0), metadata={op_type="add" op_name="add"}
  %parameter.18176 = f32[] parameter(1), metadata={op_type="add" op_name="add"}
  ROOT %add.18177 = f32[] add(f32[] %parameter.18175, f32[] %parameter.18176), metadata={op_type="add" op_name="add"}
}

%primitive_computation_add__1.18179 (parameter.18180: f32[], parameter.18181: f32[]) -> f32[] {
  %parameter.18180 = f32[] parameter(0), metadata={op_type="add" op_name="add"}
  %parameter.18181 = f32[] parameter(1), metadata={op_type="add" op_name="add"}
  ROOT %add.18182 = f32[] add(f32[] %parameter.18180, f32[] %parameter.18181), metadata={op_type="add" op_name="add"}
}

%primitive_computation_add__1.18184 (parameter.18185: f32[], parameter.18186: f32[]) -> f32[] {
  %parameter.18185 = f32[] parameter(0), metadata={op_type="add" op_name="add"}
  %parameter.18186 = f32[] parameter(1), metadata={op_type="add" op_name="add"}
  ROOT %add.18187 = f32[] add(f32[] %parameter.18185, f32[] %parameter.18186), metadata={op_type="add" op_name="add"}
}

%fused_computation (param_0: f32[32000,1024], param_1.3: f32[512,1024], param_2.4: s32[], param_3.4: pred[], param_4.6: s32[512]) -> f32[32000,1024] {
  %param_0 = f32[32000,1024]{1,0} parameter(0)
  %param_3.4 = pred[] parameter(3)
  %broadcast.1584 = pred[1,1024]{1,0} broadcast(pred[] %param_3.4), dimensions={}
  %param_4.6 = s32[512]{0} parameter(4)
  %param_2.4 = s32[] parameter(2)
  %dynamic-slice.772 = s32[1]{0} dynamic-slice(s32[512]{0} %param_4.6, s32[] %param_2.4), dynamic_slice_sizes={1}
  %reshape.2798 = s32[] reshape(s32[1]{0} %dynamic-slice.772)
  %constant.20353 = s32[] constant(0)
  %dynamic-slice.771 = f32[1,1024]{1,0} dynamic-slice(f32[32000,1024]{1,0} %param_0, s32[] %reshape.2798, s32[] %constant.20353), dynamic_slice_sizes={1,1024}
  %param_1.3 = f32[512,1024]{1,0} parameter(1)
  %dynamic-slice.770 = f32[1,1024]{1,0} dynamic-slice(f32[512,1024]{1,0} %param_1.3, s32[] %param_2.4, s32[] %constant.20353), dynamic_slice_sizes={1,1024}
  %add.3855 = f32[1,1024]{1,0} add(f32[1,1024]{1,0} %dynamic-slice.771, f32[1,1024]{1,0} %dynamic-slice.770)
  %select.2631 = f32[1,1024]{1,0} select(pred[1,1024]{1,0} %broadcast.1584, f32[1,1024]{1,0} %add.3855, f32[1,1024]{1,0} %dynamic-slice.771)
  ROOT %dynamic-update-slice.762 = f32[32000,1024]{1,0} dynamic-update-slice(f32[32000,1024]{1,0} %param_0, f32[1,1024]{1,0} %select.2631, s32[] %reshape.2798, s32[] %constant.20353)
}

%and.reduce_sub_computation (lhs: pred[], rhs: pred[]) -> pred[] {
  %lhs = pred[] parameter(0)
  %rhs = pred[] parameter(1)
  ROOT %and.16 = pred[] and(pred[] %lhs, pred[] %rhs)
}

%fused_computation.1 (param_0.4: s32[2]) -> pred[] {
  %constant.20357 = s32[] constant(0)
  %broadcast.1585 = s32[2]{0} broadcast(s32[] %constant.20357), dimensions={}
  %param_0.4 = s32[2]{0} parameter(0)
  %compare.2741 = pred[2]{0} compare(s32[2]{0} %broadcast.1585, s32[2]{0} %param_0.4), direction=LE
  %constant.20355 = s32[2]{0} constant({31999, 0})
  %compare.2739 = pred[2]{0} compare(s32[2]{0} %constant.20355, s32[2]{0} %param_0.4), direction=GE
  %and.20 = pred[2]{0} and(pred[2]{0} %compare.2741, pred[2]{0} %compare.2739)
  %constant.20354 = pred[] constant(true)
  ROOT %reduce.281 = pred[] reduce(pred[2]{0} %and.20, pred[] %constant.20354), dimensions={0}, to_apply=%and.reduce_sub_computation
}

%fused_computation.2 (param_0.7: s32[512], param_1.13: s32[]) -> s32[2] {
  %param_0.7 = s32[512]{0} parameter(0)
  %param_1.13 = s32[] parameter(1)
  %dynamic-slice.773 = s32[1]{0} dynamic-slice(s32[512]{0} %param_0.7, s32[] %param_1.13), dynamic_slice_sizes={1}
  %constant.20358 = s32[1]{0} constant({0})
  ROOT %concatenate.226 = s32[2]{0} concatenate(s32[1]{0} %dynamic-slice.773, s32[1]{0} %constant.20358), dimensions={0}
}

%while_body (param.0: (s32[], f32[32000,1024], s32[512], f32[512,1024])) -> (s32[], f32[32000,1024], s32[512], f32[512,1024]) {
  %param.0 = (s32[], f32[32000,1024]{1,0}, s32[512]{0}, f32[512,1024]{1,0}) parameter(0)
  %get-tuple-element.27942 = s32[] get-tuple-element((s32[], f32[32000,1024]{1,0}, s32[512]{0}, f32[512,1024]{1,0}) %param.0), index=0
  %copy.931 = s32[] copy(s32[] %get-tuple-element.27942)
  %constant.1120 = s32[] constant(1)
  %add.196 = s32[] add(s32[] %copy.931, s32[] %constant.1120)
  %get-tuple-element.27943 = f32[32000,1024]{1,0} get-tuple-element((s32[], f32[32000,1024]{1,0}, s32[512]{0}, f32[512,1024]{1,0}) %param.0), index=1
  %get-tuple-element.27945 = f32[512,1024]{1,0} get-tuple-element((s32[], f32[32000,1024]{1,0}, s32[512]{0}, f32[512,1024]{1,0}) %param.0), index=3
  %get-tuple-element.27944 = s32[512]{0} get-tuple-element((s32[], f32[32000,1024]{1,0}, s32[512]{0}, f32[512,1024]{1,0}) %param.0), index=2
  %fusion.2 = s32[2]{0} fusion(s32[512]{0} %get-tuple-element.27944, s32[] %copy.931), kind=kLoop, calls=%fused_computation.2
  %fusion.1 = pred[] fusion(s32[2]{0} %fusion.2), kind=kLoop, calls=%fused_computation.1
  %fusion = f32[32000,1024]{1,0} fusion(f32[32000,1024]{1,0} %get-tuple-element.27943, f32[512,1024]{1,0} %get-tuple-element.27945, s32[] %copy.931, pred[] %fusion.1, s32[512]{0} %get-tuple-element.27944), kind=kLoop, calls=%fused_computation
  ROOT %tuple.1347 = (s32[], f32[32000,1024]{1,0}, s32[512]{0}, f32[512,1024]{1,0}) tuple(s32[] %add.196, f32[32000,1024]{1,0} %fusion, s32[512]{0} %get-tuple-element.27944, f32[512,1024]{1,0} %get-tuple-element.27945)
}

%while_cond (param.1: (s32[], f32[32000,1024], s32[512], f32[512,1024])) -> pred[] {
  %param.1 = (s32[], f32[32000,1024]{1,0}, s32[512]{0}, f32[512,1024]{1,0}) parameter(0)
  %get-tuple-element.3534 = s32[] get-tuple-element((s32[], f32[32000,1024]{1,0}, s32[512]{0}, f32[512,1024]{1,0}) %param.1), index=0
  %constant.1128 = s32[] constant(512)
  ROOT %compare.12 = pred[] compare(s32[] %get-tuple-element.3534, s32[] %constant.1128), direction=LT
}

%fused_computation.3 (param_0.8: f32[256,1024], param_1.17: f32[512,1024], param_2.12: s32[], param_3.9: pred[], param_4.13: s32[512]) -> f32[256,1024] {
  %param_0.8 = f32[256,1024]{1,0} parameter(0)
  %param_3.9 = pred[] parameter(3)
  %broadcast.1586 = pred[1,1024]{1,0} broadcast(pred[] %param_3.9), dimensions={}
  %param_4.13 = s32[512]{0} parameter(4)
  %param_2.12 = s32[] parameter(2)
  %dynamic-slice.776 = s32[1]{0} dynamic-slice(s32[512]{0} %param_4.13, s32[] %param_2.12), dynamic_slice_sizes={1}
  %reshape.2799 = s32[] reshape(s32[1]{0} %dynamic-slice.776)
  %constant.20359 = s32[] constant(0)
  %dynamic-slice.775 = f32[1,1024]{1,0} dynamic-slice(f32[256,1024]{1,0} %param_0.8, s32[] %reshape.2799, s32[] %constant.20359), dynamic_slice_sizes={1,1024}
  %param_1.17 = f32[512,1024]{1,0} parameter(1)
  %dynamic-slice.774 = f32[1,1024]{1,0} dynamic-slice(f32[512,1024]{1,0} %param_1.17, s32[] %param_2.12, s32[] %constant.20359), dynamic_slice_sizes={1,1024}
  %add.3856 = f32[1,1024]{1,0} add(f32[1,1024]{1,0} %dynamic-slice.775, f32[1,1024]{1,0} %dynamic-slice.774)
  %select.2632 = f32[1,1024]{1,0} select(pred[1,1024]{1,0} %broadcast.1586, f32[1,1024]{1,0} %add.3856, f32[1,1024]{1,0} %dynamic-slice.775)
  ROOT %dynamic-update-slice.763 = f32[256,1024]{1,0} dynamic-update-slice(f32[256,1024]{1,0} %param_0.8, f32[1,1024]{1,0} %select.2632, s32[] %reshape.2799, s32[] %constant.20359)
}

%and.reduce_sub_computation.1 (lhs.1: pred[], rhs.1: pred[]) -> pred[] {
  %lhs.1 = pred[] parameter(0)
  %rhs.1 = pred[] parameter(1)
  ROOT %and.18 = pred[] and(pred[] %lhs.1, pred[] %rhs.1)
}

%fused_computation.4 (param_0.12: s32[2]) -> pred[] {
  %constant.20363 = s32[] constant(0)
  %broadcast.1587 = s32[2]{0} broadcast(s32[] %constant.20363), dimensions={}
  %param_0.12 = s32[2]{0} parameter(0)
  %compare.2743 = pred[2]{0} compare(s32[2]{0} %broadcast.1587, s32[2]{0} %param_0.12), direction=LE
  %constant.20362 = s32[2]{0} constant({255, 0})
  %compare.2742 = pred[2]{0} compare(s32[2]{0} %constant.20362, s32[2]{0} %param_0.12), direction=GE
  %and.21 = pred[2]{0} and(pred[2]{0} %compare.2743, pred[2]{0} %compare.2742)
  %constant.20360 = pred[] constant(true)
  ROOT %reduce.282 = pred[] reduce(pred[2]{0} %and.21, pred[] %constant.20360), dimensions={0}, to_apply=%and.reduce_sub_computation.1
}

%fused_computation.5 (param_0.15: s32[512], param_1.27: s32[]) -> s32[2] {
  %param_0.15 = s32[512]{0} parameter(0)
  %param_1.27 = s32[] parameter(1)
  %dynamic-slice.777 = s32[1]{0} dynamic-slice(s32[512]{0} %param_0.15, s32[] %param_1.27), dynamic_slice_sizes={1}
  %constant.20364 = s32[1]{0} constant({0})
  ROOT %concatenate.227 = s32[2]{0} concatenate(s32[1]{0} %dynamic-slice.777, s32[1]{0} %constant.20364), dimensions={0}
}

%while_body.1 (param.2: (s32[], f32[256,1024], s32[512], f32[512,1024])) -> (s32[], f32[256,1024], s32[512], f32[512,1024]) {
  %param.2 = (s32[], f32[256,1024]{1,0}, s32[512]{0}, f32[512,1024]{1,0}) parameter(0)
  %get-tuple-element.28011 = s32[] get-tuple-element((s32[], f32[256,1024]{1,0}, s32[512]{0}, f32[512,1024]{1,0}) %param.2), index=0
  %copy.952 = s32[] copy(s32[] %get-tuple-element.28011)
  %constant.1134 = s32[] constant(1)
  %add.197 = s32[] add(s32[] %copy.952, s32[] %constant.1134)
  %get-tuple-element.28012 = f32[256,1024]{1,0} get-tuple-element((s32[], f32[256,1024]{1,0}, s32[512]{0}, f32[512,1024]{1,0}) %param.2), index=1
  %get-tuple-element.28014 = f32[512,1024]{1,0} get-tuple-element((s32[], f32[256,1024]{1,0}, s32[512]{0}, f32[512,1024]{1,0}) %param.2), index=3
  %get-tuple-element.28013 = s32[512]{0} get-tuple-element((s32[], f32[256,1024]{1,0}, s32[512]{0}, f32[512,1024]{1,0}) %param.2), index=2
  %fusion.5 = s32[2]{0} fusion(s32[512]{0} %get-tuple-element.28013, s32[] %copy.952), kind=kLoop, calls=%fused_computation.5
  %fusion.4 = pred[] fusion(s32[2]{0} %fusion.5), kind=kLoop, calls=%fused_computation.4
  %fusion.3 = f32[256,1024]{1,0} fusion(f32[256,1024]{1,0} %get-tuple-element.28012, f32[512,1024]{1,0} %get-tuple-element.28014, s32[] %copy.952, pred[] %fusion.4, s32[512]{0} %get-tuple-element.28013), kind=kLoop, calls=%fused_computation.3
  ROOT %tuple.1353 = (s32[], f32[256,1024]{1,0}, s32[512]{0}, f32[512,1024]{1,0}) tuple(s32[] %add.197, f32[256,1024]{1,0} %fusion.3, s32[512]{0} %get-tuple-element.28013, f32[512,1024]{1,0} %get-tuple-element.28014)
}

%while_cond.1 (param.3: (s32[], f32[256,1024], s32[512], f32[512,1024])) -> pred[] {
  %param.3 = (s32[], f32[256,1024]{1,0}, s32[512]{0}, f32[512,1024]{1,0}) parameter(0)
  %get-tuple-element.3543 = s32[] get-tuple-element((s32[], f32[256,1024]{1,0}, s32[512]{0}, f32[512,1024]{1,0}) %param.3), index=0
  %constant.1141 = s32[] constant(512)
  ROOT %compare.15 = pred[] compare(s32[] %get-tuple-element.3543, s32[] %constant.1141), direction=LT
}

%primitive_computation_add__1.13228 (parameter.13229: f32[], parameter.13230: f32[]) -> f32[] {
  %parameter.13229 = f32[] parameter(0), metadata={op_type="add" op_name="add"}
  %parameter.13230 = f32[] parameter(1), metadata={op_type="add" op_name="add"}
  ROOT %add.13231 = f32[] add(f32[] %parameter.13229, f32[] %parameter.13230), metadata={op_type="add" op_name="add"}
}

%primitive_computation_max.8155 (parameter.8156: f32[], parameter.8157: f32[]) -> f32[] {
  %parameter.8156 = f32[] parameter(0), metadata={op_type="max" op_name="max"}
  %parameter.8157 = f32[] parameter(1), metadata={op_type="max" op_name="max"}
  ROOT %maximum.8158 = f32[] maximum(f32[] %parameter.8156, f32[] %parameter.8157), metadata={op_type="max" op_name="max"}
}

%primitive_computation_add__1.8183 (parameter.8184: f32[], parameter.8185: f32[]) -> f32[] {
  %parameter.8184 = f32[] parameter(0), metadata={op_type="add" op_name="add"}
  %parameter.8185 = f32[] parameter(1), metadata={op_type="add" op_name="add"}
  ROOT %add.8186 = f32[] add(f32[] %parameter.8184, f32[] %parameter.8185), metadata={op_type="add" op_name="add"}
}

%primitive_computation_max.12878 (parameter.12879: f32[], parameter.12880: f32[]) -> f32[] {
  %parameter.12879 = f32[] parameter(0), metadata={op_type="max" op_name="max"}
  %parameter.12880 = f32[] parameter(1), metadata={op_type="max" op_name="max"}
  ROOT %maximum.12881 = f32[] maximum(f32[] %parameter.12879, f32[] %parameter.12880), metadata={op_type="max" op_name="max"}
}

%primitive_computation_add__1.12906 (parameter.12907: f32[], parameter.12908: f32[]) -> f32[] {
  %parameter.12907 = f32[] parameter(0), metadata={op_type="add" op_name="add"}
  %parameter.12908 = f32[] parameter(1), metadata={op_type="add" op_name="add"}
  ROOT %add.12909 = f32[] add(f32[] %parameter.12907, f32[] %parameter.12908), metadata={op_type="add" op_name="add"}
}

%primitive_computation_max.13106 (parameter.13107: f32[], parameter.13108: f32[]) -> f32[] {
  %parameter.13107 = f32[] parameter(0), metadata={op_type="max" op_name="max"}
  %parameter.13108 = f32[] parameter(1), metadata={op_type="max" op_name="max"}
  ROOT %maximum.13109 = f32[] maximum(f32[] %parameter.13107, f32[] %parameter.13108), metadata={op_type="max" op_name="max"}
}

%primitive_computation_add__1.13134 (parameter.13135: f32[], parameter.13136: f32[]) -> f32[] {
  %parameter.13135 = f32[] parameter(0), metadata={op_type="add" op_name="add"}
  %parameter.13136 = f32[] parameter(1), metadata={op_type="add" op_name="add"}
  ROOT %add.13137 = f32[] add(f32[] %parameter.13135, f32[] %parameter.13136), metadata={op_type="add" op_name="add"}
}

%primitive_computation_add__1.13247 (parameter.13248: f32[], parameter.13249: f32[]) -> f32[] {
  %parameter.13248 = f32[] parameter(0), metadata={op_type="add" op_name="add"}
  %parameter.13249 = f32[] parameter(1), metadata={op_type="add" op_name="add"}
  ROOT %add.13250 = f32[] add(f32[] %parameter.13248, f32[] %parameter.13249), metadata={op_type="add" op_name="add"}
}

%primitive_computation_add__1.15389 (parameter.15390: f32[], parameter.15391: f32[]) -> f32[] {
  %parameter.15390 = f32[] parameter(0), metadata={op_type="add" op_name="add"}
  %parameter.15391 = f32[] parameter(1), metadata={op_type="add" op_name="add"}
  ROOT %add.15392 = f32[] add(f32[] %parameter.15390, f32[] %parameter.15391), metadata={op_type="add" op_name="add"}
}

%primitive_computation_add__1.18530 (parameter.18531: f32[], parameter.18532: f32[]) -> f32[] {
  %parameter.18531 = f32[] parameter(0), metadata={op_type="add" op_name="add"}
  %parameter.18532 = f32[] parameter(1), metadata={op_type="add" op_name="add"}
  ROOT %add.18533 = f32[] add(f32[] %parameter.18531, f32[] %parameter.18532), metadata={op_type="add" op_name="add"}
}

%primitive_computation_add__1.18572 (parameter.18573: f32[], parameter.18574: f32[]) -> f32[] {
  %parameter.18573 = f32[] parameter(0), metadata={op_type="add" op_name="add"}
  %parameter.18574 = f32[] parameter(1), metadata={op_type="add" op_name="add"}
  ROOT %add.18575 = f32[] add(f32[] %parameter.18573, f32[] %parameter.18574), metadata={op_type="add" op_name="add"}
}

%primitive_computation_add__1.18604 (parameter.18605: f32[], parameter.18606: f32[]) -> f32[] {
  %parameter.18605 = f32[] parameter(0), metadata={op_type="add" op_name="add"}
  %parameter.18606 = f32[] parameter(1), metadata={op_type="add" op_name="add"}
  ROOT %add.18607 = f32[] add(f32[] %parameter.18605, f32[] %parameter.18606), metadata={op_type="add" op_name="add"}
}

%primitive_computation_add__1.18656 (parameter.18657: f32[], parameter.18658: f32[]) -> f32[] {
  %parameter.18657 = f32[] parameter(0), metadata={op_type="add" op_name="add"}
  %parameter.18658 = f32[] parameter(1), metadata={op_type="add" op_name="add"}
  ROOT %add.18659 = f32[] add(f32[] %parameter.18657, f32[] %parameter.18658), metadata={op_type="add" op_name="add"}
}

%primitive_computation_add__1.18698 (parameter.18699: f32[], parameter.18700: f32[]) -> f32[] {
  %parameter.18699 = f32[] parameter(0), metadata={op_type="add" op_name="add"}
  %parameter.18700 = f32[] parameter(1), metadata={op_type="add" op_name="add"}
  ROOT %add.18701 = f32[] add(f32[] %parameter.18699, f32[] %parameter.18700), metadata={op_type="add" op_name="add"}
}

%primitive_computation_add__1.18730 (parameter.18731: f32[], parameter.18732: f32[]) -> f32[] {
  %parameter.18731 = f32[] parameter(0), metadata={op_type="add" op_name="add"}
  %parameter.18732 = f32[] parameter(1), metadata={op_type="add" op_name="add"}
  ROOT %add.18733 = f32[] add(f32[] %parameter.18731, f32[] %parameter.18732), metadata={op_type="add" op_name="add"}
}

%primitive_computation_add__1.18782 (parameter.18783: f32[], parameter.18784: f32[]) -> f32[] {
  %parameter.18783 = f32[] parameter(0), metadata={op_type="add" op_name="add"}
  %parameter.18784 = f32[] parameter(1), metadata={op_type="add" op_name="add"}
  ROOT %add.18785 = f32[] add(f32[] %parameter.18783, f32[] %parameter.18784), metadata={op_type="add" op_name="add"}
}

%primitive_computation_add__1.18808 (parameter.18809: f32[], parameter.18810: f32[]) -> f32[] {
  %parameter.18809 = f32[] parameter(0), metadata={op_type="add" op_name="add"}
  %parameter.18810 = f32[] parameter(1), metadata={op_type="add" op_name="add"}
  ROOT %add.18811 = f32[] add(f32[] %parameter.18809, f32[] %parameter.18810), metadata={op_type="add" op_name="add"}
}

%primitive_computation_add__1.18860 (parameter.18861: f32[], parameter.18862: f32[]) -> f32[] {
  %parameter.18861 = f32[] parameter(0), metadata={op_type="add" op_name="add"}
  %parameter.18862 = f32[] parameter(1), metadata={op_type="add" op_name="add"}
  ROOT %add.18863 = f32[] add(f32[] %parameter.18861, f32[] %parameter.18862), metadata={op_type="add" op_name="add"}
}

%primitive_computation_add__1.18902 (parameter.18903: f32[], parameter.18904: f32[]) -> f32[] {
  %parameter.18903 = f32[] parameter(0), metadata={op_type="add" op_name="add"}
  %parameter.18904 = f32[] parameter(1), metadata={op_type="add" op_name="add"}
  ROOT %add.18905 = f32[] add(f32[] %parameter.18903, f32[] %parameter.18904), metadata={op_type="add" op_name="add"}
}

%primitive_computation_add__1.18934 (parameter.18935: f32[], parameter.18936: f32[]) -> f32[] {
  %parameter.18935 = f32[] parameter(0), metadata={op_type="add" op_name="add"}
  %parameter.18936 = f32[] parameter(1), metadata={op_type="add" op_name="add"}
  ROOT %add.18937 = f32[] add(f32[] %parameter.18935, f32[] %parameter.18936), metadata={op_type="add" op_name="add"}
}

%primitive_computation_add__1.18986 (parameter.18987: f32[], parameter.18988: f32[]) -> f32[] {
  %parameter.18987 = f32[] parameter(0), metadata={op_type="add" op_name="add"}
  %parameter.18988 = f32[] parameter(1), metadata={op_type="add" op_name="add"}
  ROOT %add.18989 = f32[] add(f32[] %parameter.18987, f32[] %parameter.18988), metadata={op_type="add" op_name="add"}
}

%primitive_computation_add__1.19012 (parameter.19013: f32[], parameter.19014: f32[]) -> f32[] {
  %parameter.19013 = f32[] parameter(0), metadata={op_type="add" op_name="add"}
  %parameter.19014 = f32[] parameter(1), metadata={op_type="add" op_name="add"}
  ROOT %add.19015 = f32[] add(f32[] %parameter.19013, f32[] %parameter.19014), metadata={op_type="add" op_name="add"}
}

%primitive_computation_add__1.19064 (parameter.19065: f32[], parameter.19066: f32[]) -> f32[] {
  %parameter.19065 = f32[] parameter(0), metadata={op_type="add" op_name="add"}
  %parameter.19066 = f32[] parameter(1), metadata={op_type="add" op_name="add"}
  ROOT %add.19067 = f32[] add(f32[] %parameter.19065, f32[] %parameter.19066), metadata={op_type="add" op_name="add"}
}

%primitive_computation_add__1.19106 (parameter.19107: f32[], parameter.19108: f32[]) -> f32[] {
  %parameter.19107 = f32[] parameter(0), metadata={op_type="add" op_name="add"}
  %parameter.19108 = f32[] parameter(1), metadata={op_type="add" op_name="add"}
  ROOT %add.19109 = f32[] add(f32[] %parameter.19107, f32[] %parameter.19108), metadata={op_type="add" op_name="add"}
}

%primitive_computation_add__1.19138 (parameter.19139: f32[], parameter.19140: f32[]) -> f32[] {
  %parameter.19139 = f32[] parameter(0), metadata={op_type="add" op_name="add"}
  %parameter.19140 = f32[] parameter(1), metadata={op_type="add" op_name="add"}
  ROOT %add.19141 = f32[] add(f32[] %parameter.19139, f32[] %parameter.19140), metadata={op_type="add" op_name="add"}
}

%primitive_computation_add__1.19190 (parameter.19191: f32[], parameter.19192: f32[]) -> f32[] {
  %parameter.19191 = f32[] parameter(0), metadata={op_type="add" op_name="add"}
  %parameter.19192 = f32[] parameter(1), metadata={op_type="add" op_name="add"}
  ROOT %add.19193 = f32[] add(f32[] %parameter.19191, f32[] %parameter.19192), metadata={op_type="add" op_name="add"}
}

%primitive_computation_add__1.19216 (parameter.19217: f32[], parameter.19218: f32[]) -> f32[] {
  %parameter.19217 = f32[] parameter(0), metadata={op_type="add" op_name="add"}
  %parameter.19218 = f32[] parameter(1), metadata={op_type="add" op_name="add"}
  ROOT %add.19219 = f32[] add(f32[] %parameter.19217, f32[] %parameter.19218), metadata={op_type="add" op_name="add"}
}

%primitive_computation_add__1.19268 (parameter.19269: f32[], parameter.19270: f32[]) -> f32[] {
  %parameter.19269 = f32[] parameter(0), metadata={op_type="add" op_name="add"}
  %parameter.19270 = f32[] parameter(1), metadata={op_type="add" op_name="add"}
  ROOT %add.19271 = f32[] add(f32[] %parameter.19269, f32[] %parameter.19270), metadata={op_type="add" op_name="add"}
}

%primitive_computation_add__1.19310 (parameter.19311: f32[], parameter.19312: f32[]) -> f32[] {
  %parameter.19311 = f32[] parameter(0), metadata={op_type="add" op_name="add"}
  %parameter.19312 = f32[] parameter(1), metadata={op_type="add" op_name="add"}
  ROOT %add.19313 = f32[] add(f32[] %parameter.19311, f32[] %parameter.19312), metadata={op_type="add" op_name="add"}
}

%primitive_computation_add__1.19342 (parameter.19343: f32[], parameter.19344: f32[]) -> f32[] {
  %parameter.19343 = f32[] parameter(0), metadata={op_type="add" op_name="add"}
  %parameter.19344 = f32[] parameter(1), metadata={op_type="add" op_name="add"}
  ROOT %add.19345 = f32[] add(f32[] %parameter.19343, f32[] %parameter.19344), metadata={op_type="add" op_name="add"}
}

%primitive_computation_add__1.19394 (parameter.19395: f32[], parameter.19396: f32[]) -> f32[] {
  %parameter.19395 = f32[] parameter(0), metadata={op_type="add" op_name="add"}
  %parameter.19396 = f32[] parameter(1), metadata={op_type="add" op_name="add"}
  ROOT %add.19397 = f32[] add(f32[] %parameter.19395, f32[] %parameter.19396), metadata={op_type="add" op_name="add"}
}

%primitive_computation_add__1.19420 (parameter.19421: f32[], parameter.19422: f32[]) -> f32[] {
  %parameter.19421 = f32[] parameter(0), metadata={op_type="add" op_name="add"}
  %parameter.19422 = f32[] parameter(1), metadata={op_type="add" op_name="add"}
  ROOT %add.19423 = f32[] add(f32[] %parameter.19421, f32[] %parameter.19422), metadata={op_type="add" op_name="add"}
}

%primitive_computation_add__1.19472 (parameter.19473: f32[], parameter.19474: f32[]) -> f32[] {
  %parameter.19473 = f32[] parameter(0), metadata={op_type="add" op_name="add"}
  %parameter.19474 = f32[] parameter(1), metadata={op_type="add" op_name="add"}
  ROOT %add.19475 = f32[] add(f32[] %parameter.19473, f32[] %parameter.19474), metadata={op_type="add" op_name="add"}
}

%primitive_computation_add__1.19488 (parameter.19489: f32[], parameter.19490: f32[]) -> f32[] {
  %parameter.19489 = f32[] parameter(0), metadata={op_type="add" op_name="add"}
  %parameter.19490 = f32[] parameter(1), metadata={op_type="add" op_name="add"}
  ROOT %add.19491 = f32[] add(f32[] %parameter.19489, f32[] %parameter.19490), metadata={op_type="add" op_name="add"}
}

%primitive_computation_add__1.19514 (parameter.19515: f32[], parameter.19516: f32[]) -> f32[] {
  %parameter.19515 = f32[] parameter(0), metadata={op_type="add" op_name="add"}
  %parameter.19516 = f32[] parameter(1), metadata={op_type="add" op_name="add"}
  ROOT %add.19517 = f32[] add(f32[] %parameter.19515, f32[] %parameter.19516), metadata={op_type="add" op_name="add"}
}

%primitive_computation_add__1.19502 (parameter.19503: f32[], parameter.19504: f32[]) -> f32[] {
  %parameter.19503 = f32[] parameter(0), metadata={op_type="add" op_name="add"}
  %parameter.19504 = f32[] parameter(1), metadata={op_type="add" op_name="add"}
  ROOT %add.19505 = f32[] add(f32[] %parameter.19503, f32[] %parameter.19504), metadata={op_type="add" op_name="add"}
}

%primitive_computation_add__1.19546 (parameter.19547: f32[], parameter.19548: f32[]) -> f32[] {
  %parameter.19547 = f32[] parameter(0), metadata={op_type="add" op_name="add"}
  %parameter.19548 = f32[] parameter(1), metadata={op_type="add" op_name="add"}
  ROOT %add.19549 = f32[] add(f32[] %parameter.19547, f32[] %parameter.19548), metadata={op_type="add" op_name="add"}
}

%primitive_computation_add__1.19598 (parameter.19599: f32[], parameter.19600: f32[]) -> f32[] {
  %parameter.19599 = f32[] parameter(0), metadata={op_type="add" op_name="add"}
  %parameter.19600 = f32[] parameter(1), metadata={op_type="add" op_name="add"}
  ROOT %add.19601 = f32[] add(f32[] %parameter.19599, f32[] %parameter.19600), metadata={op_type="add" op_name="add"}
}

%primitive_computation_add__1.19640 (parameter.19641: f32[], parameter.19642: f32[]) -> f32[] {
  %parameter.19641 = f32[] parameter(0), metadata={op_type="add" op_name="add"}
  %parameter.19642 = f32[] parameter(1), metadata={op_type="add" op_name="add"}
  ROOT %add.19643 = f32[] add(f32[] %parameter.19641, f32[] %parameter.19642), metadata={op_type="add" op_name="add"}
}

%primitive_computation_add__1.19672 (parameter.19673: f32[], parameter.19674: f32[]) -> f32[] {
  %parameter.19673 = f32[] parameter(0), metadata={op_type="add" op_name="add"}
  %parameter.19674 = f32[] parameter(1), metadata={op_type="add" op_name="add"}
  ROOT %add.19675 = f32[] add(f32[] %parameter.19673, f32[] %parameter.19674), metadata={op_type="add" op_name="add"}
}

%primitive_computation_add__1.19724 (parameter.19725: f32[], parameter.19726: f32[]) -> f32[] {
  %parameter.19725 = f32[] parameter(0), metadata={op_type="add" op_name="add"}
  %parameter.19726 = f32[] parameter(1), metadata={op_type="add" op_name="add"}
  ROOT %add.19727 = f32[] add(f32[] %parameter.19725, f32[] %parameter.19726), metadata={op_type="add" op_name="add"}
}

%primitive_computation_add__1.19750 (parameter.19751: f32[], parameter.19752: f32[]) -> f32[] {
  %parameter.19751 = f32[] parameter(0), metadata={op_type="add" op_name="add"}
  %parameter.19752 = f32[] parameter(1), metadata={op_type="add" op_name="add"}
  ROOT %add.19753 = f32[] add(f32[] %parameter.19751, f32[] %parameter.19752), metadata={op_type="add" op_name="add"}
}

%primitive_computation_add__1.19802 (parameter.19803: f32[], parameter.19804: f32[]) -> f32[] {
  %parameter.19803 = f32[] parameter(0), metadata={op_type="add" op_name="add"}
  %parameter.19804 = f32[] parameter(1), metadata={op_type="add" op_name="add"}
  ROOT %add.19805 = f32[] add(f32[] %parameter.19803, f32[] %parameter.19804), metadata={op_type="add" op_name="add"}
}

%primitive_computation_add__1.19818 (parameter.19819: f32[], parameter.19820: f32[]) -> f32[] {
  %parameter.19819 = f32[] parameter(0), metadata={op_type="add" op_name="add"}
  %parameter.19820 = f32[] parameter(1), metadata={op_type="add" op_name="add"}
  ROOT %add.19821 = f32[] add(f32[] %parameter.19819, f32[] %parameter.19820), metadata={op_type="add" op_name="add"}
}

%primitive_computation_add__1.19844 (parameter.19845: f32[], parameter.19846: f32[]) -> f32[] {
  %parameter.19845 = f32[] parameter(0), metadata={op_type="add" op_name="add"}
  %parameter.19846 = f32[] parameter(1), metadata={op_type="add" op_name="add"}
  ROOT %add.19847 = f32[] add(f32[] %parameter.19845, f32[] %parameter.19846), metadata={op_type="add" op_name="add"}
}

%primitive_computation_add__1.19832 (parameter.19833: f32[], parameter.19834: f32[]) -> f32[] {
  %parameter.19833 = f32[] parameter(0), metadata={op_type="add" op_name="add"}
  %parameter.19834 = f32[] parameter(1), metadata={op_type="add" op_name="add"}
  ROOT %add.19835 = f32[] add(f32[] %parameter.19833, f32[] %parameter.19834), metadata={op_type="add" op_name="add"}
}

%primitive_computation_add__1.19876 (parameter.19877: f32[], parameter.19878: f32[]) -> f32[] {
  %parameter.19877 = f32[] parameter(0), metadata={op_type="add" op_name="add"}
  %parameter.19878 = f32[] parameter(1), metadata={op_type="add" op_name="add"}
  ROOT %add.19879 = f32[] add(f32[] %parameter.19877, f32[] %parameter.19878), metadata={op_type="add" op_name="add"}
}

%primitive_computation_add__1.19928 (parameter.19929: f32[], parameter.19930: f32[]) -> f32[] {
  %parameter.19929 = f32[] parameter(0), metadata={op_type="add" op_name="add"}
  %parameter.19930 = f32[] parameter(1), metadata={op_type="add" op_name="add"}
  ROOT %add.19931 = f32[] add(f32[] %parameter.19929, f32[] %parameter.19930), metadata={op_type="add" op_name="add"}
}

%primitive_computation_add__1.19954 (parameter.19955: f32[], parameter.19956: f32[]) -> f32[] {
  %parameter.19955 = f32[] parameter(0), metadata={op_type="add" op_name="add"}
  %parameter.19956 = f32[] parameter(1), metadata={op_type="add" op_name="add"}
  ROOT %add.19957 = f32[] add(f32[] %parameter.19955, f32[] %parameter.19956), metadata={op_type="add" op_name="add"}
}

%primitive_computation_add__1.20006 (parameter.20007: f32[], parameter.20008: f32[]) -> f32[] {
  %parameter.20007 = f32[] parameter(0), metadata={op_type="add" op_name="add"}
  %parameter.20008 = f32[] parameter(1), metadata={op_type="add" op_name="add"}
  ROOT %add.20009 = f32[] add(f32[] %parameter.20007, f32[] %parameter.20008), metadata={op_type="add" op_name="add"}
}

%primitive_computation_add__1.20022 (parameter.20023: f32[], parameter.20024: f32[]) -> f32[] {
  %parameter.20023 = f32[] parameter(0), metadata={op_type="add" op_name="add"}
  %parameter.20024 = f32[] parameter(1), metadata={op_type="add" op_name="add"}
  ROOT %add.20025 = f32[] add(f32[] %parameter.20023, f32[] %parameter.20024), metadata={op_type="add" op_name="add"}
}

%primitive_computation_add__1.20048 (parameter.20049: f32[], parameter.20050: f32[]) -> f32[] {
  %parameter.20049 = f32[] parameter(0), metadata={op_type="add" op_name="add"}
  %parameter.20050 = f32[] parameter(1), metadata={op_type="add" op_name="add"}
  ROOT %add.20051 = f32[] add(f32[] %parameter.20049, f32[] %parameter.20050), metadata={op_type="add" op_name="add"}
}

%primitive_computation_add__1.20036 (parameter.20037: f32[], parameter.20038: f32[]) -> f32[] {
  %parameter.20037 = f32[] parameter(0), metadata={op_type="add" op_name="add"}
  %parameter.20038 = f32[] parameter(1), metadata={op_type="add" op_name="add"}
  ROOT %add.20039 = f32[] add(f32[] %parameter.20037, f32[] %parameter.20038), metadata={op_type="add" op_name="add"}
}

%primitive_computation_add__1.20080 (parameter.20081: f32[], parameter.20082: f32[]) -> f32[] {
  %parameter.20081 = f32[] parameter(0), metadata={op_type="add" op_name="add"}
  %parameter.20082 = f32[] parameter(1), metadata={op_type="add" op_name="add"}
  ROOT %add.20083 = f32[] add(f32[] %parameter.20081, f32[] %parameter.20082), metadata={op_type="add" op_name="add"}
}

%primitive_computation_add__1.20132 (parameter.20133: f32[], parameter.20134: f32[]) -> f32[] {
  %parameter.20133 = f32[] parameter(0), metadata={op_type="add" op_name="add"}
  %parameter.20134 = f32[] parameter(1), metadata={op_type="add" op_name="add"}
  ROOT %add.20135 = f32[] add(f32[] %parameter.20133, f32[] %parameter.20134), metadata={op_type="add" op_name="add"}
}

%primitive_computation_add__1.20158 (parameter.20159: f32[], parameter.20160: f32[]) -> f32[] {
  %parameter.20159 = f32[] parameter(0), metadata={op_type="add" op_name="add"}
  %parameter.20160 = f32[] parameter(1), metadata={op_type="add" op_name="add"}
  ROOT %add.20161 = f32[] add(f32[] %parameter.20159, f32[] %parameter.20160), metadata={op_type="add" op_name="add"}
}

%primitive_computation_add__1.20210 (parameter.20211: f32[], parameter.20212: f32[]) -> f32[] {
  %parameter.20211 = f32[] parameter(0), metadata={op_type="add" op_name="add"}
  %parameter.20212 = f32[] parameter(1), metadata={op_type="add" op_name="add"}
  ROOT %add.20213 = f32[] add(f32[] %parameter.20211, f32[] %parameter.20212), metadata={op_type="add" op_name="add"}
}

%primitive_computation_add__1.20226 (parameter.20227: f32[], parameter.20228: f32[]) -> f32[] {
  %parameter.20227 = f32[] parameter(0), metadata={op_type="add" op_name="add"}
  %parameter.20228 = f32[] parameter(1), metadata={op_type="add" op_name="add"}
  ROOT %add.20229 = f32[] add(f32[] %parameter.20227, f32[] %parameter.20228), metadata={op_type="add" op_name="add"}
}

%primitive_computation_add__1.20252 (parameter.20253: f32[], parameter.20254: f32[]) -> f32[] {
  %parameter.20253 = f32[] parameter(0), metadata={op_type="add" op_name="add"}
  %parameter.20254 = f32[] parameter(1), metadata={op_type="add" op_name="add"}
  ROOT %add.20255 = f32[] add(f32[] %parameter.20253, f32[] %parameter.20254), metadata={op_type="add" op_name="add"}
}

%primitive_computation_add__1.20240 (parameter.20241: f32[], parameter.20242: f32[]) -> f32[] {
  %parameter.20241 = f32[] parameter(0), metadata={op_type="add" op_name="add"}
  %parameter.20242 = f32[] parameter(1), metadata={op_type="add" op_name="add"}
  ROOT %add.20243 = f32[] add(f32[] %parameter.20241, f32[] %parameter.20242), metadata={op_type="add" op_name="add"}
}

%primitive_computation_add__1.20284 (parameter.20285: f32[], parameter.20286: f32[]) -> f32[] {
  %parameter.20285 = f32[] parameter(0), metadata={op_type="add" op_name="add"}
  %parameter.20286 = f32[] parameter(1), metadata={op_type="add" op_name="add"}
  ROOT %add.20287 = f32[] add(f32[] %parameter.20285, f32[] %parameter.20286), metadata={op_type="add" op_name="add"}
}

%primitive_computation_add__1.20336 (parameter.20337: f32[], parameter.20338: f32[]) -> f32[] {
  %parameter.20337 = f32[] parameter(0), metadata={op_type="add" op_name="add"}
  %parameter.20338 = f32[] parameter(1), metadata={op_type="add" op_name="add"}
  ROOT %add.20339 = f32[] add(f32[] %parameter.20337, f32[] %parameter.20338), metadata={op_type="add" op_name="add"}
}

%primitive_computation_add__1.20362 (parameter.20363: f32[], parameter.20364: f32[]) -> f32[] {
  %parameter.20363 = f32[] parameter(0), metadata={op_type="add" op_name="add"}
  %parameter.20364 = f32[] parameter(1), metadata={op_type="add" op_name="add"}
  ROOT %add.20365 = f32[] add(f32[] %parameter.20363, f32[] %parameter.20364), metadata={op_type="add" op_name="add"}
}

%primitive_computation_add__1.20414 (parameter.20415: f32[], parameter.20416: f32[]) -> f32[] {
  %parameter.20415 = f32[] parameter(0), metadata={op_type="add" op_name="add"}
  %parameter.20416 = f32[] parameter(1), metadata={op_type="add" op_name="add"}
  ROOT %add.20417 = f32[] add(f32[] %parameter.20415, f32[] %parameter.20416), metadata={op_type="add" op_name="add"}
}

%primitive_computation_add__1.20430 (parameter.20431: f32[], parameter.20432: f32[]) -> f32[] {
  %parameter.20431 = f32[] parameter(0), metadata={op_type="add" op_name="add"}
  %parameter.20432 = f32[] parameter(1), metadata={op_type="add" op_name="add"}
  ROOT %add.20433 = f32[] add(f32[] %parameter.20431, f32[] %parameter.20432), metadata={op_type="add" op_name="add"}
}

%primitive_computation_add__1.20456 (parameter.20457: f32[], parameter.20458: f32[]) -> f32[] {
  %parameter.20457 = f32[] parameter(0), metadata={op_type="add" op_name="add"}
  %parameter.20458 = f32[] parameter(1), metadata={op_type="add" op_name="add"}
  ROOT %add.20459 = f32[] add(f32[] %parameter.20457, f32[] %parameter.20458), metadata={op_type="add" op_name="add"}
}

%primitive_computation_add__1.20444 (parameter.20445: f32[], parameter.20446: f32[]) -> f32[] {
  %parameter.20445 = f32[] parameter(0), metadata={op_type="add" op_name="add"}
  %parameter.20446 = f32[] parameter(1), metadata={op_type="add" op_name="add"}
  ROOT %add.20447 = f32[] add(f32[] %parameter.20445, f32[] %parameter.20446), metadata={op_type="add" op_name="add"}
}

%primitive_computation_add__1.20488 (parameter.20489: f32[], parameter.20490: f32[]) -> f32[] {
  %parameter.20489 = f32[] parameter(0), metadata={op_type="add" op_name="add"}
  %parameter.20490 = f32[] parameter(1), metadata={op_type="add" op_name="add"}
  ROOT %add.20491 = f32[] add(f32[] %parameter.20489, f32[] %parameter.20490), metadata={op_type="add" op_name="add"}
}

%primitive_computation_add__1.20540 (parameter.20541: f32[], parameter.20542: f32[]) -> f32[] {
  %parameter.20541 = f32[] parameter(0), metadata={op_type="add" op_name="add"}
  %parameter.20542 = f32[] parameter(1), metadata={op_type="add" op_name="add"}
  ROOT %add.20543 = f32[] add(f32[] %parameter.20541, f32[] %parameter.20542), metadata={op_type="add" op_name="add"}
}

%primitive_computation_add__1.20566 (parameter.20567: f32[], parameter.20568: f32[]) -> f32[] {
  %parameter.20567 = f32[] parameter(0), metadata={op_type="add" op_name="add"}
  %parameter.20568 = f32[] parameter(1), metadata={op_type="add" op_name="add"}
  ROOT %add.20569 = f32[] add(f32[] %parameter.20567, f32[] %parameter.20568), metadata={op_type="add" op_name="add"}
}

%primitive_computation_add__1.20618 (parameter.20619: f32[], parameter.20620: f32[]) -> f32[] {
  %parameter.20619 = f32[] parameter(0), metadata={op_type="add" op_name="add"}
  %parameter.20620 = f32[] parameter(1), metadata={op_type="add" op_name="add"}
  ROOT %add.20621 = f32[] add(f32[] %parameter.20619, f32[] %parameter.20620), metadata={op_type="add" op_name="add"}
}

%primitive_computation_add__1.20660 (parameter.20661: f32[], parameter.20662: f32[]) -> f32[] {
  %parameter.20661 = f32[] parameter(0), metadata={op_type="add" op_name="add"}
  %parameter.20662 = f32[] parameter(1), metadata={op_type="add" op_name="add"}
  ROOT %add.20663 = f32[] add(f32[] %parameter.20661, f32[] %parameter.20662), metadata={op_type="add" op_name="add"}
}

%primitive_computation_add__1.20692 (parameter.20693: f32[], parameter.20694: f32[]) -> f32[] {
  %parameter.20693 = f32[] parameter(0), metadata={op_type="add" op_name="add"}
  %parameter.20694 = f32[] parameter(1), metadata={op_type="add" op_name="add"}
  ROOT %add.20695 = f32[] add(f32[] %parameter.20693, f32[] %parameter.20694), metadata={op_type="add" op_name="add"}
}

%primitive_computation_add__1.20744 (parameter.20745: f32[], parameter.20746: f32[]) -> f32[] {
  %parameter.20745 = f32[] parameter(0), metadata={op_type="add" op_name="add"}
  %parameter.20746 = f32[] parameter(1), metadata={op_type="add" op_name="add"}
  ROOT %add.20747 = f32[] add(f32[] %parameter.20745, f32[] %parameter.20746), metadata={op_type="add" op_name="add"}
}

%primitive_computation_add__1.20770 (parameter.20771: f32[], parameter.20772: f32[]) -> f32[] {
  %parameter.20771 = f32[] parameter(0), metadata={op_type="add" op_name="add"}
  %parameter.20772 = f32[] parameter(1), metadata={op_type="add" op_name="add"}
  ROOT %add.20773 = f32[] add(f32[] %parameter.20771, f32[] %parameter.20772), metadata={op_type="add" op_name="add"}
}

%primitive_computation_add__1.20822 (parameter.20823: f32[], parameter.20824: f32[]) -> f32[] {
  %parameter.20823 = f32[] parameter(0), metadata={op_type="add" op_name="add"}
  %parameter.20824 = f32[] parameter(1), metadata={op_type="add" op_name="add"}
  ROOT %add.20825 = f32[] add(f32[] %parameter.20823, f32[] %parameter.20824), metadata={op_type="add" op_name="add"}
}

%primitive_computation_add__1.20864 (parameter.20865: f32[], parameter.20866: f32[]) -> f32[] {
  %parameter.20865 = f32[] parameter(0), metadata={op_type="add" op_name="add"}
  %parameter.20866 = f32[] parameter(1), metadata={op_type="add" op_name="add"}
  ROOT %add.20867 = f32[] add(f32[] %parameter.20865, f32[] %parameter.20866), metadata={op_type="add" op_name="add"}
}

%primitive_computation_add__1.20896 (parameter.20897: f32[], parameter.20898: f32[]) -> f32[] {
  %parameter.20897 = f32[] parameter(0), metadata={op_type="add" op_name="add"}
  %parameter.20898 = f32[] parameter(1), metadata={op_type="add" op_name="add"}
  ROOT %add.20899 = f32[] add(f32[] %parameter.20897, f32[] %parameter.20898), metadata={op_type="add" op_name="add"}
}

%primitive_computation_add__1.20948 (parameter.20949: f32[], parameter.20950: f32[]) -> f32[] {
  %parameter.20949 = f32[] parameter(0), metadata={op_type="add" op_name="add"}
  %parameter.20950 = f32[] parameter(1), metadata={op_type="add" op_name="add"}
  ROOT %add.20951 = f32[] add(f32[] %parameter.20949, f32[] %parameter.20950), metadata={op_type="add" op_name="add"}
}

%primitive_computation_add__1.20974 (parameter.20975: f32[], parameter.20976: f32[]) -> f32[] {
  %parameter.20975 = f32[] parameter(0), metadata={op_type="add" op_name="add"}
  %parameter.20976 = f32[] parameter(1), metadata={op_type="add" op_name="add"}
  ROOT %add.20977 = f32[] add(f32[] %parameter.20975, f32[] %parameter.20976), metadata={op_type="add" op_name="add"}
}

%primitive_computation_add__1.21026 (parameter.21027: f32[], parameter.21028: f32[]) -> f32[] {
  %parameter.21027 = f32[] parameter(0), metadata={op_type="add" op_name="add"}
  %parameter.21028 = f32[] parameter(1), metadata={op_type="add" op_name="add"}
  ROOT %add.21029 = f32[] add(f32[] %parameter.21027, f32[] %parameter.21028), metadata={op_type="add" op_name="add"}
}

%primitive_computation_add__1.21068 (parameter.21069: f32[], parameter.21070: f32[]) -> f32[] {
  %parameter.21069 = f32[] parameter(0), metadata={op_type="add" op_name="add"}
  %parameter.21070 = f32[] parameter(1), metadata={op_type="add" op_name="add"}
  ROOT %add.21071 = f32[] add(f32[] %parameter.21069, f32[] %parameter.21070), metadata={op_type="add" op_name="add"}
}

%primitive_computation_add__1.21100 (parameter.21101: f32[], parameter.21102: f32[]) -> f32[] {
  %parameter.21101 = f32[] parameter(0), metadata={op_type="add" op_name="add"}
  %parameter.21102 = f32[] parameter(1), metadata={op_type="add" op_name="add"}
  ROOT %add.21103 = f32[] add(f32[] %parameter.21101, f32[] %parameter.21102), metadata={op_type="add" op_name="add"}
}

%primitive_computation_add__1.21152 (parameter.21153: f32[], parameter.21154: f32[]) -> f32[] {
  %parameter.21153 = f32[] parameter(0), metadata={op_type="add" op_name="add"}
  %parameter.21154 = f32[] parameter(1), metadata={op_type="add" op_name="add"}
  ROOT %add.21155 = f32[] add(f32[] %parameter.21153, f32[] %parameter.21154), metadata={op_type="add" op_name="add"}
}

%primitive_computation_add__1.21178 (parameter.21179: f32[], parameter.21180: f32[]) -> f32[] {
  %parameter.21179 = f32[] parameter(0), metadata={op_type="add" op_name="add"}
  %parameter.21180 = f32[] parameter(1), metadata={op_type="add" op_name="add"}
  ROOT %add.21181 = f32[] add(f32[] %parameter.21179, f32[] %parameter.21180), metadata={op_type="add" op_name="add"}
}

%primitive_computation_add__1.21230 (parameter.21231: f32[], parameter.21232: f32[]) -> f32[] {
  %parameter.21231 = f32[] parameter(0), metadata={op_type="add" op_name="add"}
  %parameter.21232 = f32[] parameter(1), metadata={op_type="add" op_name="add"}
  ROOT %add.21233 = f32[] add(f32[] %parameter.21231, f32[] %parameter.21232), metadata={op_type="add" op_name="add"}
}

%primitive_computation_add__1.21272 (parameter.21273: f32[], parameter.21274: f32[]) -> f32[] {
  %parameter.21273 = f32[] parameter(0), metadata={op_type="add" op_name="add"}
  %parameter.21274 = f32[] parameter(1), metadata={op_type="add" op_name="add"}
  ROOT %add.21275 = f32[] add(f32[] %parameter.21273, f32[] %parameter.21274), metadata={op_type="add" op_name="add"}
}

%primitive_computation_add__1.21304 (parameter.21305: f32[], parameter.21306: f32[]) -> f32[] {
  %parameter.21305 = f32[] parameter(0), metadata={op_type="add" op_name="add"}
  %parameter.21306 = f32[] parameter(1), metadata={op_type="add" op_name="add"}
  ROOT %add.21307 = f32[] add(f32[] %parameter.21305, f32[] %parameter.21306), metadata={op_type="add" op_name="add"}
}

%primitive_computation_add__1.21356 (parameter.21357: f32[], parameter.21358: f32[]) -> f32[] {
  %parameter.21357 = f32[] parameter(0), metadata={op_type="add" op_name="add"}
  %parameter.21358 = f32[] parameter(1), metadata={op_type="add" op_name="add"}
  ROOT %add.21359 = f32[] add(f32[] %parameter.21357, f32[] %parameter.21358), metadata={op_type="add" op_name="add"}
}

%primitive_computation_add__1.21382 (parameter.21383: f32[], parameter.21384: f32[]) -> f32[] {
  %parameter.21383 = f32[] parameter(0), metadata={op_type="add" op_name="add"}
  %parameter.21384 = f32[] parameter(1), metadata={op_type="add" op_name="add"}
  ROOT %add.21385 = f32[] add(f32[] %parameter.21383, f32[] %parameter.21384), metadata={op_type="add" op_name="add"}
}

%primitive_computation_add__1.21434 (parameter.21435: f32[], parameter.21436: f32[]) -> f32[] {
  %parameter.21435 = f32[] parameter(0), metadata={op_type="add" op_name="add"}
  %parameter.21436 = f32[] parameter(1), metadata={op_type="add" op_name="add"}
  ROOT %add.21437 = f32[] add(f32[] %parameter.21435, f32[] %parameter.21436), metadata={op_type="add" op_name="add"}
}

%primitive_computation_add__1.21450 (parameter.21451: f32[], parameter.21452: f32[]) -> f32[] {
  %parameter.21451 = f32[] parameter(0), metadata={op_type="add" op_name="add"}
  %parameter.21452 = f32[] parameter(1), metadata={op_type="add" op_name="add"}
  ROOT %add.21453 = f32[] add(f32[] %parameter.21451, f32[] %parameter.21452), metadata={op_type="add" op_name="add"}
}

%primitive_computation_add__1.21476 (parameter.21477: f32[], parameter.21478: f32[]) -> f32[] {
  %parameter.21477 = f32[] parameter(0), metadata={op_type="add" op_name="add"}
  %parameter.21478 = f32[] parameter(1), metadata={op_type="add" op_name="add"}
  ROOT %add.21479 = f32[] add(f32[] %parameter.21477, f32[] %parameter.21478), metadata={op_type="add" op_name="add"}
}

%primitive_computation_add__1.21464 (parameter.21465: f32[], parameter.21466: f32[]) -> f32[] {
  %parameter.21465 = f32[] parameter(0), metadata={op_type="add" op_name="add"}
  %parameter.21466 = f32[] parameter(1), metadata={op_type="add" op_name="add"}
  ROOT %add.21467 = f32[] add(f32[] %parameter.21465, f32[] %parameter.21466), metadata={op_type="add" op_name="add"}
}

%primitive_computation_add__1.21508 (parameter.21509: f32[], parameter.21510: f32[]) -> f32[] {
  %parameter.21509 = f32[] parameter(0), metadata={op_type="add" op_name="add"}
  %parameter.21510 = f32[] parameter(1), metadata={op_type="add" op_name="add"}
  ROOT %add.21511 = f32[] add(f32[] %parameter.21509, f32[] %parameter.21510), metadata={op_type="add" op_name="add"}
}

%primitive_computation_add__1.21560 (parameter.21561: f32[], parameter.21562: f32[]) -> f32[] {
  %parameter.21561 = f32[] parameter(0), metadata={op_type="add" op_name="add"}
  %parameter.21562 = f32[] parameter(1), metadata={op_type="add" op_name="add"}
  ROOT %add.21563 = f32[] add(f32[] %parameter.21561, f32[] %parameter.21562), metadata={op_type="add" op_name="add"}
}

%primitive_computation_add__1.21586 (parameter.21587: f32[], parameter.21588: f32[]) -> f32[] {
  %parameter.21587 = f32[] parameter(0), metadata={op_type="add" op_name="add"}
  %parameter.21588 = f32[] parameter(1), metadata={op_type="add" op_name="add"}
  ROOT %add.21589 = f32[] add(f32[] %parameter.21587, f32[] %parameter.21588), metadata={op_type="add" op_name="add"}
}

%primitive_computation_add__1.13186 (parameter.13187: f32[], parameter.13188: f32[]) -> f32[] {
  %parameter.13187 = f32[] parameter(0), metadata={op_type="add" op_name="add"}
  %parameter.13188 = f32[] parameter(1), metadata={op_type="add" op_name="add"}
  ROOT %add.13189 = f32[] add(f32[] %parameter.13187, f32[] %parameter.13188), metadata={op_type="add" op_name="add"}
}

%primitive_computation_add__1.15330 (parameter.15331: f32[], parameter.15332: f32[]) -> f32[] {
  %parameter.15331 = f32[] parameter(0), metadata={op_type="add" op_name="add"}
  %parameter.15332 = f32[] parameter(1), metadata={op_type="add" op_name="add"}
  ROOT %add.15333 = f32[] add(f32[] %parameter.15331, f32[] %parameter.15332), metadata={op_type="add" op_name="add"}
}

%primitive_computation_add__1.18546 (parameter.18547: f32[], parameter.18548: f32[]) -> f32[] {
  %parameter.18547 = f32[] parameter(0), metadata={op_type="add" op_name="add"}
  %parameter.18548 = f32[] parameter(1), metadata={op_type="add" op_name="add"}
  ROOT %add.18549 = f32[] add(f32[] %parameter.18547, f32[] %parameter.18548), metadata={op_type="add" op_name="add"}
}

%primitive_computation_add__1.18560 (parameter.18561: f32[], parameter.18562: f32[]) -> f32[] {
  %parameter.18561 = f32[] parameter(0), metadata={op_type="add" op_name="add"}
  %parameter.18562 = f32[] parameter(1), metadata={op_type="add" op_name="add"}
  ROOT %add.18563 = f32[] add(f32[] %parameter.18561, f32[] %parameter.18562), metadata={op_type="add" op_name="add"}
}

%primitive_computation_add__1.18672 (parameter.18673: f32[], parameter.18674: f32[]) -> f32[] {
  %parameter.18673 = f32[] parameter(0), metadata={op_type="add" op_name="add"}
  %parameter.18674 = f32[] parameter(1), metadata={op_type="add" op_name="add"}
  ROOT %add.18675 = f32[] add(f32[] %parameter.18673, f32[] %parameter.18674), metadata={op_type="add" op_name="add"}
}

%primitive_computation_add__1.18686 (parameter.18687: f32[], parameter.18688: f32[]) -> f32[] {
  %parameter.18687 = f32[] parameter(0), metadata={op_type="add" op_name="add"}
  %parameter.18688 = f32[] parameter(1), metadata={op_type="add" op_name="add"}
  ROOT %add.18689 = f32[] add(f32[] %parameter.18687, f32[] %parameter.18688), metadata={op_type="add" op_name="add"}
}

%primitive_computation_add__1.18876 (parameter.18877: f32[], parameter.18878: f32[]) -> f32[] {
  %parameter.18877 = f32[] parameter(0), metadata={op_type="add" op_name="add"}
  %parameter.18878 = f32[] parameter(1), metadata={op_type="add" op_name="add"}
  ROOT %add.18879 = f32[] add(f32[] %parameter.18877, f32[] %parameter.18878), metadata={op_type="add" op_name="add"}
}

%primitive_computation_add__1.18890 (parameter.18891: f32[], parameter.18892: f32[]) -> f32[] {
  %parameter.18891 = f32[] parameter(0), metadata={op_type="add" op_name="add"}
  %parameter.18892 = f32[] parameter(1), metadata={op_type="add" op_name="add"}
  ROOT %add.18893 = f32[] add(f32[] %parameter.18891, f32[] %parameter.18892), metadata={op_type="add" op_name="add"}
}

%primitive_computation_add__1.19080 (parameter.19081: f32[], parameter.19082: f32[]) -> f32[] {
  %parameter.19081 = f32[] parameter(0), metadata={op_type="add" op_name="add"}
  %parameter.19082 = f32[] parameter(1), metadata={op_type="add" op_name="add"}
  ROOT %add.19083 = f32[] add(f32[] %parameter.19081, f32[] %parameter.19082), metadata={op_type="add" op_name="add"}
}

%primitive_computation_add__1.19094 (parameter.19095: f32[], parameter.19096: f32[]) -> f32[] {
  %parameter.19095 = f32[] parameter(0), metadata={op_type="add" op_name="add"}
  %parameter.19096 = f32[] parameter(1), metadata={op_type="add" op_name="add"}
  ROOT %add.19097 = f32[] add(f32[] %parameter.19095, f32[] %parameter.19096), metadata={op_type="add" op_name="add"}
}

%primitive_computation_add__1.19284 (parameter.19285: f32[], parameter.19286: f32[]) -> f32[] {
  %parameter.19285 = f32[] parameter(0), metadata={op_type="add" op_name="add"}
  %parameter.19286 = f32[] parameter(1), metadata={op_type="add" op_name="add"}
  ROOT %add.19287 = f32[] add(f32[] %parameter.19285, f32[] %parameter.19286), metadata={op_type="add" op_name="add"}
}

%primitive_computation_add__1.19298 (parameter.19299: f32[], parameter.19300: f32[]) -> f32[] {
  %parameter.19299 = f32[] parameter(0), metadata={op_type="add" op_name="add"}
  %parameter.19300 = f32[] parameter(1), metadata={op_type="add" op_name="add"}
  ROOT %add.19301 = f32[] add(f32[] %parameter.19299, f32[] %parameter.19300), metadata={op_type="add" op_name="add"}
}

%primitive_computation_add__1.19614 (parameter.19615: f32[], parameter.19616: f32[]) -> f32[] {
  %parameter.19615 = f32[] parameter(0), metadata={op_type="add" op_name="add"}
  %parameter.19616 = f32[] parameter(1), metadata={op_type="add" op_name="add"}
  ROOT %add.19617 = f32[] add(f32[] %parameter.19615, f32[] %parameter.19616), metadata={op_type="add" op_name="add"}
}

%primitive_computation_add__1.19628 (parameter.19629: f32[], parameter.19630: f32[]) -> f32[] {
  %parameter.19629 = f32[] parameter(0), metadata={op_type="add" op_name="add"}
  %parameter.19630 = f32[] parameter(1), metadata={op_type="add" op_name="add"}
  ROOT %add.19631 = f32[] add(f32[] %parameter.19629, f32[] %parameter.19630), metadata={op_type="add" op_name="add"}
}

%primitive_computation_add__1.20634 (parameter.20635: f32[], parameter.20636: f32[]) -> f32[] {
  %parameter.20635 = f32[] parameter(0), metadata={op_type="add" op_name="add"}
  %parameter.20636 = f32[] parameter(1), metadata={op_type="add" op_name="add"}
  ROOT %add.20637 = f32[] add(f32[] %parameter.20635, f32[] %parameter.20636), metadata={op_type="add" op_name="add"}
}

%primitive_computation_add__1.20648 (parameter.20649: f32[], parameter.20650: f32[]) -> f32[] {
  %parameter.20649 = f32[] parameter(0), metadata={op_type="add" op_name="add"}
  %parameter.20650 = f32[] parameter(1), metadata={op_type="add" op_name="add"}
  ROOT %add.20651 = f32[] add(f32[] %parameter.20649, f32[] %parameter.20650), metadata={op_type="add" op_name="add"}
}

%primitive_computation_add__1.20838 (parameter.20839: f32[], parameter.20840: f32[]) -> f32[] {
  %parameter.20839 = f32[] parameter(0), metadata={op_type="add" op_name="add"}
  %parameter.20840 = f32[] parameter(1), metadata={op_type="add" op_name="add"}
  ROOT %add.20841 = f32[] add(f32[] %parameter.20839, f32[] %parameter.20840), metadata={op_type="add" op_name="add"}
}

%primitive_computation_add__1.20852 (parameter.20853: f32[], parameter.20854: f32[]) -> f32[] {
  %parameter.20853 = f32[] parameter(0), metadata={op_type="add" op_name="add"}
  %parameter.20854 = f32[] parameter(1), metadata={op_type="add" op_name="add"}
  ROOT %add.20855 = f32[] add(f32[] %parameter.20853, f32[] %parameter.20854), metadata={op_type="add" op_name="add"}
}

%primitive_computation_add__1.21042 (parameter.21043: f32[], parameter.21044: f32[]) -> f32[] {
  %parameter.21043 = f32[] parameter(0), metadata={op_type="add" op_name="add"}
  %parameter.21044 = f32[] parameter(1), metadata={op_type="add" op_name="add"}
  ROOT %add.21045 = f32[] add(f32[] %parameter.21043, f32[] %parameter.21044), metadata={op_type="add" op_name="add"}
}

%primitive_computation_add__1.21056 (parameter.21057: f32[], parameter.21058: f32[]) -> f32[] {
  %parameter.21057 = f32[] parameter(0), metadata={op_type="add" op_name="add"}
  %parameter.21058 = f32[] parameter(1), metadata={op_type="add" op_name="add"}
  ROOT %add.21059 = f32[] add(f32[] %parameter.21057, f32[] %parameter.21058), metadata={op_type="add" op_name="add"}
}

%primitive_computation_add__1.21246 (parameter.21247: f32[], parameter.21248: f32[]) -> f32[] {
  %parameter.21247 = f32[] parameter(0), metadata={op_type="add" op_name="add"}
  %parameter.21248 = f32[] parameter(1), metadata={op_type="add" op_name="add"}
  ROOT %add.21249 = f32[] add(f32[] %parameter.21247, f32[] %parameter.21248), metadata={op_type="add" op_name="add"}
}

%primitive_computation_add__1.21260 (parameter.21261: f32[], parameter.21262: f32[]) -> f32[] {
  %parameter.21261 = f32[] parameter(0), metadata={op_type="add" op_name="add"}
  %parameter.21262 = f32[] parameter(1), metadata={op_type="add" op_name="add"}
  ROOT %add.21263 = f32[] add(f32[] %parameter.21261, f32[] %parameter.21262), metadata={op_type="add" op_name="add"}
}

%primitive_computation_add__1.15426 (parameter.15427: f32[], parameter.15428: f32[]) -> f32[] {
  %parameter.15427 = f32[] parameter(0), metadata={op_type="add" op_name="add"}
  %parameter.15428 = f32[] parameter(1), metadata={op_type="add" op_name="add"}
  ROOT %add.15429 = f32[] add(f32[] %parameter.15427, f32[] %parameter.15428), metadata={op_type="add" op_name="add"}
}

%fused_computation.6 (param_0.18: u32[], param_1.33: u32[4], param_2.22: u32[2], param_3.17: u32[2], param_4.26: s32[]) -> u32[2] {
  %param_3.17 = u32[2]{0} parameter(3)
  %param_2.22 = u32[2]{0} parameter(2)
  %add.3863 = u32[2]{0} add(u32[2]{0} %param_3.17, u32[2]{0} %param_2.22), metadata={op_type="add" op_name="scan/while/body/add" source_file="/usr/local/lib/python3.8/dist-packages/trax/fastmath/ops.py" source_line=71}
  %param_1.33 = u32[4]{0} parameter(1)
  %slice.1182 = u32[1]{0} slice(u32[4]{0} %param_1.33), slice={[0:1]}, metadata={op_type="slice" op_name="scan/while/body/slice[ limit_indices=(1,)\n                       start_indices=(0,)\n                       strides=(1,) ]" source_file="/usr/local/lib/python3.8/dist-packages/trax/fastmath/ops.py" source_line=71}
  %reshape.2803 = u32[] reshape(u32[1]{0} %slice.1182), metadata={op_type="squeeze" op_name="scan/while/body/squeeze[ dimensions=(0,) ]" source_file="/usr/local/lib/python3.8/dist-packages/trax/fastmath/ops.py" source_line=71}
  %broadcast.1598 = u32[2]{0} broadcast(u32[] %reshape.2803), dimensions={}, metadata={op_type="shift_left" op_name="scan/while/body/shift_left" source_file="/usr/local/lib/python3.8/dist-packages/trax/fastmath/ops.py" source_line=71}
  %shift-left.99 = u32[2]{0} shift-left(u32[2]{0} %param_2.22, u32[2]{0} %broadcast.1598), metadata={op_type="shift_left" op_name="scan/while/body/shift_left" source_file="/usr/local/lib/python3.8/dist-packages/trax/fastmath/ops.py" source_line=71}
  %constant.20365 = u32[] constant(32), metadata={op_type="sub" op_name="scan/while/body/sub" source_file="/usr/local/lib/python3.8/dist-packages/trax/fastmath/ops.py" source_line=71}
  %subtract.435 = u32[] subtract(u32[] %constant.20365, u32[] %reshape.2803), metadata={op_type="sub" op_name="scan/while/body/sub" source_file="/usr/local/lib/python3.8/dist-packages/trax/fastmath/ops.py" source_line=71}
  %broadcast.1597 = u32[2]{0} broadcast(u32[] %subtract.435), dimensions={}, metadata={op_type="shift_right_logical" op_name="scan/while/body/shift_right_logical" source_file="/usr/local/lib/python3.8/dist-packages/trax/fastmath/ops.py" source_line=71}
  %shift-right-logical.118 = u32[2]{0} shift-right-logical(u32[2]{0} %param_2.22, u32[2]{0} %broadcast.1597), metadata={op_type="shift_right_logical" op_name="scan/while/body/shift_right_logical" source_file="/usr/local/lib/python3.8/dist-packages/trax/fastmath/ops.py" source_line=71}
  %or.102 = u32[2]{0} or(u32[2]{0} %shift-left.99, u32[2]{0} %shift-right-logical.118), metadata={op_type="or" op_name="scan/while/body/or" source_file="/usr/local/lib/python3.8/dist-packages/trax/fastmath/ops.py" source_line=71}
  %xor.289 = u32[2]{0} xor(u32[2]{0} %add.3863, u32[2]{0} %or.102), metadata={op_type="xor" op_name="scan/while/body/xor" source_file="/usr/local/lib/python3.8/dist-packages/trax/fastmath/ops.py" source_line=71}
  %add.3862 = u32[2]{0} add(u32[2]{0} %add.3863, u32[2]{0} %xor.289), metadata={op_type="add" op_name="scan/while/body/add" source_file="/usr/local/lib/python3.8/dist-packages/trax/fastmath/ops.py" source_line=71}
  %slice.1181 = u32[1]{0} slice(u32[4]{0} %param_1.33), slice={[1:2]}, metadata={op_type="slice" op_name="scan/while/body/slice[ limit_indices=(2,)\n                       start_indices=(1,)\n                       strides=(1,) ]" source_file="/usr/local/lib/python3.8/dist-packages/trax/fastmath/ops.py" source_line=71}
  %reshape.2802 = u32[] reshape(u32[1]{0} %slice.1181), metadata={op_type="squeeze" op_name="scan/while/body/squeeze[ dimensions=(0,) ]" source_file="/usr/local/lib/python3.8/dist-packages/trax/fastmath/ops.py" source_line=71}
  %broadcast.1596 = u32[2]{0} broadcast(u32[] %reshape.2802), dimensions={}, metadata={op_type="shift_left" op_name="scan/while/body/shift_left" source_file="/usr/local/lib/python3.8/dist-packages/trax/fastmath/ops.py" source_line=71}
  %shift-left.98 = u32[2]{0} shift-left(u32[2]{0} %xor.289, u32[2]{0} %broadcast.1596), metadata={op_type="shift_left" op_name="scan/while/body/shift_left" source_file="/usr/local/lib/python3.8/dist-packages/trax/fastmath/ops.py" source_line=71}
  %subtract.434 = u32[] subtract(u32[] %constant.20365, u32[] %reshape.2802), metadata={op_type="sub" op_name="scan/while/body/sub" source_file="/usr/local/lib/python3.8/dist-packages/trax/fastmath/ops.py" source_line=71}
  %broadcast.1595 = u32[2]{0} broadcast(u32[] %subtract.434), dimensions={}, metadata={op_type="shift_right_logical" op_name="scan/while/body/shift_right_logical" source_file="/usr/local/lib/python3.8/dist-packages/trax/fastmath/ops.py" source_line=71}
  %shift-right-logical.117 = u32[2]{0} shift-right-logical(u32[2]{0} %xor.289, u32[2]{0} %broadcast.1595), metadata={op_type="shift_right_logical" op_name="scan/while/body/shift_right_logical" source_file="/usr/local/lib/python3.8/dist-packages/trax/fastmath/ops.py" source_line=71}
  %or.101 = u32[2]{0} or(u32[2]{0} %shift-left.98, u32[2]{0} %shift-right-logical.117), metadata={op_type="or" op_name="scan/while/body/or" source_file="/usr/local/lib/python3.8/dist-packages/trax/fastmath/ops.py" source_line=71}
  %xor.288 = u32[2]{0} xor(u32[2]{0} %add.3862, u32[2]{0} %or.101), metadata={op_type="xor" op_name="scan/while/body/xor" source_file="/usr/local/lib/python3.8/dist-packages/trax/fastmath/ops.py" source_line=71}
  %add.3860 = u32[2]{0} add(u32[2]{0} %add.3862, u32[2]{0} %xor.288), metadata={op_type="add" op_name="scan/while/body/add" source_file="/usr/local/lib/python3.8/dist-packages/trax/fastmath/ops.py" source_line=71}
  %slice.1180 = u32[1]{0} slice(u32[4]{0} %param_1.33), slice={[2:3]}, metadata={op_type="slice" op_name="scan/while/body/slice[ limit_indices=(3,)\n                       start_indices=(2,)\n                       strides=(1,) ]" source_file="/usr/local/lib/python3.8/dist-packages/trax/fastmath/ops.py" source_line=71}
  %reshape.2801 = u32[] reshape(u32[1]{0} %slice.1180), metadata={op_type="squeeze" op_name="scan/while/body/squeeze[ dimensions=(0,) ]" source_file="/usr/local/lib/python3.8/dist-packages/trax/fastmath/ops.py" source_line=71}
  %broadcast.1594 = u32[2]{0} broadcast(u32[] %reshape.2801), dimensions={}, metadata={op_type="shift_left" op_name="scan/while/body/shift_left" source_file="/usr/local/lib/python3.8/dist-packages/trax/fastmath/ops.py" source_line=71}
  %shift-left.97 = u32[2]{0} shift-left(u32[2]{0} %xor.288, u32[2]{0} %broadcast.1594), metadata={op_type="shift_left" op_name="scan/while/body/shift_left" source_file="/usr/local/lib/python3.8/dist-packages/trax/fastmath/ops.py" source_line=71}
  %subtract.433 = u32[] subtract(u32[] %constant.20365, u32[] %reshape.2801), metadata={op_type="sub" op_name="scan/while/body/sub" source_file="/usr/local/lib/python3.8/dist-packages/trax/fastmath/ops.py" source_line=71}
  %broadcast.1593 = u32[2]{0} broadcast(u32[] %subtract.433), dimensions={}, metadata={op_type="shift_right_logical" op_name="scan/while/body/shift_right_logical" source_file="/usr/local/lib/python3.8/dist-packages/trax/fastmath/ops.py" source_line=71}
  %shift-right-logical.116 = u32[2]{0} shift-right-logical(u32[2]{0} %xor.288, u32[2]{0} %broadcast.1593), metadata={op_type="shift_right_logical" op_name="scan/while/body/shift_right_logical" source_file="/usr/local/lib/python3.8/dist-packages/trax/fastmath/ops.py" source_line=71}
  %or.100 = u32[2]{0} or(u32[2]{0} %shift-left.97, u32[2]{0} %shift-right-logical.116), metadata={op_type="or" op_name="scan/while/body/or" source_file="/usr/local/lib/python3.8/dist-packages/trax/fastmath/ops.py" source_line=71}
  %xor.287 = u32[2]{0} xor(u32[2]{0} %add.3860, u32[2]{0} %or.100), metadata={op_type="xor" op_name="scan/while/body/xor" source_file="/usr/local/lib/python3.8/dist-packages/trax/fastmath/ops.py" source_line=71}
  %add.3859 = u32[2]{0} add(u32[2]{0} %add.3860, u32[2]{0} %xor.287), metadata={op_type="add" op_name="scan/while/body/add" source_file="/usr/local/lib/python3.8/dist-packages/trax/fastmath/ops.py" source_line=71}
  %slice.1179 = u32[1]{0} slice(u32[4]{0} %param_1.33), slice={[3:4]}, metadata={op_type="slice" op_name="scan/while/body/slice[ limit_indices=(4,)\n                       start_indices=(3,)\n                       strides=(1,) ]" source_file="/usr/local/lib/python3.8/dist-packages/trax/fastmath/ops.py" source_line=71}
  %reshape.2800 = u32[] reshape(u32[1]{0} %slice.1179), metadata={op_type="squeeze" op_name="scan/while/body/squeeze[ dimensions=(0,) ]" source_file="/usr/local/lib/python3.8/dist-packages/trax/fastmath/ops.py" source_line=71}
  %broadcast.1592 = u32[2]{0} broadcast(u32[] %reshape.2800), dimensions={}, metadata={op_type="shift_left" op_name="scan/while/body/shift_left" source_file="/usr/local/lib/python3.8/dist-packages/trax/fastmath/ops.py" source_line=71}
  %shift-left.96 = u32[2]{0} shift-left(u32[2]{0} %xor.287, u32[2]{0} %broadcast.1592), metadata={op_type="shift_left" op_name="scan/while/body/shift_left" source_file="/usr/local/lib/python3.8/dist-packages/trax/fastmath/ops.py" source_line=71}
  %subtract.432 = u32[] subtract(u32[] %constant.20365, u32[] %reshape.2800), metadata={op_type="sub" op_name="scan/while/body/sub" source_file="/usr/local/lib/python3.8/dist-packages/trax/fastmath/ops.py" source_line=71}
  %broadcast.1590 = u32[2]{0} broadcast(u32[] %subtract.432), dimensions={}, metadata={op_type="shift_right_logical" op_name="scan/while/body/shift_right_logical" source_file="/usr/local/lib/python3.8/dist-packages/trax/fastmath/ops.py" source_line=71}
  %shift-right-logical.115 = u32[2]{0} shift-right-logical(u32[2]{0} %xor.287, u32[2]{0} %broadcast.1590), metadata={op_type="shift_right_logical" op_name="scan/while/body/shift_right_logical" source_file="/usr/local/lib/python3.8/dist-packages/trax/fastmath/ops.py" source_line=71}
  %or.99 = u32[2]{0} or(u32[2]{0} %shift-left.96, u32[2]{0} %shift-right-logical.115), metadata={op_type="or" op_name="scan/while/body/or" source_file="/usr/local/lib/python3.8/dist-packages/trax/fastmath/ops.py" source_line=71}
  %xor.286 = u32[2]{0} xor(u32[2]{0} %add.3859, u32[2]{0} %or.99), metadata={op_type="xor" op_name="scan/while/body/xor" source_file="/usr/local/lib/python3.8/dist-packages/trax/fastmath/ops.py" source_line=71}
  %param_0.18 = u32[] parameter(0)
  %broadcast.1589 = u32[2]{0} broadcast(u32[] %param_0.18), dimensions={}, metadata={op_type="add" op_name="scan/while/body/add" source_file="/usr/local/lib/python3.8/dist-packages/trax/fastmath/ops.py" source_line=71}
  %add.3858 = u32[2]{0} add(u32[2]{0} %xor.286, u32[2]{0} %broadcast.1589), metadata={op_type="add" op_name="scan/while/body/add" source_file="/usr/local/lib/python3.8/dist-packages/trax/fastmath/ops.py" source_line=71}
  %param_4.26 = s32[] parameter(4)
  %constant.20366 = s32[] constant(1), metadata={op_type="add" op_name="scan/while/body/add" source_file="/usr/local/lib/python3.8/dist-packages/trax/fastmath/ops.py" source_line=71}
  %add.3864 = s32[] add(s32[] %param_4.26, s32[] %constant.20366), metadata={op_type="add" op_name="scan/while/body/add" source_file="/usr/local/lib/python3.8/dist-packages/trax/optimizers/trainer.py" source_line=248}
  %convert.66 = u32[] convert(s32[] %add.3864), metadata={op_type="convert_element_type" op_name="scan/while/body/convert_element_type[ new_dtype=uint32\n                                      weak_type=False ]" source_file="/usr/local/lib/python3.8/dist-packages/trax/fastmath/ops.py" source_line=71}
  %broadcast.1588 = u32[2]{0} broadcast(u32[] %convert.66), dimensions={}, metadata={op_type="add" op_name="scan/while/body/add" source_file="/usr/local/lib/python3.8/dist-packages/trax/fastmath/ops.py" source_line=71}
  ROOT %add.3857 = u32[2]{0} add(u32[2]{0} %add.3858, u32[2]{0} %broadcast.1588), metadata={op_type="add" op_name="scan/while/body/add" source_file="/usr/local/lib/python3.8/dist-packages/trax/fastmath/ops.py" source_line=71}
}

%fused_computation.7 (param_0.20: u32[], param_1.39: u32[4], param_2.30: u32[2], param_3.27: u32[2]) -> u32[2] {
  %param_3.27 = u32[2]{0} parameter(3)
  %param_2.30 = u32[2]{0} parameter(2)
  %add.3870 = u32[2]{0} add(u32[2]{0} %param_3.27, u32[2]{0} %param_2.30), metadata={op_type="add" op_name="scan/while/body/add" source_file="/usr/local/lib/python3.8/dist-packages/trax/fastmath/ops.py" source_line=71}
  %param_1.39 = u32[4]{0} parameter(1)
  %slice.1185 = u32[1]{0} slice(u32[4]{0} %param_1.39), slice={[0:1]}, metadata={op_type="slice" op_name="scan/while/body/slice[ limit_indices=(1,)\n                       start_indices=(0,)\n                       strides=(1,) ]" source_file="/usr/local/lib/python3.8/dist-packages/trax/fastmath/ops.py" source_line=71}
  %reshape.2806 = u32[] reshape(u32[1]{0} %slice.1185), metadata={op_type="squeeze" op_name="scan/while/body/squeeze[ dimensions=(0,) ]" source_file="/usr/local/lib/python3.8/dist-packages/trax/fastmath/ops.py" source_line=71}
  %broadcast.1605 = u32[2]{0} broadcast(u32[] %reshape.2806), dimensions={}, metadata={op_type="shift_left" op_name="scan/while/body/shift_left" source_file="/usr/local/lib/python3.8/dist-packages/trax/fastmath/ops.py" source_line=71}
  %shift-left.102 = u32[2]{0} shift-left(u32[2]{0} %param_2.30, u32[2]{0} %broadcast.1605), metadata={op_type="shift_left" op_name="scan/while/body/shift_left" source_file="/usr/local/lib/python3.8/dist-packages/trax/fastmath/ops.py" source_line=71}
  %constant.20368 = u32[] constant(32), metadata={op_type="sub" op_name="scan/while/body/sub" source_file="/usr/local/lib/python3.8/dist-packages/trax/fastmath/ops.py" source_line=71}
  %subtract.438 = u32[] subtract(u32[] %constant.20368, u32[] %reshape.2806), metadata={op_type="sub" op_name="scan/while/body/sub" source_file="/usr/local/lib/python3.8/dist-packages/trax/fastmath/ops.py" source_line=71}
  %broadcast.1604 = u32[2]{0} broadcast(u32[] %subtract.438), dimensions={}, metadata={op_type="shift_right_logical" op_name="scan/while/body/shift_right_logical" source_file="/usr/local/lib/python3.8/dist-packages/trax/fastmath/ops.py" source_line=71}
  %shift-right-logical.121 = u32[2]{0} shift-right-logical(u32[2]{0} %param_2.30, u32[2]{0} %broadcast.1604), metadata={op_type="shift_right_logical" op_name="scan/while/body/shift_right_logical" source_file="/usr/local/lib/python3.8/dist-packages/trax/fastmath/ops.py" source_line=71}
  %or.105 = u32[2]{0} or(u32[2]{0} %shift-left.102, u32[2]{0} %shift-right-logical.121), metadata={op_type="or" op_name="scan/while/body/or" source_file="/usr/local/lib/python3.8/dist-packages/trax/fastmath/ops.py" source_line=71}
  %xor.292 = u32[2]{0} xor(u32[2]{0} %add.3870, u32[2]{0} %or.105), metadata={op_type="xor" op_name="scan/while/body/xor" source_file="/usr/local/lib/python3.8/dist-packages/trax/fastmath/ops.py" source_line=71}
  %add.3868 = u32[2]{0} add(u32[2]{0} %add.3870, u32[2]{0} %xor.292), metadata={op_type="add" op_name="scan/while/body/add" source_file="/usr/local/lib/python3.8/dist-packages/trax/fastmath/ops.py" source_line=71}
  %slice.1184 = u32[1]{0} slice(u32[4]{0} %param_1.39), slice={[1:2]}, metadata={op_type="slice" op_name="scan/while/body/slice[ limit_indices=(2,)\n                       start_indices=(1,)\n                       strides=(1,) ]" source_file="/usr/local/lib/python3.8/dist-packages/trax/fastmath/ops.py" source_line=71}
  %reshape.2805 = u32[] reshape(u32[1]{0} %slice.1184), metadata={op_type="squeeze" op_name="scan/while/body/squeeze[ dimensions=(0,) ]" source_file="/usr/local/lib/python3.8/dist-packages/trax/fastmath/ops.py" source_line=71}
  %broadcast.1603 = u32[2]{0} broadcast(u32[] %reshape.2805), dimensions={}, metadata={op_type="shift_left" op_name="scan/while/body/shift_left" source_file="/usr/local/lib/python3.8/dist-packages/trax/fastmath/ops.py" source_line=71}
  %shift-left.101 = u32[2]{0} shift-left(u32[2]{0} %xor.292, u32[2]{0} %broadcast.1603), metadata={op_type="shift_left" op_name="scan/while/body/shift_left" source_file="/usr/local/lib/python3.8/dist-packages/trax/fastmath/ops.py" source_line=71}
  %subtract.437 = u32[] subtract(u32[] %constant.20368, u32[] %reshape.2805), metadata={op_type="sub" op_name="scan/while/body/sub" source_file="/usr/local/lib/python3.8/dist-packages/trax/fastmath/ops.py" source_line=71}
  %broadcast.1602 = u32[2]{0} broadcast(u32[] %subtract.437), dimensions={}, metadata={op_type="shift_right_logical" op_name="scan/while/body/shift_right_logical" source_file="/usr/local/lib/python3.8/dist-packages/trax/fastmath/ops.py" source_line=71}
  %shift-right-logical.120 = u32[2]{0} shift-right-logical(u32[2]{0} %xor.292, u32[2]{0} %broadcast.1602), metadata={op_type="shift_right_logical" op_name="scan/while/body/shift_right_logical" source_file="/usr/local/lib/python3.8/dist-packages/trax/fastmath/ops.py" source_line=71}
  %or.104 = u32[2]{0} or(u32[2]{0} %shift-left.101, u32[2]{0} %shift-right-logical.120), metadata={op_type="or" op_name="scan/while/body/or" source_file="/usr/local/lib/python3.8/dist-packages/trax/fastmath/ops.py" source_line=71}
  %xor.291 = u32[2]{0} xor(u32[2]{0} %add.3868, u32[2]{0} %or.104), metadata={op_type="xor" op_name="scan/while/body/xor" source_file="/usr/local/lib/python3.8/dist-packages/trax/fastmath/ops.py" source_line=71}
  %add.3867 = u32[2]{0} add(u32[2]{0} %add.3868, u32[2]{0} %xor.291), metadata={op_type="add" op_name="scan/while/body/add" source_file="/usr/local/lib/python3.8/dist-packages/trax/fastmath/ops.py" source_line=71}
  %slice.1183 = u32[1]{0} slice(u32[4]{0} %param_1.39), slice={[2:3]}, metadata={op_type="slice" op_name="scan/while/body/slice[ limit_indices=(3,)\n                       start_indices=(2,)\n                       strides=(1,) ]" source_file="/usr/local/lib/python3.8/dist-packages/trax/fastmath/ops.py" source_line=71}
  %reshape.2804 = u32[] reshape(u32[1]{0} %slice.1183), metadata={op_type="squeeze" op_name="scan/while/body/squeeze[ dimensions=(0,) ]" source_file="/usr/local/lib/python3.8/dist-packages/trax/fastmath/ops.py" source_line=71}
  %broadcast.1601 = u32[2]{0} broadcast(u32[] %reshape.2804), dimensions={}, metadata={op_type="shift_left" op_name="scan/while/body/shift_left" source_file="/usr/local/lib/python3.8/dist-packages/trax/fastmath/ops.py" source_line=71}
  %shift-left.100 = u32[2]{0} shift-left(u32[2]{0} %xor.291, u32[2]{0} %broadcast.1601), metadata={op_type="shift_left" op_name="scan/while/body/shift_left" source_file="/usr/local/lib/python3.8/dist-packages/trax/fastmath/ops.py" source_line=71}
  %subtract.436 = u32[] subtract(u32[] %constant.20368, u32[] %reshape.2804), metadata={op_type="sub" op_name="scan/while/body/sub" source_file="/usr/local/lib/python3.8/dist-packages/trax/fastmath/ops.py" source_line=71}
  %broadcast.1600 = u32[2]{0} broadcast(u32[] %subtract.436), dimensions={}, metadata={op_type="shift_right_logical" op_name="scan/while/body/shift_right_logical" source_file="/usr/local/lib/python3.8/dist-packages/trax/fastmath/ops.py" source_line=71}
  %shift-right-logical.119 = u32[2]{0} shift-right-logical(u32[2]{0} %xor.291, u32[2]{0} %broadcast.1600), metadata={op_type="shift_right_logical" op_name="scan/while/body/shift_right_logical" source_file="/usr/local/lib/python3.8/dist-packages/trax/fastmath/ops.py" source_line=71}
  %or.103 = u32[2]{0} or(u32[2]{0} %shift-left.100, u32[2]{0} %shift-right-logical.119), metadata={op_type="or" op_name="scan/while/body/or" source_file="/usr/local/lib/python3.8/dist-packages/trax/fastmath/ops.py" source_line=71}
  %xor.290 = u32[2]{0} xor(u32[2]{0} %add.3867, u32[2]{0} %or.103), metadata={op_type="xor" op_name="scan/while/body/xor" source_file="/usr/local/lib/python3.8/dist-packages/trax/fastmath/ops.py" source_line=71}
  %add.3866 = u32[2]{0} add(u32[2]{0} %add.3867, u32[2]{0} %xor.290), metadata={op_type="add" op_name="scan/while/body/add" source_file="/usr/local/lib/python3.8/dist-packages/trax/fastmath/ops.py" source_line=71}
  %param_0.20 = u32[] parameter(0)
  %broadcast.1599 = u32[2]{0} broadcast(u32[] %param_0.20), dimensions={}, metadata={op_type="add" op_name="scan/while/body/add" source_file="/usr/local/lib/python3.8/dist-packages/trax/fastmath/ops.py" source_line=71}
  ROOT %add.3865 = u32[2]{0} add(u32[2]{0} %add.3866, u32[2]{0} %broadcast.1599), metadata={op_type="add" op_name="scan/while/body/add" source_file="/usr/local/lib/python3.8/dist-packages/trax/fastmath/ops.py" source_line=71}
}

%body_computation__140.172.clone.clone.clone (parameter.24: (s32[], u32[2], u32[2], u32[], u32[], /*index=5*/u32[], u32[4], u32[4])) -> (s32[], u32[2], u32[2], u32[], u32[], /*index=5*/u32[], u32[4], u32[4]) {
  %parameter.24 = (s32[], u32[2]{0}, u32[2]{0}, u32[], u32[], /*index=5*/u32[], u32[4]{0}, u32[4]{0}) parameter(0)
  %get-tuple-element.27082 = s32[] get-tuple-element((s32[], u32[2]{0}, u32[2]{0}, u32[], u32[], /*index=5*/u32[], u32[4]{0}, u32[4]{0}) %parameter.24), index=0
  %copy.445 = s32[] copy(s32[] %get-tuple-element.27082)
  %constant.10273 = s32[] constant(1), metadata={op_type="add" op_name="scan/while/body/add" source_file="/usr/local/lib/python3.8/dist-packages/trax/fastmath/ops.py" source_line=71}
  %add.1344 = s32[] add(s32[] %copy.445, s32[] %constant.10273), metadata={op_type="add" op_name="scan/while/body/add" source_file="/usr/local/lib/python3.8/dist-packages/trax/optimizers/trainer.py" source_line=248}
  %get-tuple-element.27085 = u32[] get-tuple-element((s32[], u32[2]{0}, u32[2]{0}, u32[], u32[], /*index=5*/u32[], u32[4]{0}, u32[4]{0}) %parameter.24), index=3
  %copy.448 = u32[] copy(u32[] %get-tuple-element.27085)
  %get-tuple-element.27088 = u32[4]{0} get-tuple-element((s32[], u32[2]{0}, u32[2]{0}, u32[], u32[], /*index=5*/u32[], u32[4]{0}, u32[4]{0}) %parameter.24), index=6
  %copy.451 = u32[4]{0} copy(u32[4]{0} %get-tuple-element.27088)
  %get-tuple-element.27084 = u32[2]{0} get-tuple-element((s32[], u32[2]{0}, u32[2]{0}, u32[], u32[], /*index=5*/u32[], u32[4]{0}, u32[4]{0}) %parameter.24), index=2
  %copy.447 = u32[2]{0} copy(u32[2]{0} %get-tuple-element.27084)
  %get-tuple-element.27083 = u32[2]{0} get-tuple-element((s32[], u32[2]{0}, u32[2]{0}, u32[], u32[], /*index=5*/u32[], u32[4]{0}, u32[4]{0}) %parameter.24), index=1
  %copy.446 = u32[2]{0} copy(u32[2]{0} %get-tuple-element.27083)
  %fusion.7 = u32[2]{0} fusion(u32[] %copy.448, u32[4]{0} %copy.451, u32[2]{0} %copy.447, u32[2]{0} %copy.446), kind=kLoop, calls=%fused_computation.7, metadata={op_type="add" op_name="scan/while/body/add" source_file="/usr/local/lib/python3.8/dist-packages/trax/fastmath/ops.py" source_line=71}
  %get-tuple-element.27086 = u32[] get-tuple-element((s32[], u32[2]{0}, u32[2]{0}, u32[], u32[], /*index=5*/u32[], u32[4]{0}, u32[4]{0}) %parameter.24), index=4
  %copy.449 = u32[] copy(u32[] %get-tuple-element.27086)
  %fusion.6 = u32[2]{0} fusion(u32[] %copy.449, u32[4]{0} %copy.451, u32[2]{0} %copy.447, u32[2]{0} %copy.446, s32[] %copy.445), kind=kLoop, calls=%fused_computation.6, metadata={op_type="add" op_name="scan/while/body/add" source_file="/usr/local/lib/python3.8/dist-packages/trax/fastmath/ops.py" source_line=71}
  %copy.456 = u32[] copy(u32[] %copy.449), control-predecessors={%copy.448}
  %get-tuple-element.27087 = u32[] get-tuple-element((s32[], u32[2]{0}, u32[2]{0}, u32[], u32[], /*index=5*/u32[], u32[4]{0}, u32[4]{0}) %parameter.24), index=5
  %copy.450 = u32[] copy(u32[] %get-tuple-element.27087)
  %copy.457 = u32[] copy(u32[] %copy.450), control-predecessors={%copy.449}
  %copy.458 = u32[] copy(u32[] %copy.448), control-predecessors={%copy.450}
  %get-tuple-element.27089 = u32[4]{0} get-tuple-element((s32[], u32[2]{0}, u32[2]{0}, u32[], u32[], /*index=5*/u32[], u32[4]{0}, u32[4]{0}) %parameter.24), index=7
  %copy.452 = u32[4]{0} copy(u32[4]{0} %get-tuple-element.27089)
  %copy.459 = u32[4]{0} copy(u32[4]{0} %copy.452), control-predecessors={%copy.451}
  %copy.460 = u32[4]{0} copy(u32[4]{0} %copy.451), control-predecessors={%copy.452}
  ROOT %tuple.1284 = (s32[], u32[2]{0}, u32[2]{0}, u32[], u32[], /*index=5*/u32[], u32[4]{0}, u32[4]{0}) tuple(s32[] %add.1344, u32[2]{0} %fusion.7, u32[2]{0} %fusion.6, u32[] %copy.456, u32[] %copy.457, /*index=5*/u32[] %copy.458, u32[4]{0} %copy.459, u32[4]{0} %copy.460)
}

%cond_computation__140.242.clone.clone (parameter.25: (s32[], u32[2], u32[2], u32[], u32[], /*index=5*/u32[], u32[4], u32[4])) -> pred[] {
  %parameter.25 = (s32[], u32[2]{0}, u32[2]{0}, u32[], u32[], /*index=5*/u32[], u32[4]{0}, u32[4]{0}) parameter(0)
  %get-tuple-element.15057 = s32[] get-tuple-element((s32[], u32[2]{0}, u32[2]{0}, u32[], u32[], /*index=5*/u32[], u32[4]{0}, u32[4]{0}) %parameter.25), index=0
  %constant.10277 = s32[] constant(5), metadata={op_type="lt" op_name="scan/while/cond/lt" source_file="/usr/local/lib/python3.8/dist-packages/trax/optimizers/trainer.py" source_line=248}
  ROOT %compare.1601 = pred[] compare(s32[] %get-tuple-element.15057, s32[] %constant.10277), direction=LT, metadata={op_type="lt" op_name="scan/while/cond/lt" source_file="/usr/local/lib/python3.8/dist-packages/trax/optimizers/trainer.py" source_line=248}
}

%fused_computation.8 (param_0.23: u32[], param_1.45: u32[4], param_2.37: u32[11], param_3.35: u32[11], param_4.55: s32[]) -> u32[11] {
  %param_3.35 = u32[11]{0} parameter(3)
  %param_2.37 = u32[11]{0} parameter(2)
  %add.3877 = u32[11]{0} add(u32[11]{0} %param_3.35, u32[11]{0} %param_2.37), metadata={op_type="add" op_name="scan/while/body/add" source_file="/usr/local/lib/python3.8/dist-packages/trax/fastmath/ops.py" source_line=71}
  %param_1.45 = u32[4]{0} parameter(1)
  %slice.1189 = u32[1]{0} slice(u32[4]{0} %param_1.45), slice={[0:1]}, metadata={op_type="slice" op_name="scan/while/body/slice[ limit_indices=(1,)\n                       start_indices=(0,)\n                       strides=(1,) ]" source_file="/usr/local/lib/python3.8/dist-packages/trax/fastmath/ops.py" source_line=71}
  %reshape.2810 = u32[] reshape(u32[1]{0} %slice.1189), metadata={op_type="squeeze" op_name="scan/while/body/squeeze[ dimensions=(0,) ]" source_file="/usr/local/lib/python3.8/dist-packages/trax/fastmath/ops.py" source_line=71}
  %broadcast.1616 = u32[11]{0} broadcast(u32[] %reshape.2810), dimensions={}, metadata={op_type="shift_left" op_name="scan/while/body/shift_left" source_file="/usr/local/lib/python3.8/dist-packages/trax/fastmath/ops.py" source_line=71}
  %shift-left.106 = u32[11]{0} shift-left(u32[11]{0} %param_2.37, u32[11]{0} %broadcast.1616), metadata={op_type="shift_left" op_name="scan/while/body/shift_left" source_file="/usr/local/lib/python3.8/dist-packages/trax/fastmath/ops.py" source_line=71}
  %constant.20369 = u32[] constant(32), metadata={op_type="sub" op_name="scan/while/body/sub" source_file="/usr/local/lib/python3.8/dist-packages/trax/fastmath/ops.py" source_line=71}
  %subtract.442 = u32[] subtract(u32[] %constant.20369, u32[] %reshape.2810), metadata={op_type="sub" op_name="scan/while/body/sub" source_file="/usr/local/lib/python3.8/dist-packages/trax/fastmath/ops.py" source_line=71}
  %broadcast.1615 = u32[11]{0} broadcast(u32[] %subtract.442), dimensions={}, metadata={op_type="shift_right_logical" op_name="scan/while/body/shift_right_logical" source_file="/usr/local/lib/python3.8/dist-packages/trax/fastmath/ops.py" source_line=71}
  %shift-right-logical.125 = u32[11]{0} shift-right-logical(u32[11]{0} %param_2.37, u32[11]{0} %broadcast.1615), metadata={op_type="shift_right_logical" op_name="scan/while/body/shift_right_logical" source_file="/usr/local/lib/python3.8/dist-packages/trax/fastmath/ops.py" source_line=71}
  %or.109 = u32[11]{0} or(u32[11]{0} %shift-left.106, u32[11]{0} %shift-right-logical.125), metadata={op_type="or" op_name="scan/while/body/or" source_file="/usr/local/lib/python3.8/dist-packages/trax/fastmath/ops.py" source_line=71}
  %xor.296 = u32[11]{0} xor(u32[11]{0} %add.3877, u32[11]{0} %or.109), metadata={op_type="xor" op_name="scan/while/body/xor" source_file="/usr/local/lib/python3.8/dist-packages/trax/fastmath/ops.py" source_line=71}
  %add.3876 = u32[11]{0} add(u32[11]{0} %add.3877, u32[11]{0} %xor.296), metadata={op_type="add" op_name="scan/while/body/add" source_file="/usr/local/lib/python3.8/dist-packages/trax/fastmath/ops.py" source_line=71}
  %slice.1188 = u32[1]{0} slice(u32[4]{0} %param_1.45), slice={[1:2]}, metadata={op_type="slice" op_name="scan/while/body/slice[ limit_indices=(2,)\n                       start_indices=(1,)\n                       strides=(1,) ]" source_file="/usr/local/lib/python3.8/dist-packages/trax/fastmath/ops.py" source_line=71}
  %reshape.2809 = u32[] reshape(u32[1]{0} %slice.1188), metadata={op_type="squeeze" op_name="scan/while/body/squeeze[ dimensions=(0,) ]" source_file="/usr/local/lib/python3.8/dist-packages/trax/fastmath/ops.py" source_line=71}
  %broadcast.1613 = u32[11]{0} broadcast(u32[] %reshape.2809), dimensions={}, metadata={op_type="shift_left" op_name="scan/while/body/shift_left" source_file="/usr/local/lib/python3.8/dist-packages/trax/fastmath/ops.py" source_line=71}
  %shift-left.105 = u32[11]{0} shift-left(u32[11]{0} %xor.296, u32[11]{0} %broadcast.1613), metadata={op_type="shift_left" op_name="scan/while/body/shift_left" source_file="/usr/local/lib/python3.8/dist-packages/trax/fastmath/ops.py" source_line=71}
  %subtract.441 = u32[] subtract(u32[] %constant.20369, u32[] %reshape.2809), metadata={op_type="sub" op_name="scan/while/body/sub" source_file="/usr/local/lib/python3.8/dist-packages/trax/fastmath/ops.py" source_line=71}
  %broadcast.1612 = u32[11]{0} broadcast(u32[] %subtract.441), dimensions={}, metadata={op_type="shift_right_logical" op_name="scan/while/body/shift_right_logical" source_file="/usr/local/lib/python3.8/dist-packages/trax/fastmath/ops.py" source_line=71}
  %shift-right-logical.124 = u32[11]{0} shift-right-logical(u32[11]{0} %xor.296, u32[11]{0} %broadcast.1612), metadata={op_type="shift_right_logical" op_name="scan/while/body/shift_right_logical" source_file="/usr/local/lib/python3.8/dist-packages/trax/fastmath/ops.py" source_line=71}
  %or.108 = u32[11]{0} or(u32[11]{0} %shift-left.105, u32[11]{0} %shift-right-logical.124), metadata={op_type="or" op_name="scan/while/body/or" source_file="/usr/local/lib/python3.8/dist-packages/trax/fastmath/ops.py" source_line=71}
  %xor.295 = u32[11]{0} xor(u32[11]{0} %add.3876, u32[11]{0} %or.108), metadata={op_type="xor" op_name="scan/while/body/xor" source_file="/usr/local/lib/python3.8/dist-packages/trax/fastmath/ops.py" source_line=71}
  %add.3875 = u32[11]{0} add(u32[11]{0} %add.3876, u32[11]{0} %xor.295), metadata={op_type="add" op_name="scan/while/body/add" source_file="/usr/local/lib/python3.8/dist-packages/trax/fastmath/ops.py" source_line=71}
  %slice.1187 = u32[1]{0} slice(u32[4]{0} %param_1.45), slice={[2:3]}, metadata={op_type="slice" op_name="scan/while/body/slice[ limit_indices=(3,)\n                       start_indices=(2,)\n                       strides=(1,) ]" source_file="/usr/local/lib/python3.8/dist-packages/trax/fastmath/ops.py" source_line=71}
  %reshape.2808 = u32[] reshape(u32[1]{0} %slice.1187), metadata={op_type="squeeze" op_name="scan/while/body/squeeze[ dimensions=(0,) ]" source_file="/usr/local/lib/python3.8/dist-packages/trax/fastmath/ops.py" source_line=71}
  %broadcast.1611 = u32[11]{0} broadcast(u32[] %reshape.2808), dimensions={}, metadata={op_type="shift_left" op_name="scan/while/body/shift_left" source_file="/usr/local/lib/python3.8/dist-packages/trax/fastmath/ops.py" source_line=71}
  %shift-left.104 = u32[11]{0} shift-left(u32[11]{0} %xor.295, u32[11]{0} %broadcast.1611), metadata={op_type="shift_left" op_name="scan/while/body/shift_left" source_file="/usr/local/lib/python3.8/dist-packages/trax/fastmath/ops.py" source_line=71}
  %subtract.440 = u32[] subtract(u32[] %constant.20369, u32[] %reshape.2808), metadata={op_type="sub" op_name="scan/while/body/sub" source_file="/usr/local/lib/python3.8/dist-packages/trax/fastmath/ops.py" source_line=71}
  %broadcast.1610 = u32[11]{0} broadcast(u32[] %subtract.440), dimensions={}, metadata={op_type="shift_right_logical" op_name="scan/while/body/shift_right_logical" source_file="/usr/local/lib/python3.8/dist-packages/trax/fastmath/ops.py" source_line=71}
  %shift-right-logical.123 = u32[11]{0} shift-right-logical(u32[11]{0} %xor.295, u32[11]{0} %broadcast.1610), metadata={op_type="shift_right_logical" op_name="scan/while/body/shift_right_logical" source_file="/usr/local/lib/python3.8/dist-packages/trax/fastmath/ops.py" source_line=71}
  %or.107 = u32[11]{0} or(u32[11]{0} %shift-left.104, u32[11]{0} %shift-right-logical.123), metadata={op_type="or" op_name="scan/while/body/or" source_file="/usr/local/lib/python3.8/dist-packages/trax/fastmath/ops.py" source_line=71}
  %xor.294 = u32[11]{0} xor(u32[11]{0} %add.3875, u32[11]{0} %or.107), metadata={op_type="xor" op_name="scan/while/body/xor" source_file="/usr/local/lib/python3.8/dist-packages/trax/fastmath/ops.py" source_line=71}
  %add.3873 = u32[11]{0} add(u32[11]{0} %add.3875, u32[11]{0} %xor.294), metadata={op_type="add" op_name="scan/while/body/add" source_file="/usr/local/lib/python3.8/dist-packages/trax/fastmath/ops.py" source_line=71}
  %slice.1186 = u32[1]{0} slice(u32[4]{0} %param_1.45), slice={[3:4]}, metadata={op_type="slice" op_name="scan/while/body/slice[ limit_indices=(4,)\n                       start_indices=(3,)\n                       strides=(1,) ]" source_file="/usr/local/lib/python3.8/dist-packages/trax/fastmath/ops.py" source_line=71}
  %reshape.2807 = u32[] reshape(u32[1]{0} %slice.1186), metadata={op_type="squeeze" op_name="scan/while/body/squeeze[ dimensions=(0,) ]" source_file="/usr/local/lib/python3.8/dist-packages/trax/fastmath/ops.py" source_line=71}
  %broadcast.1609 = u32[11]{0} broadcast(u32[] %reshape.2807), dimensions={}, metadata={op_type="shift_left" op_name="scan/while/body/shift_left" source_file="/usr/local/lib/python3.8/dist-packages/trax/fastmath/ops.py" source_line=71}
  %shift-left.103 = u32[11]{0} shift-left(u32[11]{0} %xor.294, u32[11]{0} %broadcast.1609), metadata={op_type="shift_left" op_name="scan/while/body/shift_left" source_file="/usr/local/lib/python3.8/dist-packages/trax/fastmath/ops.py" source_line=71}
  %subtract.439 = u32[] subtract(u32[] %constant.20369, u32[] %reshape.2807), metadata={op_type="sub" op_name="scan/while/body/sub" source_file="/usr/local/lib/python3.8/dist-packages/trax/fastmath/ops.py" source_line=71}
  %broadcast.1608 = u32[11]{0} broadcast(u32[] %subtract.439), dimensions={}, metadata={op_type="shift_right_logical" op_name="scan/while/body/shift_right_logical" source_file="/usr/local/lib/python3.8/dist-packages/trax/fastmath/ops.py" source_line=71}
  %shift-right-logical.122 = u32[11]{0} shift-right-logical(u32[11]{0} %xor.294, u32[11]{0} %broadcast.1608), metadata={op_type="shift_right_logical" op_name="scan/while/body/shift_right_logical" source_file="/usr/local/lib/python3.8/dist-packages/trax/fastmath/ops.py" source_line=71}
  %or.106 = u32[11]{0} or(u32[11]{0} %shift-left.103, u32[11]{0} %shift-right-logical.122), metadata={op_type="or" op_name="scan/while/body/or" source_file="/usr/local/lib/python3.8/dist-packages/trax/fastmath/ops.py" source_line=71}
  %xor.293 = u32[11]{0} xor(u32[11]{0} %add.3873, u32[11]{0} %or.106), metadata={op_type="xor" op_name="scan/while/body/xor" source_file="/usr/local/lib/python3.8/dist-packages/trax/fastmath/ops.py" source_line=71}
  %param_0.23 = u32[] parameter(0)
  %broadcast.1607 = u32[11]{0} broadcast(u32[] %param_0.23), dimensions={}, metadata={op_type="add" op_name="scan/while/body/add" source_file="/usr/local/lib/python3.8/dist-packages/trax/fastmath/ops.py" source_line=71}
  %add.3872 = u32[11]{0} add(u32[11]{0} %xor.293, u32[11]{0} %broadcast.1607), metadata={op_type="add" op_name="scan/while/body/add" source_file="/usr/local/lib/python3.8/dist-packages/trax/fastmath/ops.py" source_line=71}
  %param_4.55 = s32[] parameter(4)
  %constant.20370 = s32[] constant(1), metadata={op_type="add" op_name="scan/while/body/add" source_file="/usr/local/lib/python3.8/dist-packages/trax/fastmath/ops.py" source_line=71}
  %add.3878 = s32[] add(s32[] %param_4.55, s32[] %constant.20370), metadata={op_type="add" op_name="scan/while/body/add" source_file="/usr/local/lib/python3.8/dist-packages/trax/optimizers/trainer.py" source_line=248}
  %convert.67 = u32[] convert(s32[] %add.3878), metadata={op_type="convert_element_type" op_name="scan/while/body/convert_element_type[ new_dtype=uint32\n                                      weak_type=False ]" source_file="/usr/local/lib/python3.8/dist-packages/trax/fastmath/ops.py" source_line=71}
  %broadcast.1606 = u32[11]{0} broadcast(u32[] %convert.67), dimensions={}, metadata={op_type="add" op_name="scan/while/body/add" source_file="/usr/local/lib/python3.8/dist-packages/trax/fastmath/ops.py" source_line=71}
  ROOT %add.3871 = u32[11]{0} add(u32[11]{0} %add.3872, u32[11]{0} %broadcast.1606), metadata={op_type="add" op_name="scan/while/body/add" source_file="/usr/local/lib/python3.8/dist-packages/trax/fastmath/ops.py" source_line=71}
}

%fused_computation.9 (param_0.25: u32[], param_1.51: u32[4], param_2.45: u32[11], param_3.45: u32[11]) -> u32[11] {
  %param_3.45 = u32[11]{0} parameter(3)
  %param_2.45 = u32[11]{0} parameter(2)
  %add.3883 = u32[11]{0} add(u32[11]{0} %param_3.45, u32[11]{0} %param_2.45), metadata={op_type="add" op_name="scan/while/body/add" source_file="/usr/local/lib/python3.8/dist-packages/trax/fastmath/ops.py" source_line=71}
  %param_1.51 = u32[4]{0} parameter(1)
  %slice.1192 = u32[1]{0} slice(u32[4]{0} %param_1.51), slice={[0:1]}, metadata={op_type="slice" op_name="scan/while/body/slice[ limit_indices=(1,)\n                       start_indices=(0,)\n                       strides=(1,) ]" source_file="/usr/local/lib/python3.8/dist-packages/trax/fastmath/ops.py" source_line=71}
  %reshape.2813 = u32[] reshape(u32[1]{0} %slice.1192), metadata={op_type="squeeze" op_name="scan/while/body/squeeze[ dimensions=(0,) ]" source_file="/usr/local/lib/python3.8/dist-packages/trax/fastmath/ops.py" source_line=71}
  %broadcast.1623 = u32[11]{0} broadcast(u32[] %reshape.2813), dimensions={}, metadata={op_type="shift_left" op_name="scan/while/body/shift_left" source_file="/usr/local/lib/python3.8/dist-packages/trax/fastmath/ops.py" source_line=71}
  %shift-left.109 = u32[11]{0} shift-left(u32[11]{0} %param_2.45, u32[11]{0} %broadcast.1623), metadata={op_type="shift_left" op_name="scan/while/body/shift_left" source_file="/usr/local/lib/python3.8/dist-packages/trax/fastmath/ops.py" source_line=71}
  %constant.20372 = u32[] constant(32), metadata={op_type="sub" op_name="scan/while/body/sub" source_file="/usr/local/lib/python3.8/dist-packages/trax/fastmath/ops.py" source_line=71}
  %subtract.445 = u32[] subtract(u32[] %constant.20372, u32[] %reshape.2813), metadata={op_type="sub" op_name="scan/while/body/sub" source_file="/usr/local/lib/python3.8/dist-packages/trax/fastmath/ops.py" source_line=71}
  %broadcast.1622 = u32[11]{0} broadcast(u32[] %subtract.445), dimensions={}, metadata={op_type="shift_right_logical" op_name="scan/while/body/shift_right_logical" source_file="/usr/local/lib/python3.8/dist-packages/trax/fastmath/ops.py" source_line=71}
  %shift-right-logical.128 = u32[11]{0} shift-right-logical(u32[11]{0} %param_2.45, u32[11]{0} %broadcast.1622), metadata={op_type="shift_right_logical" op_name="scan/while/body/shift_right_logical" source_file="/usr/local/lib/python3.8/dist-packages/trax/fastmath/ops.py" source_line=71}
  %or.112 = u32[11]{0} or(u32[11]{0} %shift-left.109, u32[11]{0} %shift-right-logical.128), metadata={op_type="or" op_name="scan/while/body/or" source_file="/usr/local/lib/python3.8/dist-packages/trax/fastmath/ops.py" source_line=71}
  %xor.299 = u32[11]{0} xor(u32[11]{0} %add.3883, u32[11]{0} %or.112), metadata={op_type="xor" op_name="scan/while/body/xor" source_file="/usr/local/lib/python3.8/dist-packages/trax/fastmath/ops.py" source_line=71}
  %add.3882 = u32[11]{0} add(u32[11]{0} %add.3883, u32[11]{0} %xor.299), metadata={op_type="add" op_name="scan/while/body/add" source_file="/usr/local/lib/python3.8/dist-packages/trax/fastmath/ops.py" source_line=71}
  %slice.1191 = u32[1]{0} slice(u32[4]{0} %param_1.51), slice={[1:2]}, metadata={op_type="slice" op_name="scan/while/body/slice[ limit_indices=(2,)\n                       start_indices=(1,)\n                       strides=(1,) ]" source_file="/usr/local/lib/python3.8/dist-packages/trax/fastmath/ops.py" source_line=71}
  %reshape.2812 = u32[] reshape(u32[1]{0} %slice.1191), metadata={op_type="squeeze" op_name="scan/while/body/squeeze[ dimensions=(0,) ]" source_file="/usr/local/lib/python3.8/dist-packages/trax/fastmath/ops.py" source_line=71}
  %broadcast.1621 = u32[11]{0} broadcast(u32[] %reshape.2812), dimensions={}, metadata={op_type="shift_left" op_name="scan/while/body/shift_left" source_file="/usr/local/lib/python3.8/dist-packages/trax/fastmath/ops.py" source_line=71}
  %shift-left.108 = u32[11]{0} shift-left(u32[11]{0} %xor.299, u32[11]{0} %broadcast.1621), metadata={op_type="shift_left" op_name="scan/while/body/shift_left" source_file="/usr/local/lib/python3.8/dist-packages/trax/fastmath/ops.py" source_line=71}
  %subtract.444 = u32[] subtract(u32[] %constant.20372, u32[] %reshape.2812), metadata={op_type="sub" op_name="scan/while/body/sub" source_file="/usr/local/lib/python3.8/dist-packages/trax/fastmath/ops.py" source_line=71}
  %broadcast.1620 = u32[11]{0} broadcast(u32[] %subtract.444), dimensions={}, metadata={op_type="shift_right_logical" op_name="scan/while/body/shift_right_logical" source_file="/usr/local/lib/python3.8/dist-packages/trax/fastmath/ops.py" source_line=71}
  %shift-right-logical.127 = u32[11]{0} shift-right-logical(u32[11]{0} %xor.299, u32[11]{0} %broadcast.1620), metadata={op_type="shift_right_logical" op_name="scan/while/body/shift_right_logical" source_file="/usr/local/lib/python3.8/dist-packages/trax/fastmath/ops.py" source_line=71}
  %or.111 = u32[11]{0} or(u32[11]{0} %shift-left.108, u32[11]{0} %shift-right-logical.127), metadata={op_type="or" op_name="scan/while/body/or" source_file="/usr/local/lib/python3.8/dist-packages/trax/fastmath/ops.py" source_line=71}
  %xor.298 = u32[11]{0} xor(u32[11]{0} %add.3882, u32[11]{0} %or.111), metadata={op_type="xor" op_name="scan/while/body/xor" source_file="/usr/local/lib/python3.8/dist-packages/trax/fastmath/ops.py" source_line=71}
  %add.3881 = u32[11]{0} add(u32[11]{0} %add.3882, u32[11]{0} %xor.298), metadata={op_type="add" op_name="scan/while/body/add" source_file="/usr/local/lib/python3.8/dist-packages/trax/fastmath/ops.py" source_line=71}
  %slice.1190 = u32[1]{0} slice(u32[4]{0} %param_1.51), slice={[2:3]}, metadata={op_type="slice" op_name="scan/while/body/slice[ limit_indices=(3,)\n                       start_indices=(2,)\n                       strides=(1,) ]" source_file="/usr/local/lib/python3.8/dist-packages/trax/fastmath/ops.py" source_line=71}
  %reshape.2811 = u32[] reshape(u32[1]{0} %slice.1190), metadata={op_type="squeeze" op_name="scan/while/body/squeeze[ dimensions=(0,) ]" source_file="/usr/local/lib/python3.8/dist-packages/trax/fastmath/ops.py" source_line=71}
  %broadcast.1619 = u32[11]{0} broadcast(u32[] %reshape.2811), dimensions={}, metadata={op_type="shift_left" op_name="scan/while/body/shift_left" source_file="/usr/local/lib/python3.8/dist-packages/trax/fastmath/ops.py" source_line=71}
  %shift-left.107 = u32[11]{0} shift-left(u32[11]{0} %xor.298, u32[11]{0} %broadcast.1619), metadata={op_type="shift_left" op_name="scan/while/body/shift_left" source_file="/usr/local/lib/python3.8/dist-packages/trax/fastmath/ops.py" source_line=71}
  %subtract.443 = u32[] subtract(u32[] %constant.20372, u32[] %reshape.2811), metadata={op_type="sub" op_name="scan/while/body/sub" source_file="/usr/local/lib/python3.8/dist-packages/trax/fastmath/ops.py" source_line=71}
  %broadcast.1618 = u32[11]{0} broadcast(u32[] %subtract.443), dimensions={}, metadata={op_type="shift_right_logical" op_name="scan/while/body/shift_right_logical" source_file="/usr/local/lib/python3.8/dist-packages/trax/fastmath/ops.py" source_line=71}
  %shift-right-logical.126 = u32[11]{0} shift-right-logical(u32[11]{0} %xor.298, u32[11]{0} %broadcast.1618), metadata={op_type="shift_right_logical" op_name="scan/while/body/shift_right_logical" source_file="/usr/local/lib/python3.8/dist-packages/trax/fastmath/ops.py" source_line=71}
  %or.110 = u32[11]{0} or(u32[11]{0} %shift-left.107, u32[11]{0} %shift-right-logical.126), metadata={op_type="or" op_name="scan/while/body/or" source_file="/usr/local/lib/python3.8/dist-packages/trax/fastmath/ops.py" source_line=71}
  %xor.297 = u32[11]{0} xor(u32[11]{0} %add.3881, u32[11]{0} %or.110), metadata={op_type="xor" op_name="scan/while/body/xor" source_file="/usr/local/lib/python3.8/dist-packages/trax/fastmath/ops.py" source_line=71}
  %add.3880 = u32[11]{0} add(u32[11]{0} %add.3881, u32[11]{0} %xor.297), metadata={op_type="add" op_name="scan/while/body/add" source_file="/usr/local/lib/python3.8/dist-packages/trax/fastmath/ops.py" source_line=71}
  %param_0.25 = u32[] parameter(0)
  %broadcast.1617 = u32[11]{0} broadcast(u32[] %param_0.25), dimensions={}, metadata={op_type="add" op_name="scan/while/body/add" source_file="/usr/local/lib/python3.8/dist-packages/trax/fastmath/ops.py" source_line=71}
  ROOT %add.3879 = u32[11]{0} add(u32[11]{0} %add.3880, u32[11]{0} %broadcast.1617), metadata={op_type="add" op_name="scan/while/body/add" source_file="/usr/local/lib/python3.8/dist-packages/trax/fastmath/ops.py" source_line=71}
}

%body_computation__141.328.clone.clone.clone (parameter.26: (s32[], u32[11], u32[11], u32[], u32[], /*index=5*/u32[], u32[4], u32[4])) -> (s32[], u32[11], u32[11], u32[], u32[], /*index=5*/u32[], u32[4], u32[4]) {
  %parameter.26 = (s32[], u32[11]{0}, u32[11]{0}, u32[], u32[], /*index=5*/u32[], u32[4]{0}, u32[4]{0}) parameter(0)
  %get-tuple-element.27106 = s32[] get-tuple-element((s32[], u32[11]{0}, u32[11]{0}, u32[], u32[], /*index=5*/u32[], u32[4]{0}, u32[4]{0}) %parameter.26), index=0
  %copy.469 = s32[] copy(s32[] %get-tuple-element.27106)
  %constant.10284 = s32[] constant(1), metadata={op_type="add" op_name="scan/while/body/add" source_file="/usr/local/lib/python3.8/dist-packages/trax/fastmath/ops.py" source_line=71}
  %add.1354 = s32[] add(s32[] %copy.469, s32[] %constant.10284), metadata={op_type="add" op_name="scan/while/body/add" source_file="/usr/local/lib/python3.8/dist-packages/trax/optimizers/trainer.py" source_line=248}
  %get-tuple-element.27109 = u32[] get-tuple-element((s32[], u32[11]{0}, u32[11]{0}, u32[], u32[], /*index=5*/u32[], u32[4]{0}, u32[4]{0}) %parameter.26), index=3
  %copy.472 = u32[] copy(u32[] %get-tuple-element.27109)
  %get-tuple-element.27112 = u32[4]{0} get-tuple-element((s32[], u32[11]{0}, u32[11]{0}, u32[], u32[], /*index=5*/u32[], u32[4]{0}, u32[4]{0}) %parameter.26), index=6
  %copy.475 = u32[4]{0} copy(u32[4]{0} %get-tuple-element.27112)
  %get-tuple-element.27108 = u32[11]{0} get-tuple-element((s32[], u32[11]{0}, u32[11]{0}, u32[], u32[], /*index=5*/u32[], u32[4]{0}, u32[4]{0}) %parameter.26), index=2
  %copy.471 = u32[11]{0} copy(u32[11]{0} %get-tuple-element.27108)
  %get-tuple-element.27107 = u32[11]{0} get-tuple-element((s32[], u32[11]{0}, u32[11]{0}, u32[], u32[], /*index=5*/u32[], u32[4]{0}, u32[4]{0}) %parameter.26), index=1
  %copy.470 = u32[11]{0} copy(u32[11]{0} %get-tuple-element.27107)
  %fusion.9 = u32[11]{0} fusion(u32[] %copy.472, u32[4]{0} %copy.475, u32[11]{0} %copy.471, u32[11]{0} %copy.470), kind=kLoop, calls=%fused_computation.9, metadata={op_type="add" op_name="scan/while/body/add" source_file="/usr/local/lib/python3.8/dist-packages/trax/fastmath/ops.py" source_line=71}
  %get-tuple-element.27110 = u32[] get-tuple-element((s32[], u32[11]{0}, u32[11]{0}, u32[], u32[], /*index=5*/u32[], u32[4]{0}, u32[4]{0}) %parameter.26), index=4
  %copy.473 = u32[] copy(u32[] %get-tuple-element.27110)
  %fusion.8 = u32[11]{0} fusion(u32[] %copy.473, u32[4]{0} %copy.475, u32[11]{0} %copy.471, u32[11]{0} %copy.470, s32[] %copy.469), kind=kLoop, calls=%fused_computation.8, metadata={op_type="add" op_name="scan/while/body/add" source_file="/usr/local/lib/python3.8/dist-packages/trax/fastmath/ops.py" source_line=71}
  %copy.480 = u32[] copy(u32[] %copy.473), control-predecessors={%copy.472}
  %get-tuple-element.27111 = u32[] get-tuple-element((s32[], u32[11]{0}, u32[11]{0}, u32[], u32[], /*index=5*/u32[], u32[4]{0}, u32[4]{0}) %parameter.26), index=5
  %copy.474 = u32[] copy(u32[] %get-tuple-element.27111)
  %copy.481 = u32[] copy(u32[] %copy.474), control-predecessors={%copy.473}
  %copy.482 = u32[] copy(u32[] %copy.472), control-predecessors={%copy.474}
  %get-tuple-element.27113 = u32[4]{0} get-tuple-element((s32[], u32[11]{0}, u32[11]{0}, u32[], u32[], /*index=5*/u32[], u32[4]{0}, u32[4]{0}) %parameter.26), index=7
  %copy.476 = u32[4]{0} copy(u32[4]{0} %get-tuple-element.27113)
  %copy.483 = u32[4]{0} copy(u32[4]{0} %copy.476), control-predecessors={%copy.475}
  %copy.484 = u32[4]{0} copy(u32[4]{0} %copy.475), control-predecessors={%copy.476}
  ROOT %tuple.1288 = (s32[], u32[11]{0}, u32[11]{0}, u32[], u32[], /*index=5*/u32[], u32[4]{0}, u32[4]{0}) tuple(s32[] %add.1354, u32[11]{0} %fusion.9, u32[11]{0} %fusion.8, u32[] %copy.480, u32[] %copy.481, /*index=5*/u32[] %copy.482, u32[4]{0} %copy.483, u32[4]{0} %copy.484)
}

%cond_computation__141.398.clone.clone (parameter.27: (s32[], u32[11], u32[11], u32[], u32[], /*index=5*/u32[], u32[4], u32[4])) -> pred[] {
  %parameter.27 = (s32[], u32[11]{0}, u32[11]{0}, u32[], u32[], /*index=5*/u32[], u32[4]{0}, u32[4]{0}) parameter(0)
  %get-tuple-element.15109 = s32[] get-tuple-element((s32[], u32[11]{0}, u32[11]{0}, u32[], u32[], /*index=5*/u32[], u32[4]{0}, u32[4]{0}) %parameter.27), index=0
  %constant.10291 = s32[] constant(5), metadata={op_type="lt" op_name="scan/while/cond/lt" source_file="/usr/local/lib/python3.8/dist-packages/trax/optimizers/trainer.py" source_line=248}
  ROOT %compare.1602 = pred[] compare(s32[] %get-tuple-element.15109, s32[] %constant.10291), direction=LT, metadata={op_type="lt" op_name="scan/while/cond/lt" source_file="/usr/local/lib/python3.8/dist-packages/trax/optimizers/trainer.py" source_line=248}
}

%fused_computation.10 (param_0.28: u32[], param_1.57: u32[4], param_2.52: u32[2], param_3.53: u32[2], param_4.84: s32[]) -> u32[2] {
  %param_3.53 = u32[2]{0} parameter(3)
  %param_2.52 = u32[2]{0} parameter(2)
  %add.3889 = u32[2]{0} add(u32[2]{0} %param_3.53, u32[2]{0} %param_2.52), metadata={op_type="add" op_name="scan/while/body/add" source_file="/usr/local/lib/python3.8/dist-packages/trax/fastmath/ops.py" source_line=71}
  %param_1.57 = u32[4]{0} parameter(1)
  %slice.1196 = u32[1]{0} slice(u32[4]{0} %param_1.57), slice={[0:1]}, metadata={op_type="slice" op_name="scan/while/body/slice[ limit_indices=(1,)\n                       start_indices=(0,)\n                       strides=(1,) ]" source_file="/usr/local/lib/python3.8/dist-packages/trax/fastmath/ops.py" source_line=71}
  %reshape.2817 = u32[] reshape(u32[1]{0} %slice.1196), metadata={op_type="squeeze" op_name="scan/while/body/squeeze[ dimensions=(0,) ]" source_file="/usr/local/lib/python3.8/dist-packages/trax/fastmath/ops.py" source_line=71}
  %broadcast.1633 = u32[2]{0} broadcast(u32[] %reshape.2817), dimensions={}, metadata={op_type="shift_left" op_name="scan/while/body/shift_left" source_file="/usr/local/lib/python3.8/dist-packages/trax/fastmath/ops.py" source_line=71}
  %shift-left.113 = u32[2]{0} shift-left(u32[2]{0} %param_2.52, u32[2]{0} %broadcast.1633), metadata={op_type="shift_left" op_name="scan/while/body/shift_left" source_file="/usr/local/lib/python3.8/dist-packages/trax/fastmath/ops.py" source_line=71}
  %constant.20373 = u32[] constant(32), metadata={op_type="sub" op_name="scan/while/body/sub" source_file="/usr/local/lib/python3.8/dist-packages/trax/fastmath/ops.py" source_line=71}
  %subtract.449 = u32[] subtract(u32[] %constant.20373, u32[] %reshape.2817), metadata={op_type="sub" op_name="scan/while/body/sub" source_file="/usr/local/lib/python3.8/dist-packages/trax/fastmath/ops.py" source_line=71}
  %broadcast.1632 = u32[2]{0} broadcast(u32[] %subtract.449), dimensions={}, metadata={op_type="shift_right_logical" op_name="scan/while/body/shift_right_logical" source_file="/usr/local/lib/python3.8/dist-packages/trax/fastmath/ops.py" source_line=71}
  %shift-right-logical.132 = u32[2]{0} shift-right-logical(u32[2]{0} %param_2.52, u32[2]{0} %broadcast.1632), metadata={op_type="shift_right_logical" op_name="scan/while/body/shift_right_logical" source_file="/usr/local/lib/python3.8/dist-packages/trax/fastmath/ops.py" source_line=71}
  %or.116 = u32[2]{0} or(u32[2]{0} %shift-left.113, u32[2]{0} %shift-right-logical.132), metadata={op_type="or" op_name="scan/while/body/or" source_file="/usr/local/lib/python3.8/dist-packages/trax/fastmath/ops.py" source_line=71}
  %xor.303 = u32[2]{0} xor(u32[2]{0} %add.3889, u32[2]{0} %or.116), metadata={op_type="xor" op_name="scan/while/body/xor" source_file="/usr/local/lib/python3.8/dist-packages/trax/fastmath/ops.py" source_line=71}
  %add.3888 = u32[2]{0} add(u32[2]{0} %add.3889, u32[2]{0} %xor.303), metadata={op_type="add" op_name="scan/while/body/add" source_file="/usr/local/lib/python3.8/dist-packages/trax/fastmath/ops.py" source_line=71}
  %slice.1195 = u32[1]{0} slice(u32[4]{0} %param_1.57), slice={[1:2]}, metadata={op_type="slice" op_name="scan/while/body/slice[ limit_indices=(2,)\n                       start_indices=(1,)\n                       strides=(1,) ]" source_file="/usr/local/lib/python3.8/dist-packages/trax/fastmath/ops.py" source_line=71}
  %reshape.2816 = u32[] reshape(u32[1]{0} %slice.1195), metadata={op_type="squeeze" op_name="scan/while/body/squeeze[ dimensions=(0,) ]" source_file="/usr/local/lib/python3.8/dist-packages/trax/fastmath/ops.py" source_line=71}
  %broadcast.1631 = u32[2]{0} broadcast(u32[] %reshape.2816), dimensions={}, metadata={op_type="shift_left" op_name="scan/while/body/shift_left" source_file="/usr/local/lib/python3.8/dist-packages/trax/fastmath/ops.py" source_line=71}
  %shift-left.112 = u32[2]{0} shift-left(u32[2]{0} %xor.303, u32[2]{0} %broadcast.1631), metadata={op_type="shift_left" op_name="scan/while/body/shift_left" source_file="/usr/local/lib/python3.8/dist-packages/trax/fastmath/ops.py" source_line=71}
  %subtract.448 = u32[] subtract(u32[] %constant.20373, u32[] %reshape.2816), metadata={op_type="sub" op_name="scan/while/body/sub" source_file="/usr/local/lib/python3.8/dist-packages/trax/fastmath/ops.py" source_line=71}
  %broadcast.1630 = u32[2]{0} broadcast(u32[] %subtract.448), dimensions={}, metadata={op_type="shift_right_logical" op_name="scan/while/body/shift_right_logical" source_file="/usr/local/lib/python3.8/dist-packages/trax/fastmath/ops.py" source_line=71}
  %shift-right-logical.131 = u32[2]{0} shift-right-logical(u32[2]{0} %xor.303, u32[2]{0} %broadcast.1630), metadata={op_type="shift_right_logical" op_name="scan/while/body/shift_right_logical" source_file="/usr/local/lib/python3.8/dist-packages/trax/fastmath/ops.py" source_line=71}
  %or.115 = u32[2]{0} or(u32[2]{0} %shift-left.112, u32[2]{0} %shift-right-logical.131), metadata={op_type="or" op_name="scan/while/body/or" source_file="/usr/local/lib/python3.8/dist-packages/trax/fastmath/ops.py" source_line=71}
  %xor.302 = u32[2]{0} xor(u32[2]{0} %add.3888, u32[2]{0} %or.115), metadata={op_type="xor" op_name="scan/while/body/xor" source_file="/usr/local/lib/python3.8/dist-packages/trax/fastmath/ops.py" source_line=71}
  %add.3887 = u32[2]{0} add(u32[2]{0} %add.3888, u32[2]{0} %xor.302), metadata={op_type="add" op_name="scan/while/body/add" source_file="/usr/local/lib/python3.8/dist-packages/trax/fastmath/ops.py" source_line=71}
  %slice.1194 = u32[1]{0} slice(u32[4]{0} %param_1.57), slice={[2:3]}, metadata={op_type="slice" op_name="scan/while/body/slice[ limit_indices=(3,)\n                       start_indices=(2,)\n                       strides=(1,) ]" source_file="/usr/local/lib/python3.8/dist-packages/trax/fastmath/ops.py" source_line=71}
  %reshape.2815 = u32[] reshape(u32[1]{0} %slice.1194), metadata={op_type="squeeze" op_name="scan/while/body/squeeze[ dimensions=(0,) ]" source_file="/usr/local/lib/python3.8/dist-packages/trax/fastmath/ops.py" source_line=71}
  %broadcast.1629 = u32[2]{0} broadcast(u32[] %reshape.2815), dimensions={}, metadata={op_type="shift_left" op_name="scan/while/body/shift_left" source_file="/usr/local/lib/python3.8/dist-packages/trax/fastmath/ops.py" source_line=71}
  %shift-left.111 = u32[2]{0} shift-left(u32[2]{0} %xor.302, u32[2]{0} %broadcast.1629), metadata={op_type="shift_left" op_name="scan/while/body/shift_left" source_file="/usr/local/lib/python3.8/dist-packages/trax/fastmath/ops.py" source_line=71}
  %subtract.447 = u32[] subtract(u32[] %constant.20373, u32[] %reshape.2815), metadata={op_type="sub" op_name="scan/while/body/sub" source_file="/usr/local/lib/python3.8/dist-packages/trax/fastmath/ops.py" source_line=71}
  %broadcast.1628 = u32[2]{0} broadcast(u32[] %subtract.447), dimensions={}, metadata={op_type="shift_right_logical" op_name="scan/while/body/shift_right_logical" source_file="/usr/local/lib/python3.8/dist-packages/trax/fastmath/ops.py" source_line=71}
  %shift-right-logical.130 = u32[2]{0} shift-right-logical(u32[2]{0} %xor.302, u32[2]{0} %broadcast.1628), metadata={op_type="shift_right_logical" op_name="scan/while/body/shift_right_logical" source_file="/usr/local/lib/python3.8/dist-packages/trax/fastmath/ops.py" source_line=71}
  %or.114 = u32[2]{0} or(u32[2]{0} %shift-left.111, u32[2]{0} %shift-right-logical.130), metadata={op_type="or" op_name="scan/while/body/or" source_file="/usr/local/lib/python3.8/dist-packages/trax/fastmath/ops.py" source_line=71}
  %xor.301 = u32[2]{0} xor(u32[2]{0} %add.3887, u32[2]{0} %or.114), metadata={op_type="xor" op_name="scan/while/body/xor" source_file="/usr/local/lib/python3.8/dist-packages/trax/fastmath/ops.py" source_line=71}
  %add.3886 = u32[2]{0} add(u32[2]{0} %add.3887, u32[2]{0} %xor.301), metadata={op_type="add" op_name="scan/while/body/add" source_file="/usr/local/lib/python3.8/dist-packages/trax/fastmath/ops.py" source_line=71}
  %slice.1193 = u32[1]{0} slice(u32[4]{0} %param_1.57), slice={[3:4]}, metadata={op_type="slice" op_name="scan/while/body/slice[ limit_indices=(4,)\n                       start_indices=(3,)\n                       strides=(1,) ]" source_file="/usr/local/lib/python3.8/dist-packages/trax/fastmath/ops.py" source_line=71}
  %reshape.2814 = u32[] reshape(u32[1]{0} %slice.1193), metadata={op_type="squeeze" op_name="scan/while/body/squeeze[ dimensions=(0,) ]" source_file="/usr/local/lib/python3.8/dist-packages/trax/fastmath/ops.py" source_line=71}
  %broadcast.1627 = u32[2]{0} broadcast(u32[] %reshape.2814), dimensions={}, metadata={op_type="shift_left" op_name="scan/while/body/shift_left" source_file="/usr/local/lib/python3.8/dist-packages/trax/fastmath/ops.py" source_line=71}
  %shift-left.110 = u32[2]{0} shift-left(u32[2]{0} %xor.301, u32[2]{0} %broadcast.1627), metadata={op_type="shift_left" op_name="scan/while/body/shift_left" source_file="/usr/local/lib/python3.8/dist-packages/trax/fastmath/ops.py" source_line=71}
  %subtract.446 = u32[] subtract(u32[] %constant.20373, u32[] %reshape.2814), metadata={op_type="sub" op_name="scan/while/body/sub" source_file="/usr/local/lib/python3.8/dist-packages/trax/fastmath/ops.py" source_line=71}
  %broadcast.1626 = u32[2]{0} broadcast(u32[] %subtract.446), dimensions={}, metadata={op_type="shift_right_logical" op_name="scan/while/body/shift_right_logical" source_file="/usr/local/lib/python3.8/dist-packages/trax/fastmath/ops.py" source_line=71}
  %shift-right-logical.129 = u32[2]{0} shift-right-logical(u32[2]{0} %xor.301, u32[2]{0} %broadcast.1626), metadata={op_type="shift_right_logical" op_name="scan/while/body/shift_right_logical" source_file="/usr/local/lib/python3.8/dist-packages/trax/fastmath/ops.py" source_line=71}
  %or.113 = u32[2]{0} or(u32[2]{0} %shift-left.110, u32[2]{0} %shift-right-logical.129), metadata={op_type="or" op_name="scan/while/body/or" source_file="/usr/local/lib/python3.8/dist-packages/trax/fastmath/ops.py" source_line=71}
  %xor.300 = u32[2]{0} xor(u32[2]{0} %add.3886, u32[2]{0} %or.113), metadata={op_type="xor" op_name="scan/while/body/xor" source_file="/usr/local/lib/python3.8/dist-packages/trax/fastmath/ops.py" source_line=71}
  %param_0.28 = u32[] parameter(0)
  %broadcast.1625 = u32[2]{0} broadcast(u32[] %param_0.28), dimensions={}, metadata={op_type="add" op_name="scan/while/body/add" source_file="/usr/local/lib/python3.8/dist-packages/trax/fastmath/ops.py" source_line=71}
  %add.3885 = u32[2]{0} add(u32[2]{0} %xor.300, u32[2]{0} %broadcast.1625), metadata={op_type="add" op_name="scan/while/body/add" source_file="/usr/local/lib/python3.8/dist-packages/trax/fastmath/ops.py" source_line=71}
  %param_4.84 = s32[] parameter(4)
  %constant.20374 = s32[] constant(1), metadata={op_type="add" op_name="scan/while/body/add" source_file="/usr/local/lib/python3.8/dist-packages/trax/fastmath/ops.py" source_line=71}
  %add.3890 = s32[] add(s32[] %param_4.84, s32[] %constant.20374), metadata={op_type="add" op_name="scan/while/body/add" source_file="/usr/local/lib/python3.8/dist-packages/trax/optimizers/trainer.py" source_line=248}
  %convert.68 = u32[] convert(s32[] %add.3890), metadata={op_type="convert_element_type" op_name="scan/while/body/convert_element_type[ new_dtype=uint32\n                                      weak_type=False ]" source_file="/usr/local/lib/python3.8/dist-packages/trax/fastmath/ops.py" source_line=71}
  %broadcast.1624 = u32[2]{0} broadcast(u32[] %convert.68), dimensions={}, metadata={op_type="add" op_name="scan/while/body/add" source_file="/usr/local/lib/python3.8/dist-packages/trax/fastmath/ops.py" source_line=71}
  ROOT %add.3884 = u32[2]{0} add(u32[2]{0} %add.3885, u32[2]{0} %broadcast.1624), metadata={op_type="add" op_name="scan/while/body/add" source_file="/usr/local/lib/python3.8/dist-packages/trax/fastmath/ops.py" source_line=71}
}

%fused_computation.11 (param_0.30: u32[], param_1.63: u32[4], param_2.60: u32[2], param_3.63: u32[2]) -> u32[2] {
  %param_3.63 = u32[2]{0} parameter(3)
  %param_2.60 = u32[2]{0} parameter(2)
  %add.3895 = u32[2]{0} add(u32[2]{0} %param_3.63, u32[2]{0} %param_2.60), metadata={op_type="add" op_name="scan/while/body/add" source_file="/usr/local/lib/python3.8/dist-packages/trax/fastmath/ops.py" source_line=71}
  %param_1.63 = u32[4]{0} parameter(1)
  %slice.1199 = u32[1]{0} slice(u32[4]{0} %param_1.63), slice={[0:1]}, metadata={op_type="slice" op_name="scan/while/body/slice[ limit_indices=(1,)\n                       start_indices=(0,)\n                       strides=(1,) ]" source_file="/usr/local/lib/python3.8/dist-packages/trax/fastmath/ops.py" source_line=71}
  %reshape.2820 = u32[] reshape(u32[1]{0} %slice.1199), metadata={op_type="squeeze" op_name="scan/while/body/squeeze[ dimensions=(0,) ]" source_file="/usr/local/lib/python3.8/dist-packages/trax/fastmath/ops.py" source_line=71}
  %broadcast.1641 = u32[2]{0} broadcast(u32[] %reshape.2820), dimensions={}, metadata={op_type="shift_left" op_name="scan/while/body/shift_left" source_file="/usr/local/lib/python3.8/dist-packages/trax/fastmath/ops.py" source_line=71}
  %shift-left.116 = u32[2]{0} shift-left(u32[2]{0} %param_2.60, u32[2]{0} %broadcast.1641), metadata={op_type="shift_left" op_name="scan/while/body/shift_left" source_file="/usr/local/lib/python3.8/dist-packages/trax/fastmath/ops.py" source_line=71}
  %constant.20375 = u32[] constant(32), metadata={op_type="sub" op_name="scan/while/body/sub" source_file="/usr/local/lib/python3.8/dist-packages/trax/fastmath/ops.py" source_line=71}
  %subtract.452 = u32[] subtract(u32[] %constant.20375, u32[] %reshape.2820), metadata={op_type="sub" op_name="scan/while/body/sub" source_file="/usr/local/lib/python3.8/dist-packages/trax/fastmath/ops.py" source_line=71}
  %broadcast.1640 = u32[2]{0} broadcast(u32[] %subtract.452), dimensions={}, metadata={op_type="shift_right_logical" op_name="scan/while/body/shift_right_logical" source_file="/usr/local/lib/python3.8/dist-packages/trax/fastmath/ops.py" source_line=71}
  %shift-right-logical.135 = u32[2]{0} shift-right-logical(u32[2]{0} %param_2.60, u32[2]{0} %broadcast.1640), metadata={op_type="shift_right_logical" op_name="scan/while/body/shift_right_logical" source_file="/usr/local/lib/python3.8/dist-packages/trax/fastmath/ops.py" source_line=71}
  %or.119 = u32[2]{0} or(u32[2]{0} %shift-left.116, u32[2]{0} %shift-right-logical.135), metadata={op_type="or" op_name="scan/while/body/or" source_file="/usr/local/lib/python3.8/dist-packages/trax/fastmath/ops.py" source_line=71}
  %xor.306 = u32[2]{0} xor(u32[2]{0} %add.3895, u32[2]{0} %or.119), metadata={op_type="xor" op_name="scan/while/body/xor" source_file="/usr/local/lib/python3.8/dist-packages/trax/fastmath/ops.py" source_line=71}
  %add.3894 = u32[2]{0} add(u32[2]{0} %add.3895, u32[2]{0} %xor.306), metadata={op_type="add" op_name="scan/while/body/add" source_file="/usr/local/lib/python3.8/dist-packages/trax/fastmath/ops.py" source_line=71}
  %slice.1198 = u32[1]{0} slice(u32[4]{0} %param_1.63), slice={[1:2]}, metadata={op_type="slice" op_name="scan/while/body/slice[ limit_indices=(2,)\n                       start_indices=(1,)\n                       strides=(1,) ]" source_file="/usr/local/lib/python3.8/dist-packages/trax/fastmath/ops.py" source_line=71}
  %reshape.2819 = u32[] reshape(u32[1]{0} %slice.1198), metadata={op_type="squeeze" op_name="scan/while/body/squeeze[ dimensions=(0,) ]" source_file="/usr/local/lib/python3.8/dist-packages/trax/fastmath/ops.py" source_line=71}
  %broadcast.1639 = u32[2]{0} broadcast(u32[] %reshape.2819), dimensions={}, metadata={op_type="shift_left" op_name="scan/while/body/shift_left" source_file="/usr/local/lib/python3.8/dist-packages/trax/fastmath/ops.py" source_line=71}
  %shift-left.115 = u32[2]{0} shift-left(u32[2]{0} %xor.306, u32[2]{0} %broadcast.1639), metadata={op_type="shift_left" op_name="scan/while/body/shift_left" source_file="/usr/local/lib/python3.8/dist-packages/trax/fastmath/ops.py" source_line=71}
  %subtract.451 = u32[] subtract(u32[] %constant.20375, u32[] %reshape.2819), metadata={op_type="sub" op_name="scan/while/body/sub" source_file="/usr/local/lib/python3.8/dist-packages/trax/fastmath/ops.py" source_line=71}
  %broadcast.1638 = u32[2]{0} broadcast(u32[] %subtract.451), dimensions={}, metadata={op_type="shift_right_logical" op_name="scan/while/body/shift_right_logical" source_file="/usr/local/lib/python3.8/dist-packages/trax/fastmath/ops.py" source_line=71}
  %shift-right-logical.134 = u32[2]{0} shift-right-logical(u32[2]{0} %xor.306, u32[2]{0} %broadcast.1638), metadata={op_type="shift_right_logical" op_name="scan/while/body/shift_right_logical" source_file="/usr/local/lib/python3.8/dist-packages/trax/fastmath/ops.py" source_line=71}
  %or.118 = u32[2]{0} or(u32[2]{0} %shift-left.115, u32[2]{0} %shift-right-logical.134), metadata={op_type="or" op_name="scan/while/body/or" source_file="/usr/local/lib/python3.8/dist-packages/trax/fastmath/ops.py" source_line=71}
  %xor.305 = u32[2]{0} xor(u32[2]{0} %add.3894, u32[2]{0} %or.118), metadata={op_type="xor" op_name="scan/while/body/xor" source_file="/usr/local/lib/python3.8/dist-packages/trax/fastmath/ops.py" source_line=71}
  %add.3893 = u32[2]{0} add(u32[2]{0} %add.3894, u32[2]{0} %xor.305), metadata={op_type="add" op_name="scan/while/body/add" source_file="/usr/local/lib/python3.8/dist-packages/trax/fastmath/ops.py" source_line=71}
  %slice.1197 = u32[1]{0} slice(u32[4]{0} %param_1.63), slice={[2:3]}, metadata={op_type="slice" op_name="scan/while/body/slice[ limit_indices=(3,)\n                       start_indices=(2,)\n                       strides=(1,) ]" source_file="/usr/local/lib/python3.8/dist-packages/trax/fastmath/ops.py" source_line=71}
  %reshape.2818 = u32[] reshape(u32[1]{0} %slice.1197), metadata={op_type="squeeze" op_name="scan/while/body/squeeze[ dimensions=(0,) ]" source_file="/usr/local/lib/python3.8/dist-packages/trax/fastmath/ops.py" source_line=71}
  %broadcast.1636 = u32[2]{0} broadcast(u32[] %reshape.2818), dimensions={}, metadata={op_type="shift_left" op_name="scan/while/body/shift_left" source_file="/usr/local/lib/python3.8/dist-packages/trax/fastmath/ops.py" source_line=71}
  %shift-left.114 = u32[2]{0} shift-left(u32[2]{0} %xor.305, u32[2]{0} %broadcast.1636), metadata={op_type="shift_left" op_name="scan/while/body/shift_left" source_file="/usr/local/lib/python3.8/dist-packages/trax/fastmath/ops.py" source_line=71}
  %subtract.450 = u32[] subtract(u32[] %constant.20375, u32[] %reshape.2818), metadata={op_type="sub" op_name="scan/while/body/sub" source_file="/usr/local/lib/python3.8/dist-packages/trax/fastmath/ops.py" source_line=71}
  %broadcast.1635 = u32[2]{0} broadcast(u32[] %subtract.450), dimensions={}, metadata={op_type="shift_right_logical" op_name="scan/while/body/shift_right_logical" source_file="/usr/local/lib/python3.8/dist-packages/trax/fastmath/ops.py" source_line=71}
  %shift-right-logical.133 = u32[2]{0} shift-right-logical(u32[2]{0} %xor.305, u32[2]{0} %broadcast.1635), metadata={op_type="shift_right_logical" op_name="scan/while/body/shift_right_logical" source_file="/usr/local/lib/python3.8/dist-packages/trax/fastmath/ops.py" source_line=71}
  %or.117 = u32[2]{0} or(u32[2]{0} %shift-left.114, u32[2]{0} %shift-right-logical.133), metadata={op_type="or" op_name="scan/while/body/or" source_file="/usr/local/lib/python3.8/dist-packages/trax/fastmath/ops.py" source_line=71}
  %xor.304 = u32[2]{0} xor(u32[2]{0} %add.3893, u32[2]{0} %or.117), metadata={op_type="xor" op_name="scan/while/body/xor" source_file="/usr/local/lib/python3.8/dist-packages/trax/fastmath/ops.py" source_line=71}
  %add.3892 = u32[2]{0} add(u32[2]{0} %add.3893, u32[2]{0} %xor.304), metadata={op_type="add" op_name="scan/while/body/add" source_file="/usr/local/lib/python3.8/dist-packages/trax/fastmath/ops.py" source_line=71}
  %param_0.30 = u32[] parameter(0)
  %broadcast.1634 = u32[2]{0} broadcast(u32[] %param_0.30), dimensions={}, metadata={op_type="add" op_name="scan/while/body/add" source_file="/usr/local/lib/python3.8/dist-packages/trax/fastmath/ops.py" source_line=71}
  ROOT %add.3891 = u32[2]{0} add(u32[2]{0} %add.3892, u32[2]{0} %broadcast.1634), metadata={op_type="add" op_name="scan/while/body/add" source_file="/usr/local/lib/python3.8/dist-packages/trax/fastmath/ops.py" source_line=71}
}

%body_computation__166.6495.clone.clone.clone (parameter.28: (s32[], u32[2], u32[2], u32[], u32[], /*index=5*/u32[], u32[4], u32[4])) -> (s32[], u32[2], u32[2], u32[], u32[], /*index=5*/u32[], u32[4], u32[4]) {
  %parameter.28 = (s32[], u32[2]{0}, u32[2]{0}, u32[], u32[], /*index=5*/u32[], u32[4]{0}, u32[4]{0}) parameter(0)
  %get-tuple-element.27130 = s32[] get-tuple-element((s32[], u32[2]{0}, u32[2]{0}, u32[], u32[], /*index=5*/u32[], u32[4]{0}, u32[4]{0}) %parameter.28), index=0
  %copy.493 = s32[] copy(s32[] %get-tuple-element.27130)
  %constant.10308 = s32[] constant(1), metadata={op_type="add" op_name="scan/while/body/add" source_file="/usr/local/lib/python3.8/dist-packages/trax/fastmath/ops.py" source_line=71}
  %add.1364 = s32[] add(s32[] %copy.493, s32[] %constant.10308), metadata={op_type="add" op_name="scan/while/body/add" source_file="/usr/local/lib/python3.8/dist-packages/trax/optimizers/trainer.py" source_line=248}
  %get-tuple-element.27133 = u32[] get-tuple-element((s32[], u32[2]{0}, u32[2]{0}, u32[], u32[], /*index=5*/u32[], u32[4]{0}, u32[4]{0}) %parameter.28), index=3
  %copy.496 = u32[] copy(u32[] %get-tuple-element.27133)
  %get-tuple-element.27136 = u32[4]{0} get-tuple-element((s32[], u32[2]{0}, u32[2]{0}, u32[], u32[], /*index=5*/u32[], u32[4]{0}, u32[4]{0}) %parameter.28), index=6
  %copy.499 = u32[4]{0} copy(u32[4]{0} %get-tuple-element.27136)
  %get-tuple-element.27132 = u32[2]{0} get-tuple-element((s32[], u32[2]{0}, u32[2]{0}, u32[], u32[], /*index=5*/u32[], u32[4]{0}, u32[4]{0}) %parameter.28), index=2
  %copy.495 = u32[2]{0} copy(u32[2]{0} %get-tuple-element.27132)
  %get-tuple-element.27131 = u32[2]{0} get-tuple-element((s32[], u32[2]{0}, u32[2]{0}, u32[], u32[], /*index=5*/u32[], u32[4]{0}, u32[4]{0}) %parameter.28), index=1
  %copy.494 = u32[2]{0} copy(u32[2]{0} %get-tuple-element.27131)
  %fusion.11 = u32[2]{0} fusion(u32[] %copy.496, u32[4]{0} %copy.499, u32[2]{0} %copy.495, u32[2]{0} %copy.494), kind=kLoop, calls=%fused_computation.11, metadata={op_type="add" op_name="scan/while/body/add" source_file="/usr/local/lib/python3.8/dist-packages/trax/fastmath/ops.py" source_line=71}
  %get-tuple-element.27134 = u32[] get-tuple-element((s32[], u32[2]{0}, u32[2]{0}, u32[], u32[], /*index=5*/u32[], u32[4]{0}, u32[4]{0}) %parameter.28), index=4
  %copy.497 = u32[] copy(u32[] %get-tuple-element.27134)
  %fusion.10 = u32[2]{0} fusion(u32[] %copy.497, u32[4]{0} %copy.499, u32[2]{0} %copy.495, u32[2]{0} %copy.494, s32[] %copy.493), kind=kLoop, calls=%fused_computation.10, metadata={op_type="add" op_name="scan/while/body/add" source_file="/usr/local/lib/python3.8/dist-packages/trax/fastmath/ops.py" source_line=71}
  %copy.504 = u32[] copy(u32[] %copy.497), control-predecessors={%copy.496}
  %get-tuple-element.27135 = u32[] get-tuple-element((s32[], u32[2]{0}, u32[2]{0}, u32[], u32[], /*index=5*/u32[], u32[4]{0}, u32[4]{0}) %parameter.28), index=5
  %copy.498 = u32[] copy(u32[] %get-tuple-element.27135)
  %copy.505 = u32[] copy(u32[] %copy.498), control-predecessors={%copy.497}
  %copy.506 = u32[] copy(u32[] %copy.496), control-predecessors={%copy.498}
  %get-tuple-element.27137 = u32[4]{0} get-tuple-element((s32[], u32[2]{0}, u32[2]{0}, u32[], u32[], /*index=5*/u32[], u32[4]{0}, u32[4]{0}) %parameter.28), index=7
  %copy.500 = u32[4]{0} copy(u32[4]{0} %get-tuple-element.27137)
  %copy.507 = u32[4]{0} copy(u32[4]{0} %copy.500), control-predecessors={%copy.499}
  %copy.508 = u32[4]{0} copy(u32[4]{0} %copy.499), control-predecessors={%copy.500}
  ROOT %tuple.1291 = (s32[], u32[2]{0}, u32[2]{0}, u32[], u32[], /*index=5*/u32[], u32[4]{0}, u32[4]{0}) tuple(s32[] %add.1364, u32[2]{0} %fusion.11, u32[2]{0} %fusion.10, u32[] %copy.504, u32[] %copy.505, /*index=5*/u32[] %copy.506, u32[4]{0} %copy.507, u32[4]{0} %copy.508)
}

%cond_computation__166.6565.clone.clone (parameter.29: (s32[], u32[2], u32[2], u32[], u32[], /*index=5*/u32[], u32[4], u32[4])) -> pred[] {
  %parameter.29 = (s32[], u32[2]{0}, u32[2]{0}, u32[], u32[], /*index=5*/u32[], u32[4]{0}, u32[4]{0}) parameter(0)
  %get-tuple-element.15161 = s32[] get-tuple-element((s32[], u32[2]{0}, u32[2]{0}, u32[], u32[], /*index=5*/u32[], u32[4]{0}, u32[4]{0}) %parameter.29), index=0
  %constant.10312 = s32[] constant(5), metadata={op_type="lt" op_name="scan/while/cond/lt" source_file="/usr/local/lib/python3.8/dist-packages/trax/optimizers/trainer.py" source_line=248}
  ROOT %compare.1603 = pred[] compare(s32[] %get-tuple-element.15161, s32[] %constant.10312), direction=LT, metadata={op_type="lt" op_name="scan/while/cond/lt" source_file="/usr/local/lib/python3.8/dist-packages/trax/optimizers/trainer.py" source_line=248}
}

%fused_computation.12 (param_0.33: u32[], param_1.69: u32[4], param_2.67: u32[2], param_3.71: u32[2], param_4.113: s32[]) -> u32[2] {
  %param_3.71 = u32[2]{0} parameter(3)
  %param_2.67 = u32[2]{0} parameter(2)
  %add.3901 = u32[2]{0} add(u32[2]{0} %param_3.71, u32[2]{0} %param_2.67), metadata={op_type="add" op_name="scan/while/body/add" source_file="/usr/local/lib/python3.8/dist-packages/trax/fastmath/ops.py" source_line=71}
  %param_1.69 = u32[4]{0} parameter(1)
  %slice.1203 = u32[1]{0} slice(u32[4]{0} %param_1.69), slice={[0:1]}, metadata={op_type="slice" op_name="scan/while/body/slice[ limit_indices=(1,)\n                       start_indices=(0,)\n                       strides=(1,) ]" source_file="/usr/local/lib/python3.8/dist-packages/trax/fastmath/ops.py" source_line=71}
  %reshape.2824 = u32[] reshape(u32[1]{0} %slice.1203), metadata={op_type="squeeze" op_name="scan/while/body/squeeze[ dimensions=(0,) ]" source_file="/usr/local/lib/python3.8/dist-packages/trax/fastmath/ops.py" source_line=71}
  %broadcast.1651 = u32[2]{0} broadcast(u32[] %reshape.2824), dimensions={}, metadata={op_type="shift_left" op_name="scan/while/body/shift_left" source_file="/usr/local/lib/python3.8/dist-packages/trax/fastmath/ops.py" source_line=71}
  %shift-left.120 = u32[2]{0} shift-left(u32[2]{0} %param_2.67, u32[2]{0} %broadcast.1651), metadata={op_type="shift_left" op_name="scan/while/body/shift_left" source_file="/usr/local/lib/python3.8/dist-packages/trax/fastmath/ops.py" source_line=71}
  %constant.20376 = u32[] constant(32), metadata={op_type="sub" op_name="scan/while/body/sub" source_file="/usr/local/lib/python3.8/dist-packages/trax/fastmath/ops.py" source_line=71}
  %subtract.456 = u32[] subtract(u32[] %constant.20376, u32[] %reshape.2824), metadata={op_type="sub" op_name="scan/while/body/sub" source_file="/usr/local/lib/python3.8/dist-packages/trax/fastmath/ops.py" source_line=71}
  %broadcast.1650 = u32[2]{0} broadcast(u32[] %subtract.456), dimensions={}, metadata={op_type="shift_right_logical" op_name="scan/while/body/shift_right_logical" source_file="/usr/local/lib/python3.8/dist-packages/trax/fastmath/ops.py" source_line=71}
  %shift-right-logical.139 = u32[2]{0} shift-right-logical(u32[2]{0} %param_2.67, u32[2]{0} %broadcast.1650), metadata={op_type="shift_right_logical" op_name="scan/while/body/shift_right_logical" source_file="/usr/local/lib/python3.8/dist-packages/trax/fastmath/ops.py" source_line=71}
  %or.123 = u32[2]{0} or(u32[2]{0} %shift-left.120, u32[2]{0} %shift-right-logical.139), metadata={op_type="or" op_name="scan/while/body/or" source_file="/usr/local/lib/python3.8/dist-packages/trax/fastmath/ops.py" source_line=71}
  %xor.310 = u32[2]{0} xor(u32[2]{0} %add.3901, u32[2]{0} %or.123), metadata={op_type="xor" op_name="scan/while/body/xor" source_file="/usr/local/lib/python3.8/dist-packages/trax/fastmath/ops.py" source_line=71}
  %add.3900 = u32[2]{0} add(u32[2]{0} %add.3901, u32[2]{0} %xor.310), metadata={op_type="add" op_name="scan/while/body/add" source_file="/usr/local/lib/python3.8/dist-packages/trax/fastmath/ops.py" source_line=71}
  %slice.1202 = u32[1]{0} slice(u32[4]{0} %param_1.69), slice={[1:2]}, metadata={op_type="slice" op_name="scan/while/body/slice[ limit_indices=(2,)\n                       start_indices=(1,)\n                       strides=(1,) ]" source_file="/usr/local/lib/python3.8/dist-packages/trax/fastmath/ops.py" source_line=71}
  %reshape.2823 = u32[] reshape(u32[1]{0} %slice.1202), metadata={op_type="squeeze" op_name="scan/while/body/squeeze[ dimensions=(0,) ]" source_file="/usr/local/lib/python3.8/dist-packages/trax/fastmath/ops.py" source_line=71}
  %broadcast.1649 = u32[2]{0} broadcast(u32[] %reshape.2823), dimensions={}, metadata={op_type="shift_left" op_name="scan/while/body/shift_left" source_file="/usr/local/lib/python3.8/dist-packages/trax/fastmath/ops.py" source_line=71}
  %shift-left.119 = u32[2]{0} shift-left(u32[2]{0} %xor.310, u32[2]{0} %broadcast.1649), metadata={op_type="shift_left" op_name="scan/while/body/shift_left" source_file="/usr/local/lib/python3.8/dist-packages/trax/fastmath/ops.py" source_line=71}
  %subtract.455 = u32[] subtract(u32[] %constant.20376, u32[] %reshape.2823), metadata={op_type="sub" op_name="scan/while/body/sub" source_file="/usr/local/lib/python3.8/dist-packages/trax/fastmath/ops.py" source_line=71}
  %broadcast.1648 = u32[2]{0} broadcast(u32[] %subtract.455), dimensions={}, metadata={op_type="shift_right_logical" op_name="scan/while/body/shift_right_logical" source_file="/usr/local/lib/python3.8/dist-packages/trax/fastmath/ops.py" source_line=71}
  %shift-right-logical.138 = u32[2]{0} shift-right-logical(u32[2]{0} %xor.310, u32[2]{0} %broadcast.1648), metadata={op_type="shift_right_logical" op_name="scan/while/body/shift_right_logical" source_file="/usr/local/lib/python3.8/dist-packages/trax/fastmath/ops.py" source_line=71}
  %or.122 = u32[2]{0} or(u32[2]{0} %shift-left.119, u32[2]{0} %shift-right-logical.138), metadata={op_type="or" op_name="scan/while/body/or" source_file="/usr/local/lib/python3.8/dist-packages/trax/fastmath/ops.py" source_line=71}
  %xor.309 = u32[2]{0} xor(u32[2]{0} %add.3900, u32[2]{0} %or.122), metadata={op_type="xor" op_name="scan/while/body/xor" source_file="/usr/local/lib/python3.8/dist-packages/trax/fastmath/ops.py" source_line=71}
  %add.3899 = u32[2]{0} add(u32[2]{0} %add.3900, u32[2]{0} %xor.309), metadata={op_type="add" op_name="scan/while/body/add" source_file="/usr/local/lib/python3.8/dist-packages/trax/fastmath/ops.py" source_line=71}
  %slice.1201 = u32[1]{0} slice(u32[4]{0} %param_1.69), slice={[2:3]}, metadata={op_type="slice" op_name="scan/while/body/slice[ limit_indices=(3,)\n                       start_indices=(2,)\n                       strides=(1,) ]" source_file="/usr/local/lib/python3.8/dist-packages/trax/fastmath/ops.py" source_line=71}
  %reshape.2822 = u32[] reshape(u32[1]{0} %slice.1201), metadata={op_type="squeeze" op_name="scan/while/body/squeeze[ dimensions=(0,) ]" source_file="/usr/local/lib/python3.8/dist-packages/trax/fastmath/ops.py" source_line=71}
  %broadcast.1647 = u32[2]{0} broadcast(u32[] %reshape.2822), dimensions={}, metadata={op_type="shift_left" op_name="scan/while/body/shift_left" source_file="/usr/local/lib/python3.8/dist-packages/trax/fastmath/ops.py" source_line=71}
  %shift-left.118 = u32[2]{0} shift-left(u32[2]{0} %xor.309, u32[2]{0} %broadcast.1647), metadata={op_type="shift_left" op_name="scan/while/body/shift_left" source_file="/usr/local/lib/python3.8/dist-packages/trax/fastmath/ops.py" source_line=71}
  %subtract.454 = u32[] subtract(u32[] %constant.20376, u32[] %reshape.2822), metadata={op_type="sub" op_name="scan/while/body/sub" source_file="/usr/local/lib/python3.8/dist-packages/trax/fastmath/ops.py" source_line=71}
  %broadcast.1646 = u32[2]{0} broadcast(u32[] %subtract.454), dimensions={}, metadata={op_type="shift_right_logical" op_name="scan/while/body/shift_right_logical" source_file="/usr/local/lib/python3.8/dist-packages/trax/fastmath/ops.py" source_line=71}
…
ptimizers/adafactor.py" source_line=133}
  %parameter.153 = f32[4096]{0} parameter(71), parameter_replication={false}
  %fusion.358 = f32[4096]{0} fusion(f32[4096]{0} %reduce.234, f32[4096]{0} %parameter.153, f32[] %fusion.568), kind=kLoop, calls=%fused_computation.358, metadata={op_type="add" op_name="pmap(_multi_device_update_fn)/add" source_file="/usr/local/lib/python3.8/dist-packages/trax/optimizers/adafactor.py" source_line=133}
  %fusion.357 = f32[4096]{0} fusion(f32[4096]{0} %fusion.358, f32[] %parameter.162), kind=kLoop, calls=%fused_computation.357, metadata={op_type="pow" op_name="pmap(_multi_device_update_fn)/pow" source_file="/usr/local/lib/python3.8/dist-packages/trax/optimizers/adafactor.py" source_line=137}
  %call.95 = f32[2048,128]{1,0} call(f32[2048,4096]{1,0} %call.138, f32[] %constant.1), to_apply=%parallel_reduce-window.104
  %reduce-window.209 = f32[2048,4]{1,0} reduce-window(f32[2048,128]{1,0} %call.95, f32[] %constant.1), window={size=1x32 stride=1x32}, to_apply=%primitive_computation_add__1.21246
  %parameter.152 = f32[2048]{0} parameter(70), parameter_replication={false}
  %fusion.360 = f32[2048]{0} fusion(f32[2048,4]{1,0} %reduce-window.209, f32[2048]{0} %parameter.152, f32[] %fusion.568), kind=kLoop, calls=%fused_computation.360, metadata={op_type="add" op_name="pmap(_multi_device_update_fn)/add" source_file="/usr/local/lib/python3.8/dist-packages/trax/optimizers/adafactor.py" source_line=131}
  %reduce-window.105 = f32[64]{0} reduce-window(f32[2048]{0} %fusion.360, f32[] %constant.1), window={size=32 stride=32}, to_apply=%primitive_computation_add__1.21272
  %reduce-window.210 = f32[2]{0} reduce-window(f32[64]{0} %reduce-window.105, f32[] %constant.1), window={size=32 stride=32}, to_apply=%primitive_computation_add__1.21272
  %reduce.233 = f32[] reduce(f32[2]{0} %reduce-window.210, f32[] %constant.1), dimensions={0}, to_apply=%primitive_computation_add__1.21272, metadata={op_type="reduce_sum" op_name="pmap(_multi_device_update_fn)/reduce_sum[ axes=(0,) ]" source_file="/usr/local/lib/python3.8/dist-packages/trax/optimizers/adafactor.py" source_line=135}
  %fusion.359 = f32[2048]{0} fusion(f32[2048]{0} %fusion.360, f32[] %reduce.233, f32[] %parameter.162), kind=kLoop, calls=%fused_computation.359, metadata={op_type="pow" op_name="pmap(_multi_device_update_fn)/pow" source_file="/usr/local/lib/python3.8/dist-packages/trax/optimizers/adafactor.py" source_line=136}
  %call.137 = f32[2048,4096]{1,0} call(f32[4096]{0} %fusion.357, f32[2048,4096]{1,0} %all-reduce.18173, f32[2048]{0} %fusion.359), to_apply=%parallel_fusion.356
  %reduce-window.107 = f32[64,128]{1,0} reduce-window(f32[2048,4096]{1,0} %call.137, f32[] %constant.1), window={size=32x32 stride=32x32}, to_apply=%primitive_computation_add__1.21304
  %reduce-window.212 = f32[2,4]{1,0} reduce-window(f32[64,128]{1,0} %reduce-window.107, f32[] %constant.1), window={size=32x32 stride=32x32}, to_apply=%primitive_computation_add__1.21304
  %fusion.355 = f32[] fusion(f32[] %parameter.160, f32[2,4]{1,0} %reduce-window.212), kind=kLoop, calls=%fused_computation.355, metadata={op_type="div" op_name="pmap(_multi_device_update_fn)/div" source_file="/usr/local/lib/python3.8/dist-packages/trax/optimizers/adafactor.py" source_line=149}
  %call.75 = f32[2048,4096]{1,0} call(f32[2048,4096]{1,0} %parameter.108), to_apply=%parallel_multiply.21228
  %reduce-window.103 = f32[64,128]{1,0} reduce-window(f32[2048,4096]{1,0} %call.75, f32[] %constant.1), window={size=32x32 stride=32x32}, to_apply=%primitive_computation_add__1.21230
  %reduce-window.208 = f32[2,4]{1,0} reduce-window(f32[64,128]{1,0} %reduce-window.103, f32[] %constant.1), window={size=32x32 stride=32x32}, to_apply=%primitive_computation_add__1.21230
  %fusion.362 = f32[] fusion(f32[2,4]{1,0} %reduce-window.208), kind=kLoop, calls=%fused_computation.362, metadata={op_type="sqrt" op_name="pmap(_multi_device_update_fn)/sqrt" source_file="/usr/local/lib/python3.8/dist-packages/trax/optimizers/adafactor.py" source_line=123}
  %call.136 = f32[2048,4096]{1,0} call(f32[] %fusion.355, f32[4096]{0} %fusion.357, f32[2048,4096]{1,0} %all-reduce.18173, f32[2048]{0} %fusion.359, f32[] %parameter.164, /*index=5*/f32[] %fusion.362, f32[] %parameter.163, f32[2048,4096]{1,0} %parameter.108, f32[] %parameter.166, f32[] %fusion.647, /*index=10*/s32[] %parameter.165), to_apply=%parallel_fusion.354
  %parameter.154 = f32[4096]{0} parameter(72), parameter_replication={false}
  %get-tuple-element.25435 = f32[4096]{0} get-tuple-element((f32[64,8,1024]{2,1,0}, f32[64,8,1024]{2,1,0}, f32[64,8,1024]{2,1,0}, f32[64,8,2048]{2,1,0}, f32[64,8,1024]{2,1,0}, /*index=5*/f32[64,8,1024]{2,1,0}, f32[64,8,1024]{2,1,0}, f32[64,8,1024]{2,1,0}, f32[64,8,1024]{2,1,0}, f32[64,8,1024]{2,1,0}, /*index=10*/f32[64,8,1024]{2,1,0}, f32[64,8,1024]{2,1,0}, f32[64,8,1024]{2,1,0}, f32[2048,4096]{1,0}, s32[], /*index=15*/f32[2048,4096]{1,0}, f32[4096]{0}, f32[8,2048]{1,0}, f32[64,8,1024]{2,1,0}) %while.202), index=16, metadata={op_type="while" op_name="pmap(_multi_device_update_fn)/scan/while[ body_nconsts=14\n                                          cond_nconsts=0 ]" source_file="/usr/local/lib/python3.8/dist-packages/trax/optimizers/trainer.py" source_line=248}
  %all-reduce.18178 = f32[4096]{0} all-reduce(f32[4096]{0} %get-tuple-element.25435), replica_groups={{0,1,2,3,4,5,6,7,8,9,10,11,12,13,14,15}}, to_apply=%primitive_computation_add__1.18174, metadata={op_type="psum" op_name="pmap(_multi_device_update_fn)/psum[ axes=(\'batch\',)\n                                    axis_index_groups=None ]" source_file="/usr/local/lib/python3.8/dist-packages/trax/fastmath/ops.py" source_line=347}
  %fusion.351 = f32[4096]{0} fusion(f32[4096]{0} %parameter.154, f32[4096]{0} %all-reduce.18178, f32[] %fusion.568), kind=kLoop, calls=%fused_computation.351, metadata={op_type="add" op_name="pmap(_multi_device_update_fn)/add" source_file="/usr/local/lib/python3.8/dist-packages/trax/optimizers/adafactor.py" source_line=143}
  %fusion.350 = f32[4096]{0} fusion(f32[4096]{0} %fusion.351, f32[4096]{0} %all-reduce.18178, f32[] %parameter.162), kind=kLoop, calls=%fused_computation.350, metadata={op_type="mul" op_name="pmap(_multi_device_update_fn)/mul" source_file="/usr/local/lib/python3.8/dist-packages/trax/optimizers/adafactor.py" source_line=145}
  %multiply.21380 = f32[4096]{0} multiply(f32[4096]{0} %fusion.350, f32[4096]{0} %fusion.350), metadata={op_type="mul" op_name="pmap(_multi_device_update_fn)/mul" source_file="/usr/local/lib/python3.8/dist-packages/trax/optimizers/adafactor.py" source_line=149}
  %reduce-window.109 = f32[128]{0} reduce-window(f32[4096]{0} %multiply.21380, f32[] %constant.1), window={size=32 stride=32}, to_apply=%primitive_computation_add__1.21382
  %reduce-window.214 = f32[4]{0} reduce-window(f32[128]{0} %reduce-window.109, f32[] %constant.1), window={size=32 stride=32}, to_apply=%primitive_computation_add__1.21382
  %fusion.349 = f32[] fusion(f32[] %parameter.160, f32[4]{0} %reduce-window.214), kind=kLoop, calls=%fused_computation.349, metadata={op_type="div" op_name="pmap(_multi_device_update_fn)/div" source_file="/usr/local/lib/python3.8/dist-packages/trax/optimizers/adafactor.py" source_line=149}
  %multiply.21354 = f32[4096]{0} multiply(f32[4096]{0} %parameter.109, f32[4096]{0} %parameter.109), metadata={op_type="mul" op_name="pmap(_multi_device_update_fn)/mul" source_file="/usr/local/lib/python3.8/dist-packages/trax/optimizers/adafactor.py" source_line=123}
  %reduce-window.108 = f32[128]{0} reduce-window(f32[4096]{0} %multiply.21354, f32[] %constant.1), window={size=32 stride=32}, to_apply=%primitive_computation_add__1.21356
  %reduce-window.213 = f32[4]{0} reduce-window(f32[128]{0} %reduce-window.108, f32[] %constant.1), window={size=32 stride=32}, to_apply=%primitive_computation_add__1.21356
  %fusion.353 = f32[] fusion(f32[4]{0} %reduce-window.213), kind=kLoop, calls=%fused_computation.353, metadata={op_type="sqrt" op_name="pmap(_multi_device_update_fn)/sqrt" source_file="/usr/local/lib/python3.8/dist-packages/trax/optimizers/adafactor.py" source_line=123}
  %fusion.348 = f32[4096]{0} fusion(f32[4096]{0} %fusion.350, f32[] %fusion.349, f32[] %parameter.164, f32[] %fusion.353, f32[] %parameter.163, /*index=5*/f32[4096]{0} %parameter.109, f32[] %parameter.166, f32[] %fusion.647, s32[] %parameter.165), kind=kLoop, calls=%fused_computation.348, metadata={op_type="sub" op_name="pmap(_multi_device_update_fn)/sub" source_file="/usr/local/lib/python3.8/dist-packages/trax/optimizers/adafactor.py" source_line=160}
  %call.135 = f32[256,512]{1,0} call(f32[8,64,256]{2,1,0} %call.194), to_apply=%parallel_fusion.346
  %dot.34 = f32[1024,256]{1,0} dot(f32[512,1024]{1,0} %call.200, f32[256,512]{1,0} %call.135), lhs_contracting_dims={0}, rhs_contracting_dims={1}, metadata={op_type="transpose" op_name="pmap(_multi_device_update_fn)/transpose[ permutation=(1, 0) ]" source_file="/usr/local/lib/python3.8/dist-packages/trax/layers/core.py" source_line=96}
  %all-reduce.18183 = f32[1024,256]{1,0} all-reduce(f32[1024,256]{1,0} %dot.34), replica_groups={{0,1,2,3,4,5,6,7,8,9,10,11,12,13,14,15}}, to_apply=%primitive_computation_add__1.18179, metadata={op_type="psum" op_name="pmap(_multi_device_update_fn)/psum[ axes=(\'batch\',)\n                                    axis_index_groups=None ]" source_file="/usr/local/lib/python3.8/dist-packages/trax/fastmath/ops.py" source_line=347}
  %call.134 = f32[1024,256]{1,0} call(f32[1024,256]{1,0} %all-reduce.18183), to_apply=%parallel_fusion.345
  %reduce-window.113 = f32[32,256]{1,0} reduce-window(f32[1024,256]{1,0} %call.134, f32[] %constant.1), window={size=32x1 stride=32x1}, to_apply=%primitive_computation_add__1.21464
  %reduce-window.216 = f32[1,256]{1,0} reduce-window(f32[32,256]{1,0} %reduce-window.113, f32[] %constant.1), window={size=32x1 stride=32x1}, to_apply=%primitive_computation_add__1.21464
  %parameter.156 = f32[256]{0} parameter(74), parameter_replication={false}
  %fusion.342 = f32[256]{0} fusion(f32[1,256]{1,0} %reduce-window.216, f32[256]{0} %parameter.156, f32[] %fusion.568), kind=kLoop, calls=%fused_computation.342, metadata={op_type="add" op_name="pmap(_multi_device_update_fn)/add" source_file="/usr/local/lib/python3.8/dist-packages/trax/optimizers/adafactor.py" source_line=133}
  %fusion.341 = f32[256]{0} fusion(f32[256]{0} %fusion.342, f32[] %parameter.162), kind=kLoop, calls=%fused_computation.341, metadata={op_type="pow" op_name="pmap(_multi_device_update_fn)/pow" source_file="/usr/local/lib/python3.8/dist-packages/trax/optimizers/adafactor.py" source_line=137}
  %reduce-window.111 = f32[1024,8]{1,0} reduce-window(f32[1024,256]{1,0} %call.134, f32[] %constant.1), window={size=1x32 stride=1x32}, to_apply=%primitive_computation_add__1.21450
  %parameter.155 = f32[1024]{0} parameter(73), parameter_replication={false}
  %fusion.344 = f32[1024]{0} fusion(f32[1024,8]{1,0} %reduce-window.111, f32[1024]{0} %parameter.155, f32[] %fusion.568), kind=kLoop, calls=%fused_computation.344, metadata={op_type="add" op_name="pmap(_multi_device_update_fn)/add" source_file="/usr/local/lib/python3.8/dist-packages/trax/optimizers/adafactor.py" source_line=131}
  %reduce-window.112 = f32[32]{0} reduce-window(f32[1024]{0} %fusion.344, f32[] %constant.1), window={size=32 stride=32}, to_apply=%primitive_computation_add__1.21476
  %reduce-window.215 = f32[1]{0} reduce-window(f32[32]{0} %reduce-window.112, f32[] %constant.1), window={size=32 stride=32}, to_apply=%primitive_computation_add__1.21476
  %fusion.343 = f32[1024]{0} fusion(f32[1024]{0} %fusion.344, f32[1]{0} %reduce-window.215, f32[] %parameter.162), kind=kLoop, calls=%fused_computation.343, metadata={op_type="pow" op_name="pmap(_multi_device_update_fn)/pow" source_file="/usr/local/lib/python3.8/dist-packages/trax/optimizers/adafactor.py" source_line=136}
  %call.133 = f32[1024,256]{1,0} call(f32[256]{0} %fusion.341, f32[1024,256]{1,0} %all-reduce.18183, f32[1024]{0} %fusion.343), to_apply=%parallel_fusion.340
  %reduce-window.114 = f32[32,8]{1,0} reduce-window(f32[1024,256]{1,0} %call.133, f32[] %constant.1), window={size=32x32 stride=32x32}, to_apply=%primitive_computation_add__1.21508
  %fusion.339 = f32[] fusion(f32[] %parameter.160, f32[32,8]{1,0} %reduce-window.114), kind=kLoop, calls=%fused_computation.339, metadata={op_type="div" op_name="pmap(_multi_device_update_fn)/div" source_file="/usr/local/lib/python3.8/dist-packages/trax/optimizers/adafactor.py" source_line=149}
  %call.76 = f32[1024,256]{1,0} call(f32[1024,256]{1,0} %parameter.110), to_apply=%parallel_multiply.21432
  %reduce-window.110 = f32[32,8]{1,0} reduce-window(f32[1024,256]{1,0} %call.76, f32[] %constant.1), window={size=32x32 stride=32x32}, to_apply=%primitive_computation_add__1.21434
  %fusion.347 = f32[] fusion(f32[32,8]{1,0} %reduce-window.110), kind=kLoop, calls=%fused_computation.347, metadata={op_type="sqrt" op_name="pmap(_multi_device_update_fn)/sqrt" source_file="/usr/local/lib/python3.8/dist-packages/trax/optimizers/adafactor.py" source_line=123}
  %call.132 = f32[1024,256]{1,0} call(f32[] %fusion.339, f32[256]{0} %fusion.341, f32[1024,256]{1,0} %all-reduce.18183, f32[1024]{0} %fusion.343, f32[] %parameter.164, /*index=5*/f32[] %fusion.347, f32[] %parameter.163, f32[1024,256]{1,0} %parameter.110, f32[] %parameter.166, f32[] %fusion.647, /*index=10*/s32[] %parameter.165), to_apply=%parallel_fusion.338
  %parameter.157 = f32[256]{0} parameter(75), parameter_replication={false}
  %reduce.13269 = f32[256]{0} reduce(f32[8,64,256]{2,1,0} %call.194, f32[] %constant.1), dimensions={0,1}, to_apply=%primitive_computation_add__1.13265, metadata={op_type="reduce_sum" op_name="pmap(_multi_device_update_fn)/reduce_sum[ axes=(0, 1) ]" source_file="/usr/local/lib/python3.8/dist-packages/trax/layers/core.py" source_line=96}
  %all-reduce.18188 = f32[256]{0} all-reduce(f32[256]{0} %reduce.13269), replica_groups={{0,1,2,3,4,5,6,7,8,9,10,11,12,13,14,15}}, to_apply=%primitive_computation_add__1.18184, metadata={op_type="psum" op_name="pmap(_multi_device_update_fn)/psum[ axes=(\'batch\',)\n                                    axis_index_groups=None ]" source_file="/usr/local/lib/python3.8/dist-packages/trax/fastmath/ops.py" source_line=347}
  %fusion.335 = f32[256]{0} fusion(f32[256]{0} %parameter.157, f32[256]{0} %all-reduce.18188, f32[] %fusion.568), kind=kLoop, calls=%fused_computation.335, metadata={op_type="add" op_name="pmap(_multi_device_update_fn)/add" source_file="/usr/local/lib/python3.8/dist-packages/trax/optimizers/adafactor.py" source_line=143}
  %fusion.334 = f32[256]{0} fusion(f32[256]{0} %fusion.335, f32[256]{0} %all-reduce.18188, f32[] %parameter.162), kind=kLoop, calls=%fused_computation.334, metadata={op_type="mul" op_name="pmap(_multi_device_update_fn)/mul" source_file="/usr/local/lib/python3.8/dist-packages/trax/optimizers/adafactor.py" source_line=145}
  %multiply.21584 = f32[256]{0} multiply(f32[256]{0} %fusion.334, f32[256]{0} %fusion.334), metadata={op_type="mul" op_name="pmap(_multi_device_update_fn)/mul" source_file="/usr/local/lib/python3.8/dist-packages/trax/optimizers/adafactor.py" source_line=149}
  %reduce-window.116 = f32[8]{0} reduce-window(f32[256]{0} %multiply.21584, f32[] %constant.1), window={size=32 stride=32}, to_apply=%primitive_computation_add__1.21586
  %fusion.333 = f32[] fusion(f32[] %parameter.160, f32[8]{0} %reduce-window.116), kind=kLoop, calls=%fused_computation.333, metadata={op_type="div" op_name="pmap(_multi_device_update_fn)/div" source_file="/usr/local/lib/python3.8/dist-packages/trax/optimizers/adafactor.py" source_line=149}
  %multiply.21558 = f32[256]{0} multiply(f32[256]{0} %parameter.111, f32[256]{0} %parameter.111), metadata={op_type="mul" op_name="pmap(_multi_device_update_fn)/mul" source_file="/usr/local/lib/python3.8/dist-packages/trax/optimizers/adafactor.py" source_line=123}
  %reduce-window.115 = f32[8]{0} reduce-window(f32[256]{0} %multiply.21558, f32[] %constant.1), window={size=32 stride=32}, to_apply=%primitive_computation_add__1.21560
  %fusion.337 = f32[] fusion(f32[8]{0} %reduce-window.115), kind=kLoop, calls=%fused_computation.337, metadata={op_type="sqrt" op_name="pmap(_multi_device_update_fn)/sqrt" source_file="/usr/local/lib/python3.8/dist-packages/trax/optimizers/adafactor.py" source_line=123}
  %fusion.332 = f32[256]{0} fusion(f32[256]{0} %fusion.334, f32[] %fusion.333, f32[] %parameter.164, f32[] %fusion.337, f32[] %parameter.163, /*index=5*/f32[256]{0} %parameter.111, f32[] %parameter.166, f32[] %fusion.647, s32[] %parameter.165), kind=kLoop, calls=%fused_computation.332, metadata={op_type="sub" op_name="pmap(_multi_device_update_fn)/sub" source_file="/usr/local/lib/python3.8/dist-packages/trax/optimizers/adafactor.py" source_line=160}
  %call.131 = f32[32768000]{0} call(f32[32000,1024]{1,0} %all-reduce.18043), to_apply=%parallel_fusion.331
  %dot.18312 = f32[] dot(f32[32768000]{0} %call.131, f32[32768000]{0} %call.131), lhs_contracting_dims={0}, rhs_contracting_dims={0}, metadata={op_type="dot_general" op_name="pmap(_multi_device_update_fn)/dot_general[ dimension_numbers=(((0,), (0,)), ((), ()))\n                                           precision=None\n                                           preferred_element_type=None ]" source_file="/usr/local/lib/python3.8/dist-packages/trax/optimizers/base.py" source_line=183}
  %call.130 = f32[8388608]{0} call(f32[2048,4096]{1,0} %all-reduce.18048), to_apply=%parallel_fusion.330
  %fusion.329 = f32[] fusion(f32[] %dot.18312, f32[8388608]{0} %call.130), kind=kOutput, calls=%fused_computation.329, metadata={op_type="add" op_name="pmap(_multi_device_update_fn)/add" source_file="/usr/local/lib/python3.8/dist-packages/trax/optimizers/base.py" source_line=183}
  %fusion.549 = f32[4096]{0} fusion(f32[4096]{0} %all-reduce.18053), kind=kLoop, calls=%fused_computation.549, metadata={op_type="div" op_name="pmap(_multi_device_update_fn)/div" source_file="/usr/local/lib/python3.8/dist-packages/trax/optimizers/trainer.py" source_line=200}
  %fusion.328 = f32[] fusion(f32[] %fusion.329, f32[4096]{0} %fusion.549), kind=kOutput, calls=%fused_computation.328, metadata={op_type="add" op_name="pmap(_multi_device_update_fn)/add" source_file="/usr/local/lib/python3.8/dist-packages/trax/optimizers/base.py" source_line=183}
  %call.129 = f32[8388608]{0} call(f32[2048,4096]{1,0} %all-reduce.18058), to_apply=%parallel_fusion.327
  %fusion.326 = f32[] fusion(f32[] %fusion.328, f32[8388608]{0} %call.129), kind=kOutput, calls=%fused_computation.326, metadata={op_type="add" op_name="pmap(_multi_device_update_fn)/add" source_file="/usr/local/lib/python3.8/dist-packages/trax/optimizers/base.py" source_line=183}
  %fusion.534 = f32[4096]{0} fusion(f32[4096]{0} %all-reduce.18063), kind=kLoop, calls=%fused_computation.534, metadata={op_type="div" op_name="pmap(_multi_device_update_fn)/div" source_file="/usr/local/lib/python3.8/dist-packages/trax/optimizers/trainer.py" source_line=200}
  %fusion.325 = f32[] fusion(f32[] %fusion.326, f32[4096]{0} %fusion.534), kind=kOutput, calls=%fused_computation.325, metadata={op_type="add" op_name="pmap(_multi_device_update_fn)/add" source_file="/usr/local/lib/python3.8/dist-packages/trax/optimizers/base.py" source_line=183}
  %call.128 = f32[8388608]{0} call(f32[2048,4096]{1,0} %all-reduce.18068), to_apply=%parallel_fusion.324
  %fusion.323 = f32[] fusion(f32[] %fusion.325, f32[8388608]{0} %call.128), kind=kOutput, calls=%fused_computation.323, metadata={op_type="add" op_name="pmap(_multi_device_update_fn)/add" source_file="/usr/local/lib/python3.8/dist-packages/trax/optimizers/base.py" source_line=183}
  %fusion.519 = f32[4096]{0} fusion(f32[4096]{0} %all-reduce.18073), kind=kLoop, calls=%fused_computation.519, metadata={op_type="div" op_name="pmap(_multi_device_update_fn)/div" source_file="/usr/local/lib/python3.8/dist-packages/trax/optimizers/trainer.py" source_line=200}
  %fusion.322 = f32[] fusion(f32[] %fusion.323, f32[4096]{0} %fusion.519), kind=kOutput, calls=%fused_computation.322, metadata={op_type="add" op_name="pmap(_multi_device_update_fn)/add" source_file="/usr/local/lib/python3.8/dist-packages/trax/optimizers/base.py" source_line=183}
  %call.127 = f32[8388608]{0} call(f32[2048,4096]{1,0} %all-reduce.18078), to_apply=%parallel_fusion.321
  %fusion.320 = f32[] fusion(f32[] %fusion.322, f32[8388608]{0} %call.127), kind=kOutput, calls=%fused_computation.320, metadata={op_type="add" op_name="pmap(_multi_device_update_fn)/add" source_file="/usr/local/lib/python3.8/dist-packages/trax/optimizers/base.py" source_line=183}
  %fusion.504 = f32[4096]{0} fusion(f32[4096]{0} %all-reduce.18083), kind=kLoop, calls=%fused_computation.504, metadata={op_type="div" op_name="pmap(_multi_device_update_fn)/div" source_file="/usr/local/lib/python3.8/dist-packages/trax/optimizers/trainer.py" source_line=200}
  %fusion.319 = f32[] fusion(f32[] %fusion.320, f32[4096]{0} %fusion.504), kind=kOutput, calls=%fused_computation.319, metadata={op_type="add" op_name="pmap(_multi_device_update_fn)/add" source_file="/usr/local/lib/python3.8/dist-packages/trax/optimizers/base.py" source_line=183}
  %call.126 = f32[262144]{0} call(f32[256,1024]{1,0} %all-reduce.18088), to_apply=%parallel_fusion.318
  %fusion.317 = f32[] fusion(f32[] %fusion.319, f32[262144]{0} %call.126), kind=kOutput, calls=%fused_computation.317, metadata={op_type="add" op_name="pmap(_multi_device_update_fn)/add" source_file="/usr/local/lib/python3.8/dist-packages/trax/optimizers/base.py" source_line=183}
  %call.125 = f32[8388608]{0} call(f32[2048,4096]{1,0} %all-reduce.18093), to_apply=%parallel_fusion.316
  %fusion.315 = f32[] fusion(f32[] %fusion.317, f32[8388608]{0} %call.125), kind=kOutput, calls=%fused_computation.315, metadata={op_type="add" op_name="pmap(_multi_device_update_fn)/add" source_file="/usr/local/lib/python3.8/dist-packages/trax/optimizers/base.py" source_line=183}
  %fusion.476 = f32[4096]{0} fusion(f32[4096]{0} %all-reduce.18098), kind=kLoop, calls=%fused_computation.476, metadata={op_type="div" op_name="pmap(_multi_device_update_fn)/div" source_file="/usr/local/lib/python3.8/dist-packages/trax/optimizers/trainer.py" source_line=200}
  %fusion.314 = f32[] fusion(f32[] %fusion.315, f32[4096]{0} %fusion.476), kind=kOutput, calls=%fused_computation.314, metadata={op_type="add" op_name="pmap(_multi_device_update_fn)/add" source_file="/usr/local/lib/python3.8/dist-packages/trax/optimizers/base.py" source_line=183}
  %call.124 = f32[1048576]{0} call(f32[1024,1024]{1,0} %all-reduce.18103), to_apply=%parallel_fusion.313
  %fusion.312 = f32[] fusion(f32[] %fusion.314, f32[1048576]{0} %call.124), kind=kOutput, calls=%fused_computation.312, metadata={op_type="add" op_name="pmap(_multi_device_update_fn)/add" source_file="/usr/local/lib/python3.8/dist-packages/trax/optimizers/base.py" source_line=183}
  %fusion.460 = f32[1024]{0} fusion(f32[1024]{0} %all-reduce.18108), kind=kLoop, calls=%fused_computation.460, metadata={op_type="div" op_name="pmap(_multi_device_update_fn)/div" source_file="/usr/local/lib/python3.8/dist-packages/trax/optimizers/trainer.py" source_line=200}
  %fusion.311 = f32[] fusion(f32[] %fusion.312, f32[1024]{0} %fusion.460), kind=kOutput, calls=%fused_computation.311, metadata={op_type="add" op_name="pmap(_multi_device_update_fn)/add" source_file="/usr/local/lib/python3.8/dist-packages/trax/optimizers/base.py" source_line=183}
  %call.123 = f32[1048576]{0} call(f32[1024,1024]{1,0} %all-reduce.18113), to_apply=%parallel_fusion.310
  %fusion.309 = f32[] fusion(f32[] %fusion.311, f32[1048576]{0} %call.123), kind=kOutput, calls=%fused_computation.309, metadata={op_type="add" op_name="pmap(_multi_device_update_fn)/add" source_file="/usr/local/lib/python3.8/dist-packages/trax/optimizers/base.py" source_line=183}
  %fusion.444 = f32[1024]{0} fusion(f32[1024]{0} %all-reduce.18118), kind=kLoop, calls=%fused_computation.444, metadata={op_type="div" op_name="pmap(_multi_device_update_fn)/div" source_file="/usr/local/lib/python3.8/dist-packages/trax/optimizers/trainer.py" source_line=200}
  %fusion.308 = f32[] fusion(f32[] %fusion.309, f32[1024]{0} %fusion.444), kind=kOutput, calls=%fused_computation.308, metadata={op_type="add" op_name="pmap(_multi_device_update_fn)/add" source_file="/usr/local/lib/python3.8/dist-packages/trax/optimizers/base.py" source_line=183}
  %call.122 = f32[1048576]{0} call(f32[1024,1024]{1,0} %all-reduce.18123), to_apply=%parallel_fusion.307
  %fusion.306 = f32[] fusion(f32[] %fusion.308, f32[1048576]{0} %call.122), kind=kOutput, calls=%fused_computation.306, metadata={op_type="add" op_name="pmap(_multi_device_update_fn)/add" source_file="/usr/local/lib/python3.8/dist-packages/trax/optimizers/base.py" source_line=183}
  %fusion.428 = f32[1024]{0} fusion(f32[1024]{0} %all-reduce.18128), kind=kLoop, calls=%fused_computation.428, metadata={op_type="div" op_name="pmap(_multi_device_update_fn)/div" source_file="/usr/local/lib/python3.8/dist-packages/trax/optimizers/trainer.py" source_line=200}
  %fusion.305 = f32[] fusion(f32[] %fusion.306, f32[1024]{0} %fusion.428), kind=kOutput, calls=%fused_computation.305, metadata={op_type="add" op_name="pmap(_multi_device_update_fn)/add" source_file="/usr/local/lib/python3.8/dist-packages/trax/optimizers/base.py" source_line=183}
  %call.121 = f32[1048576]{0} call(f32[1024,1024]{1,0} %all-reduce.18133), to_apply=%parallel_fusion.304
  %fusion.303 = f32[] fusion(f32[] %fusion.305, f32[1048576]{0} %call.121), kind=kOutput, calls=%fused_computation.303, metadata={op_type="add" op_name="pmap(_multi_device_update_fn)/add" source_file="/usr/local/lib/python3.8/dist-packages/trax/optimizers/base.py" source_line=183}
  %fusion.412 = f32[1024]{0} fusion(f32[1024]{0} %all-reduce.18138), kind=kLoop, calls=%fused_computation.412, metadata={op_type="div" op_name="pmap(_multi_device_update_fn)/div" source_file="/usr/local/lib/python3.8/dist-packages/trax/optimizers/trainer.py" source_line=200}
  %fusion.302 = f32[] fusion(f32[] %fusion.303, f32[1024]{0} %fusion.412), kind=kOutput, calls=%fused_computation.302, metadata={op_type="add" op_name="pmap(_multi_device_update_fn)/add" source_file="/usr/local/lib/python3.8/dist-packages/trax/optimizers/base.py" source_line=183}
  %call.120 = f32[8388608]{0} call(f32[2048,4096]{1,0} %all-reduce.18143), to_apply=%parallel_fusion.301
  %fusion.300 = f32[] fusion(f32[] %fusion.302, f32[8388608]{0} %call.120), kind=kOutput, calls=%fused_computation.300, metadata={op_type="add" op_name="pmap(_multi_device_update_fn)/add" source_file="/usr/local/lib/python3.8/dist-packages/trax/optimizers/base.py" source_line=183}
  %fusion.397 = f32[4096]{0} fusion(f32[4096]{0} %all-reduce.18148), kind=kLoop, calls=%fused_computation.397, metadata={op_type="div" op_name="pmap(_multi_device_update_fn)/div" source_file="/usr/local/lib/python3.8/dist-packages/trax/optimizers/trainer.py" source_line=200}
  %fusion.299 = f32[] fusion(f32[] %fusion.300, f32[4096]{0} %fusion.397), kind=kOutput, calls=%fused_computation.299, metadata={op_type="add" op_name="pmap(_multi_device_update_fn)/add" source_file="/usr/local/lib/python3.8/dist-packages/trax/optimizers/base.py" source_line=183}
  %call.119 = f32[8388608]{0} call(f32[2048,4096]{1,0} %all-reduce.18153), to_apply=%parallel_fusion.298
  %fusion.297 = f32[] fusion(f32[] %fusion.299, f32[8388608]{0} %call.119), kind=kOutput, calls=%fused_computation.297, metadata={op_type="add" op_name="pmap(_multi_device_update_fn)/add" source_file="/usr/local/lib/python3.8/dist-packages/trax/optimizers/base.py" source_line=183}
  %fusion.382 = f32[4096]{0} fusion(f32[4096]{0} %all-reduce.18158), kind=kLoop, calls=%fused_computation.382, metadata={op_type="div" op_name="pmap(_multi_device_update_fn)/div" source_file="/usr/local/lib/python3.8/dist-packages/trax/optimizers/trainer.py" source_line=200}
  %fusion.296 = f32[] fusion(f32[] %fusion.297, f32[4096]{0} %fusion.382), kind=kOutput, calls=%fused_computation.296, metadata={op_type="add" op_name="pmap(_multi_device_update_fn)/add" source_file="/usr/local/lib/python3.8/dist-packages/trax/optimizers/base.py" source_line=183}
  %call.118 = f32[8388608]{0} call(f32[2048,4096]{1,0} %all-reduce.18163), to_apply=%parallel_fusion.295
  %fusion.294 = f32[] fusion(f32[] %fusion.296, f32[8388608]{0} %call.118), kind=kOutput, calls=%fused_computation.294, metadata={op_type="add" op_name="pmap(_multi_device_update_fn)/add" source_file="/usr/local/lib/python3.8/dist-packages/trax/optimizers/base.py" source_line=183}
  %fusion.367 = f32[4096]{0} fusion(f32[4096]{0} %all-reduce.18168), kind=kLoop, calls=%fused_computation.367, metadata={op_type="div" op_name="pmap(_multi_device_update_fn)/div" source_file="/usr/local/lib/python3.8/dist-packages/trax/optimizers/trainer.py" source_line=200}
  %fusion.293 = f32[] fusion(f32[] %fusion.294, f32[4096]{0} %fusion.367), kind=kOutput, calls=%fused_computation.293, metadata={op_type="add" op_name="pmap(_multi_device_update_fn)/add" source_file="/usr/local/lib/python3.8/dist-packages/trax/optimizers/base.py" source_line=183}
  %call.117 = f32[8388608]{0} call(f32[2048,4096]{1,0} %all-reduce.18173), to_apply=%parallel_fusion.292
  %fusion.291 = f32[] fusion(f32[] %fusion.293, f32[8388608]{0} %call.117), kind=kOutput, calls=%fused_computation.291, metadata={op_type="add" op_name="pmap(_multi_device_update_fn)/add" source_file="/usr/local/lib/python3.8/dist-packages/trax/optimizers/base.py" source_line=183}
  %fusion.352 = f32[4096]{0} fusion(f32[4096]{0} %all-reduce.18178), kind=kLoop, calls=%fused_computation.352, metadata={op_type="div" op_name="pmap(_multi_device_update_fn)/div" source_file="/usr/local/lib/python3.8/dist-packages/trax/optimizers/trainer.py" source_line=200}
  %fusion.290 = f32[] fusion(f32[] %fusion.291, f32[4096]{0} %fusion.352), kind=kOutput, calls=%fused_computation.290, metadata={op_type="add" op_name="pmap(_multi_device_update_fn)/add" source_file="/usr/local/lib/python3.8/dist-packages/trax/optimizers/base.py" source_line=183}
  %call.116 = f32[262144]{0} call(f32[1024,256]{1,0} %all-reduce.18183), to_apply=%parallel_fusion.289
  %fusion.288 = f32[] fusion(f32[] %fusion.290, f32[262144]{0} %call.116), kind=kOutput, calls=%fused_computation.288, metadata={op_type="add" op_name="pmap(_multi_device_update_fn)/add" source_file="/usr/local/lib/python3.8/dist-packages/trax/optimizers/base.py" source_line=183}
  %fusion.336 = f32[256]{0} fusion(f32[256]{0} %all-reduce.18188), kind=kLoop, calls=%fused_computation.336, metadata={op_type="div" op_name="pmap(_multi_device_update_fn)/div" source_file="/usr/local/lib/python3.8/dist-packages/trax/optimizers/trainer.py" source_line=200}
  %fusion.287 = f32[] fusion(f32[] %fusion.288, f32[256]{0} %fusion.336), kind=kOutput, calls=%fused_computation.287, metadata={op_type="add" op_name="pmap(_multi_device_update_fn)/add" source_file="/usr/local/lib/python3.8/dist-packages/trax/optimizers/base.py" source_line=183}
  %sqrt.18403 = f32[] sqrt(f32[] %fusion.287), metadata={op_type="sqrt" op_name="pmap(_multi_device_update_fn)/sqrt" source_file="/usr/local/lib/python3.8/dist-packages/trax/optimizers/base.py" source_line=183}
  %log.2 = f32[8,64]{1,0} log(f32[8,64]{1,0} %reduce.8), metadata={op_type="log" op_name="pmap(_multi_device_update_fn)/log" source_file="/usr/local/lib/python3.8/dist-packages/trax/fastmath/ops.py" source_line=94}
  %call.115 = f32[8,64,256]{2,1,0} call(f32[8,64,1]{2,1,0} %fusion.584, f32[8,64]{1,0} %log.2, f32[8,64,1]{2,1,0} %fusion.587, f32[8,64]{1,0} %log.1, f32[256]{0} %parameter.111, /*index=5*/f32[512,256]{1,0} %dot.6, s32[8,64]{1,0} %parameter.168), to_apply=%parallel_fusion.286
  %reduce-window.117 = f32[8,64,8]{2,1,0} reduce-window(f32[8,64,256]{2,1,0} %call.115, f32[] %constant.1), window={size=1x1x32 stride=1x1x32}, to_apply=%primitive_computation_add__1.13186
  %fusion.285 = f32[] fusion(f32[8,64]{1,0} %parameter.169, f32[8,64,8]{2,1,0} %reduce-window.117, f32[] %all-reduce.13211), kind=kLoop, calls=%fused_computation.285, metadata={op_type="div" op_name="pmap(_multi_device_update_fn)/div" source_file="/usr/local/lib/python3.8/dist-packages/trax/layers/metrics.py" source_line=617}
  %bitcast.15 = f32[32768000]{0} bitcast(f32[32000,1024]{1,0} %parameter.82), metadata={op_type="reshape" op_name="pmap(_multi_device_update_fn)/reshape[ dimensions=None\n                                       new_sizes=(32768000,) ]" source_file="/usr/local/lib/python3.8/dist-packages/trax/optimizers/base.py" source_line=183}
  %dot.18406 = f32[] dot(f32[32768000]{0} %bitcast.15, f32[32768000]{0} %bitcast.15), lhs_contracting_dims={0}, rhs_contracting_dims={0}, metadata={op_type="dot_general" op_name="pmap(_multi_device_update_fn)/dot_general[ dimension_numbers=(((0,), (0,)), ((), ()))\n                                           precision=None\n                                           preferred_element_type=None ]" source_file="/usr/local/lib/python3.8/dist-packages/trax/optimizers/base.py" source_line=183}
  %bitcast.16 = f32[8388608]{0} bitcast(f32[2048,4096]{1,0} %parameter.83), metadata={op_type="reshape" op_name="pmap(_multi_device_update_fn)/reshape[ dimensions=None\n                                       new_sizes=(8388608,) ]" source_file="/usr/local/lib/python3.8/dist-packages/trax/optimizers/base.py" source_line=183}
  %fusion.284 = f32[] fusion(f32[] %dot.18406, f32[8388608]{0} %bitcast.16), kind=kOutput, calls=%fused_computation.284, metadata={op_type="add" op_name="pmap(_multi_device_update_fn)/add" source_file="/usr/local/lib/python3.8/dist-packages/trax/optimizers/base.py" source_line=183}
  %fusion.283 = f32[] fusion(f32[] %fusion.284, f32[4096]{0} %parameter.84), kind=kOutput, calls=%fused_computation.283, metadata={op_type="add" op_name="pmap(_multi_device_update_fn)/add" source_file="/usr/local/lib/python3.8/dist-packages/trax/optimizers/base.py" source_line=183}
  %bitcast.17 = f32[8388608]{0} bitcast(f32[2048,4096]{1,0} %parameter.85), metadata={op_type="reshape" op_name="pmap(_multi_device_update_fn)/reshape[ dimensions=None\n                                       new_sizes=(8388608,) ]" source_file="/usr/local/lib/python3.8/dist-packages/trax/optimizers/base.py" source_line=183}
  %fusion.282 = f32[] fusion(f32[] %fusion.283, f32[8388608]{0} %bitcast.17), kind=kOutput, calls=%fused_computation.282, metadata={op_type="add" op_name="pmap(_multi_device_update_fn)/add" source_file="/usr/local/lib/python3.8/dist-packages/trax/optimizers/base.py" source_line=183}
  %fusion.281 = f32[] fusion(f32[] %fusion.282, f32[4096]{0} %parameter.86), kind=kOutput, calls=%fused_computation.281, metadata={op_type="add" op_name="pmap(_multi_device_update_fn)/add" source_file="/usr/local/lib/python3.8/dist-packages/trax/optimizers/base.py" source_line=183}
  %bitcast.18 = f32[8388608]{0} bitcast(f32[2048,4096]{1,0} %parameter.87), metadata={op_type="reshape" op_name="pmap(_multi_device_update_fn)/reshape[ dimensions=None\n                                       new_sizes=(8388608,) ]" source_file="/usr/local/lib/python3.8/dist-packages/trax/optimizers/base.py" source_line=183}
  %fusion.280 = f32[] fusion(f32[] %fusion.281, f32[8388608]{0} %bitcast.18), kind=kOutput, calls=%fused_computation.280, metadata={op_type="add" op_name="pmap(_multi_device_update_fn)/add" source_file="/usr/local/lib/python3.8/dist-packages/trax/optimizers/base.py" source_line=183}
  %fusion.279 = f32[] fusion(f32[] %fusion.280, f32[4096]{0} %parameter.88), kind=kOutput, calls=%fused_computation.279, metadata={op_type="add" op_name="pmap(_multi_device_update_fn)/add" source_file="/usr/local/lib/python3.8/dist-packages/trax/optimizers/base.py" source_line=183}
  %bitcast.19 = f32[8388608]{0} bitcast(f32[2048,4096]{1,0} %parameter.89), metadata={op_type="reshape" op_name="pmap(_multi_device_update_fn)/reshape[ dimensions=None\n                                       new_sizes=(8388608,) ]" source_file="/usr/local/lib/python3.8/dist-packages/trax/optimizers/base.py" source_line=183}
  %fusion.278 = f32[] fusion(f32[] %fusion.279, f32[8388608]{0} %bitcast.19), kind=kOutput, calls=%fused_computation.278, metadata={op_type="add" op_name="pmap(_multi_device_update_fn)/add" source_file="/usr/local/lib/python3.8/dist-packages/trax/optimizers/base.py" source_line=183}
  %fusion.277 = f32[] fusion(f32[] %fusion.278, f32[4096]{0} %parameter.90), kind=kOutput, calls=%fused_computation.277, metadata={op_type="add" op_name="pmap(_multi_device_update_fn)/add" source_file="/usr/local/lib/python3.8/dist-packages/trax/optimizers/base.py" source_line=183}
  %bitcast.20 = f32[262144]{0} bitcast(f32[256,1024]{1,0} %parameter.91), metadata={op_type="reshape" op_name="pmap(_multi_device_update_fn)/reshape[ dimensions=None\n                                       new_sizes=(262144,) ]" source_file="/usr/local/lib/python3.8/dist-packages/trax/optimizers/base.py" source_line=183}
  %fusion.276 = f32[] fusion(f32[] %fusion.277, f32[262144]{0} %bitcast.20), kind=kOutput, calls=%fused_computation.276, metadata={op_type="add" op_name="pmap(_multi_device_update_fn)/add" source_file="/usr/local/lib/python3.8/dist-packages/trax/optimizers/base.py" source_line=183}
  %bitcast.21 = f32[8388608]{0} bitcast(f32[2048,4096]{1,0} %parameter.92), metadata={op_type="reshape" op_name="pmap(_multi_device_update_fn)/reshape[ dimensions=None\n                                       new_sizes=(8388608,) ]" source_file="/usr/local/lib/python3.8/dist-packages/trax/optimizers/base.py" source_line=183}
  %fusion.275 = f32[] fusion(f32[] %fusion.276, f32[8388608]{0} %bitcast.21), kind=kOutput, calls=%fused_computation.275, metadata={op_type="add" op_name="pmap(_multi_device_update_fn)/add" source_file="/usr/local/lib/python3.8/dist-packages/trax/optimizers/base.py" source_line=183}
  %fusion.274 = f32[] fusion(f32[] %fusion.275, f32[4096]{0} %parameter.93), kind=kOutput, calls=%fused_computation.274, metadata={op_type="add" op_name="pmap(_multi_device_update_fn)/add" source_file="/usr/local/lib/python3.8/dist-packages/trax/optimizers/base.py" source_line=183}
  %bitcast.22 = f32[1048576]{0} bitcast(f32[1024,1024]{1,0} %parameter.94), metadata={op_type="reshape" op_name="pmap(_multi_device_update_fn)/reshape[ dimensions=None\n                                       new_sizes=(1048576,) ]" source_file="/usr/local/lib/python3.8/dist-packages/trax/optimizers/base.py" source_line=183}
  %fusion.273 = f32[] fusion(f32[] %fusion.274, f32[1048576]{0} %bitcast.22), kind=kOutput, calls=%fused_computation.273, metadata={op_type="add" op_name="pmap(_multi_device_update_fn)/add" source_file="/usr/local/lib/python3.8/dist-packages/trax/optimizers/base.py" source_line=183}
  %fusion.272 = f32[] fusion(f32[] %fusion.273, f32[1024]{0} %parameter.95), kind=kOutput, calls=%fused_computation.272, metadata={op_type="add" op_name="pmap(_multi_device_update_fn)/add" source_file="/usr/local/lib/python3.8/dist-packages/trax/optimizers/base.py" source_line=183}
  %bitcast.23 = f32[1048576]{0} bitcast(f32[1024,1024]{1,0} %parameter.96), metadata={op_type="reshape" op_name="pmap(_multi_device_update_fn)/reshape[ dimensions=None\n                                       new_sizes=(1048576,) ]" source_file="/usr/local/lib/python3.8/dist-packages/trax/optimizers/base.py" source_line=183}
  %fusion.271 = f32[] fusion(f32[] %fusion.272, f32[1048576]{0} %bitcast.23), kind=kOutput, calls=%fused_computation.271, metadata={op_type="add" op_name="pmap(_multi_device_update_fn)/add" source_file="/usr/local/lib/python3.8/dist-packages/trax/optimizers/base.py" source_line=183}
  %fusion.270 = f32[] fusion(f32[] %fusion.271, f32[1024]{0} %parameter.97), kind=kOutput, calls=%fused_computation.270, metadata={op_type="add" op_name="pmap(_multi_device_update_fn)/add" source_file="/usr/local/lib/python3.8/dist-packages/trax/optimizers/base.py" source_line=183}
  %bitcast.24 = f32[1048576]{0} bitcast(f32[1024,1024]{1,0} %parameter.98), metadata={op_type="reshape" op_name="pmap(_multi_device_update_fn)/reshape[ dimensions=None\n                                       new_sizes=(1048576,) ]" source_file="/usr/local/lib/python3.8/dist-packages/trax/optimizers/base.py" source_line=183}
  %fusion.269 = f32[] fusion(f32[] %fusion.270, f32[1048576]{0} %bitcast.24), kind=kOutput, calls=%fused_computation.269, metadata={op_type="add" op_name="pmap(_multi_device_update_fn)/add" source_file="/usr/local/lib/python3.8/dist-packages/trax/optimizers/base.py" source_line=183}
  %fusion.268 = f32[] fusion(f32[] %fusion.269, f32[1024]{0} %parameter.99), kind=kOutput, calls=%fused_computation.268, metadata={op_type="add" op_name="pmap(_multi_device_update_fn)/add" source_file="/usr/local/lib/python3.8/dist-packages/trax/optimizers/base.py" source_line=183}
  %bitcast.25 = f32[1048576]{0} bitcast(f32[1024,1024]{1,0} %parameter.100), metadata={op_type="reshape" op_name="pmap(_multi_device_update_fn)/reshape[ dimensions=None\n                                       new_sizes=(1048576,) ]" source_file="/usr/local/lib/python3.8/dist-packages/trax/optimizers/base.py" source_line=183}
  %fusion.267 = f32[] fusion(f32[] %fusion.268, f32[1048576]{0} %bitcast.25), kind=kOutput, calls=%fused_computation.267, metadata={op_type="add" op_name="pmap(_multi_device_update_fn)/add" source_file="/usr/local/lib/python3.8/dist-packages/trax/optimizers/base.py" source_line=183}
  %fusion.266 = f32[] fusion(f32[] %fusion.267, f32[1024]{0} %parameter.101), kind=kOutput, calls=%fused_computation.266, metadata={op_type="add" op_name="pmap(_multi_device_update_fn)/add" source_file="/usr/local/lib/python3.8/dist-packages/trax/optimizers/base.py" source_line=183}
  %bitcast.26 = f32[8388608]{0} bitcast(f32[2048,4096]{1,0} %parameter.102), metadata={op_type="reshape" op_name="pmap(_multi_device_update_fn)/reshape[ dimensions=None\n                                       new_sizes=(8388608,) ]" source_file="/usr/local/lib/python3.8/dist-packages/trax/optimizers/base.py" source_line=183}
  %fusion.265 = f32[] fusion(f32[] %fusion.266, f32[8388608]{0} %bitcast.26), kind=kOutput, calls=%fused_computation.265, metadata={op_type="add" op_name="pmap(_multi_device_update_fn)/add" source_file="/usr/local/lib/python3.8/dist-packages/trax/optimizers/base.py" source_line=183}
  %fusion.264 = f32[] fusion(f32[] %fusion.265, f32[4096]{0} %parameter.103), kind=kOutput, calls=%fused_computation.264, metadata={op_type="add" op_name="pmap(_multi_device_update_fn)/add" source_file="/usr/local/lib/python3.8/dist-packages/trax/optimizers/base.py" source_line=183}
  %bitcast.27 = f32[8388608]{0} bitcast(f32[2048,4096]{1,0} %parameter.104), metadata={op_type="reshape" op_name="pmap(_multi_device_update_fn)/reshape[ dimensions=None\n                                       new_sizes=(8388608,) ]" source_file="/usr/local/lib/python3.8/dist-packages/trax/optimizers/base.py" source_line=183}
  %fusion.263 = f32[] fusion(f32[] %fusion.264, f32[8388608]{0} %bitcast.27), kind=kOutput, calls=%fused_computation.263, metadata={op_type="add" op_name="pmap(_multi_device_update_fn)/add" source_file="/usr/local/lib/python3.8/dist-packages/trax/optimizers/base.py" source_line=183}
  %fusion.262 = f32[] fusion(f32[] %fusion.263, f32[4096]{0} %parameter.105), kind=kOutput, calls=%fused_computation.262, metadata={op_type="add" op_name="pmap(_multi_device_update_fn)/add" source_file="/usr/local/lib/python3.8/dist-packages/trax/optimizers/base.py" source_line=183}
  %bitcast.28 = f32[8388608]{0} bitcast(f32[2048,4096]{1,0} %parameter.106), metadata={op_type="reshape" op_name="pmap(_multi_device_update_fn)/reshape[ dimensions=None\n                                       new_sizes=(8388608,) ]" source_file="/usr/local/lib/python3.8/dist-packages/trax/optimizers/base.py" source_line=183}
  %fusion.261 = f32[] fusion(f32[] %fusion.262, f32[8388608]{0} %bitcast.28), kind=kOutput, calls=%fused_computation.261, metadata={op_type="add" op_name="pmap(_multi_device_update_fn)/add" source_file="/usr/local/lib/python3.8/dist-packages/trax/optimizers/base.py" source_line=183}
  %fusion.260 = f32[] fusion(f32[] %fusion.261, f32[4096]{0} %parameter.107), kind=kOutput, calls=%fused_computation.260, metadata={op_type="add" op_name="pmap(_multi_device_update_fn)/add" source_file="/usr/local/lib/python3.8/dist-packages/trax/optimizers/base.py" source_line=183}
  %bitcast.29 = f32[8388608]{0} bitcast(f32[2048,4096]{1,0} %parameter.108), metadata={op_type="reshape" op_name="pmap(_multi_device_update_fn)/reshape[ dimensions=None\n                                       new_sizes=(8388608,) ]" source_file="/usr/local/lib/python3.8/dist-packages/trax/optimizers/base.py" source_line=183}
  %fusion.259 = f32[] fusion(f32[] %fusion.260, f32[8388608]{0} %bitcast.29), kind=kOutput, calls=%fused_computation.259, metadata={op_type="add" op_name="pmap(_multi_device_update_fn)/add" source_file="/usr/local/lib/python3.8/dist-packages/trax/optimizers/base.py" source_line=183}
  %fusion.258 = f32[] fusion(f32[] %fusion.259, f32[4096]{0} %parameter.109), kind=kOutput, calls=%fused_computation.258, metadata={op_type="add" op_name="pmap(_multi_device_update_fn)/add" source_file="/usr/local/lib/python3.8/dist-packages/trax/optimizers/base.py" source_line=183}
  %bitcast.30 = f32[262144]{0} bitcast(f32[1024,256]{1,0} %parameter.110), metadata={op_type="reshape" op_name="pmap(_multi_device_update_fn)/reshape[ dimensions=None\n                                       new_sizes=(262144,) ]" source_file="/usr/local/lib/python3.8/dist-packages/trax/optimizers/base.py" source_line=183}
  %fusion.257 = f32[] fusion(f32[] %fusion.258, f32[262144]{0} %bitcast.30), kind=kOutput, calls=%fused_computation.257, metadata={op_type="add" op_name="pmap(_multi_device_update_fn)/add" source_file="/usr/local/lib/python3.8/dist-packages/trax/optimizers/base.py" source_line=183}
  %fusion.256 = f32[] fusion(f32[] %fusion.257, f32[256]{0} %parameter.111), kind=kOutput, calls=%fused_computation.256, metadata={op_type="add" op_name="pmap(_multi_device_update_fn)/add" source_file="/usr/local/lib/python3.8/dist-packages/trax/optimizers/base.py" source_line=183}
  %sqrt.18497 = f32[] sqrt(f32[] %fusion.256), metadata={op_type="sqrt" op_name="pmap(_multi_device_update_fn)/sqrt" source_file="/usr/local/lib/python3.8/dist-packages/trax/optimizers/base.py" source_line=183}
  ROOT %tuple.21606 = (f32[32000,1024]{1,0}, f32[2048,4096]{1,0}, f32[4096]{0}, f32[2048,4096]{1,0}, f32[4096]{0}, /*index=5*/f32[2048,4096]{1,0}, f32[4096]{0}, f32[2048,4096]{1,0}, f32[4096]{0}, f32[256,1024]{1,0}, /*index=10*/f32[2048,4096]{1,0}, f32[4096]{0}, f32[1024,1024]{1,0}, f32[1024]{0}, f32[1024,1024]{1,0}, /*index=15*/f32[1024]{0}, f32[1024,1024]{1,0}, f32[1024]{0}, f32[1024,1024]{1,0}, f32[1024]{0}, /*index=20*/f32[2048,4096]{1,0}, f32[4096]{0}, f32[2048,4096]{1,0}, f32[4096]{0}, f32[2048,4096]{1,0}, /*index=25*/f32[4096]{0}, f32[2048,4096]{1,0}, f32[4096]{0}, f32[1024,256]{1,0}, f32[256]{0}, /*index=30*/f32[32000]{0}, f32[1024]{0}, f32[2048]{0}, f32[4096]{0}, f32[4096]{0}, /*index=35*/f32[2048]{0}, f32[4096]{0}, f32[4096]{0}, f32[2048]{0}, f32[4096]{0}, /*index=40*/f32[4096]{0}, f32[2048]{0}, f32[4096]{0}, f32[4096]{0}, f32[256]{0}, /*index=45*/f32[1024]{0}, f32[2048]{0}, f32[4096]{0}, f32[4096]{0}, f32[1024]{0}, /*index=50*/f32[1024]{0}, f32[1024]{0}, f32[1024]{0}, f32[1024]{0}, f32[1024]{0}, /*index=55*/f32[1024]{0}, f32[1024]{0}, f32[1024]{0}, f32[1024]{0}, f32[1024]{0}, /*index=60*/f32[1024]{0}, f32[2048]{0}, f32[4096]{0}, f32[4096]{0}, f32[2048]{0}, /*index=65*/f32[4096]{0}, f32[4096]{0}, f32[2048]{0}, f32[4096]{0}, f32[4096]{0}, /*index=70*/f32[2048]{0}, f32[4096]{0}, f32[4096]{0}, f32[1024]{0}, f32[256]{0}, /*index=75*/f32[256]{0}, f32[], f32[], f32[]) tuple(f32[32000,1024]{1,0} %call.184, f32[2048,4096]{1,0} %call.181, f32[4096]{0} %fusion.545, f32[2048,4096]{1,0} %call.178, f32[4096]{0} %fusion.530, /*index=5*/f32[2048,4096]{1,0} %call.175, f32[4096]{0} %fusion.515, f32[2048,4096]{1,0} %call.172, f32[4096]{0} %fusion.500, f32[256,1024]{1,0} %call.167, /*index=10*/f32[2048,4096]{1,0} %call.164, f32[4096]{0} %fusion.472, f32[1024,1024]{1,0} %call.160, f32[1024]{0} %fusion.456, f32[1024,1024]{1,0} %call.156, /*index=15*/f32[1024]{0} %fusion.440, f32[1024,1024]{1,0} %call.152, f32[1024]{0} %fusion.424, f32[1024,1024]{1,0} %call.148, f32[1024]{0} %fusion.408, /*index=20*/f32[2048,4096]{1,0} %call.145, f32[4096]{0} %fusion.393, f32[2048,4096]{1,0} %call.142, f32[4096]{0} %fusion.378, f32[2048,4096]{1,0} %call.139, /*index=25*/f32[4096]{0} %fusion.363, f32[2048,4096]{1,0} %call.136, f32[4096]{0} %fusion.348, f32[1024,256]{1,0} %call.132, f32[256]{0} %fusion.332, /*index=30*/f32[32000]{0} %fusion.566, f32[1024]{0} %fusion.564, f32[2048]{0} %fusion.557, f32[4096]{0} %fusion.555, f32[4096]{0} %fusion.548, /*index=35*/f32[2048]{0} %fusion.542, f32[4096]{0} %fusion.540, f32[4096]{0} %fusion.533, f32[2048]{0} %fusion.527, f32[4096]{0} %fusion.525, /*index=40*/f32[4096]{0} %fusion.518, f32[2048]{0} %fusion.512, f32[4096]{0} %fusion.510, f32[4096]{0} %fusion.503, f32[256]{0} %fusion.493, /*index=45*/f32[1024]{0} %fusion.491, f32[2048]{0} %fusion.484, f32[4096]{0} %fusion.482, f32[4096]{0} %fusion.475, f32[1024]{0} %fusion.468, /*index=50*/f32[1024]{0} %fusion.466, f32[1024]{0} %fusion.459, f32[1024]{0} %fusion.452, f32[1024]{0} %fusion.450, f32[1024]{0} %fusion.443, /*index=55*/f32[1024]{0} %fusion.436, f32[1024]{0} %fusion.434, f32[1024]{0} %fusion.427, f32[1024]{0} %fusion.420, f32[1024]{0} %fusion.418, /*index=60*/f32[1024]{0} %fusion.411, f32[2048]{0} %fusion.405, f32[4096]{0} %fusion.403, f32[4096]{0} %fusion.396, f32[2048]{0} %fusion.390, /*index=65*/f32[4096]{0} %fusion.388, f32[4096]{0} %fusion.381, f32[2048]{0} %fusion.375, f32[4096]{0} %fusion.373, f32[4096]{0} %fusion.366, /*index=70*/f32[2048]{0} %fusion.360, f32[4096]{0} %fusion.358, f32[4096]{0} %fusion.351, f32[1024]{0} %fusion.344, f32[256]{0} %fusion.342, /*index=75*/f32[256]{0} %fusion.335, f32[] %sqrt.18403, f32[] %fusion.285, f32[] %sqrt.18497)
}

