HloModule pmap__multi_device_update_fn__2.16072, input_output_alias={ {0}: (0, {}, may-alias), {1}: (1, {}, may-alias), {2}: (2, {}, may-alias), {3}: (3, {}, may-alias), {4}: (4, {}, may-alias), {5}: (5, {}, may-alias), {6}: (6, {}, may-alias), {7}: (7, {}, may-alias), {8}: (8, {}, may-alias), {9}: (9, {}, may-alias), {10}: (10, {}, may-alias), {11}: (11, {}, may-alias), {12}: (12, {}, may-alias), {13}: (13, {}, may-alias), {14}: (14, {}, may-alias), {15}: (15, {}, may-alias), {16}: (16, {}, may-alias), {17}: (17, {}, may-alias), {18}: (18, {}, may-alias), {19}: (19, {}, may-alias), {20}: (20, {}, may-alias), {21}: (21, {}, may-alias), {22}: (22, {}, may-alias), {23}: (23, {}, may-alias), {24}: (24, {}, may-alias), {25}: (25, {}, may-alias), {26}: (26, {}, may-alias), {27}: (27, {}, may-alias), {28}: (28, {}, may-alias), {29}: (29, {}, may-alias), {30}: (30, {}, may-alias), {31}: (31, {}, may-alias), {32}: (32, {}, may-alias), {33}: (33, {}, may-alias), {34}: (34, {}, may-alias), {35}: (35, {}, may-alias), {36}: (36, {}, may-alias), {37}: (37, {}, may-alias), {38}: (38, {}, may-alias), {39}: (39, {}, may-alias), {40}: (40, {}, may-alias), {41}: (41, {}, may-alias), {42}: (42, {}, may-alias), {43}: (43, {}, may-alias), {44}: (44, {}, may-alias), {45}: (45, {}, may-alias), {46}: (46, {}, may-alias), {47}: (47, {}, may-alias), {48}: (48, {}, may-alias), {49}: (49, {}, may-alias), {50}: (50, {}, may-alias), {51}: (51, {}, may-alias), {52}: (52, {}, may-alias), {53}: (53, {}, may-alias), {54}: (54, {}, may-alias), {55}: (55, {}, may-alias), {56}: (56, {}, may-alias), {57}: (57, {}, may-alias), {58}: (58, {}, may-alias), {59}: (59, {}, may-alias), {60}: (60, {}, may-alias), {61}: (61, {}, may-alias), {62}: (62, {}, may-alias), {63}: (63, {}, may-alias), {64}: (64, {}, may-alias), {65}: (65, {}, may-alias), {66}: (66, {}, may-alias), {67}: (67, {}, may-alias), {68}: (68, {}, may-alias), {69}: (69, {}, may-alias), {70}: (70, {}, may-alias), {71}: (71, {}, may-alias), {72}: (72, {}, may-alias), {73}: (73, {}, may-alias), {74}: (74, {}, may-alias), {75}: (75, {}, may-alias) }

%primitive_computation_add__1.7672 (parameter.7673: f32[], parameter.7674: f32[]) -> f32[] {
  %parameter.7673 = f32[] parameter(0), metadata={op_type="add" op_name="add"}
  %parameter.7674 = f32[] parameter(1), metadata={op_type="add" op_name="add"}
  ROOT %add.7675 = f32[] add(f32[] %parameter.7673, f32[] %parameter.7674), metadata={op_type="add" op_name="add"}
}

%primitive_computation_add__1.12504 (parameter.12505: f32[], parameter.12506: f32[]) -> f32[] {
  %parameter.12505 = f32[] parameter(0), metadata={op_type="add" op_name="add"}
  %parameter.12506 = f32[] parameter(1), metadata={op_type="add" op_name="add"}
  ROOT %add.12507 = f32[] add(f32[] %parameter.12505, f32[] %parameter.12506), metadata={op_type="add" op_name="add"}
}

%primitive_computation_add__1.12509 (parameter.12510: f32[], parameter.12511: f32[]) -> f32[] {
  %parameter.12510 = f32[] parameter(0), metadata={op_type="add" op_name="add"}
  %parameter.12511 = f32[] parameter(1), metadata={op_type="add" op_name="add"}
  ROOT %add.12512 = f32[] add(f32[] %parameter.12510, f32[] %parameter.12511), metadata={op_type="add" op_name="add"}
}

%primitive_computation_add__1.12519 (parameter.12520: f32[], parameter.12521: f32[]) -> f32[] {
  %parameter.12520 = f32[] parameter(0), metadata={op_type="add" op_name="add"}
  %parameter.12521 = f32[] parameter(1), metadata={op_type="add" op_name="add"}
  ROOT %add.12522 = f32[] add(f32[] %parameter.12520, f32[] %parameter.12521), metadata={op_type="add" op_name="add"}
}

%primitive_computation_add__1.12529 (parameter.12530: f32[], parameter.12531: f32[]) -> f32[] {
  %parameter.12530 = f32[] parameter(0), metadata={op_type="add" op_name="add"}
  %parameter.12531 = f32[] parameter(1), metadata={op_type="add" op_name="add"}
  ROOT %add.12532 = f32[] add(f32[] %parameter.12530, f32[] %parameter.12531), metadata={op_type="add" op_name="add"}
}

%primitive_computation_add__1.12539 (parameter.12540: f32[], parameter.12541: f32[]) -> f32[] {
  %parameter.12540 = f32[] parameter(0), metadata={op_type="add" op_name="add"}
  %parameter.12541 = f32[] parameter(1), metadata={op_type="add" op_name="add"}
  ROOT %add.12542 = f32[] add(f32[] %parameter.12540, f32[] %parameter.12541), metadata={op_type="add" op_name="add"}
}

%primitive_computation_add__1.12554 (parameter.12555: f32[], parameter.12556: f32[]) -> f32[] {
  %parameter.12555 = f32[] parameter(0), metadata={op_type="add" op_name="add"}
  %parameter.12556 = f32[] parameter(1), metadata={op_type="add" op_name="add"}
  ROOT %add.12557 = f32[] add(f32[] %parameter.12555, f32[] %parameter.12556), metadata={op_type="add" op_name="add"}
}

%primitive_computation_add__1.12604 (parameter.12605: f32[], parameter.12606: f32[]) -> f32[] {
  %parameter.12605 = f32[] parameter(0), metadata={op_type="add" op_name="add"}
  %parameter.12606 = f32[] parameter(1), metadata={op_type="add" op_name="add"}
  ROOT %add.12607 = f32[] add(f32[] %parameter.12605, f32[] %parameter.12606), metadata={op_type="add" op_name="add"}
}

%primitive_computation_add__1.12614 (parameter.12615: f32[], parameter.12616: f32[]) -> f32[] {
  %parameter.12615 = f32[] parameter(0), metadata={op_type="add" op_name="add"}
  %parameter.12616 = f32[] parameter(1), metadata={op_type="add" op_name="add"}
  ROOT %add.12617 = f32[] add(f32[] %parameter.12615, f32[] %parameter.12616), metadata={op_type="add" op_name="add"}
}

%primitive_computation_add__1.12624 (parameter.12625: f32[], parameter.12626: f32[]) -> f32[] {
  %parameter.12625 = f32[] parameter(0), metadata={op_type="add" op_name="add"}
  %parameter.12626 = f32[] parameter(1), metadata={op_type="add" op_name="add"}
  ROOT %add.12627 = f32[] add(f32[] %parameter.12625, f32[] %parameter.12626), metadata={op_type="add" op_name="add"}
}

%primitive_computation_add__1.12634 (parameter.12635: f32[], parameter.12636: f32[]) -> f32[] {
  %parameter.12635 = f32[] parameter(0), metadata={op_type="add" op_name="add"}
  %parameter.12636 = f32[] parameter(1), metadata={op_type="add" op_name="add"}
  ROOT %add.12637 = f32[] add(f32[] %parameter.12635, f32[] %parameter.12636), metadata={op_type="add" op_name="add"}
}

%fused_computation (param_0: f32[64,16,1024], param_1.1880: f32[16,2048], param_2.1476: s32[]) -> f32[64,16,1024] {
  %param_0 = f32[64,16,1024]{2,1,0} parameter(0)
  %param_1.1880 = f32[16,2048]{1,0} parameter(1)
  %slice.818 = f32[16,1024]{1,0} slice(f32[16,2048]{1,0} %param_1.1880), slice={[0:16], [0:1024]}, metadata={op_type="slice" op_name="pmap(_multi_device_update_fn)/scan/while/body/slice[ limit_indices=(16, 1024)\n                                                     start_indices=(0, 0)\n                                                     strides=None ]" source_file="/usr/local/lib/python3.8/dist-packages/trax/layers/rnn.py" source_line=58}
  %bitcast.407 = f32[1,16,1024]{2,1,0} bitcast(f32[16,1024]{1,0} %slice.818), metadata={op_type="broadcast_in_dim" op_name="pmap(_multi_device_update_fn)/scan/while/body/broadcast_in_dim[ broadcast_dimensions=(1, 2)\n                                                                shape=(1, 16, 1024) ]" source_file="/usr/local/lib/python3.8/dist-packages/trax/optimizers/trainer.py" source_line=248}
  %constant_11882 = s32[] constant(64), metadata={op_type="sub" op_name="pmap(_multi_device_update_fn)/scan/while/body/sub" source_file="/usr/local/lib/python3.8/dist-packages/trax/optimizers/trainer.py" source_line=248}
  %param_2.1476 = s32[] parameter(2)
  %subtract.339 = s32[] subtract(s32[] %constant_11882, s32[] %param_2.1476), metadata={op_type="sub" op_name="pmap(_multi_device_update_fn)/scan/while/body/sub" source_file="/usr/local/lib/python3.8/dist-packages/trax/optimizers/trainer.py" source_line=248}
  %constant_11881 = s32[] constant(-1)
  %add.2129 = s32[] add(s32[] %subtract.339, s32[] %constant_11881), metadata={op_type="sub" op_name="pmap(_multi_device_update_fn)/scan/while/body/sub" source_file="/usr/local/lib/python3.8/dist-packages/trax/optimizers/trainer.py" source_line=248}
  %constant_10592 = s32[] constant(0), metadata={op_type="lt" op_name="pmap(_multi_device_update_fn)/scan/while/body/lt" source_file="/usr/local/lib/python3.8/dist-packages/trax/optimizers/trainer.py" source_line=248}
  %compare.1423 = pred[] compare(s32[] %add.2129, s32[] %constant_10592), direction=LT, metadata={op_type="lt" op_name="pmap(_multi_device_update_fn)/scan/while/body/lt" source_file="/usr/local/lib/python3.8/dist-packages/trax/optimizers/trainer.py" source_line=248}
  %constant_11879 = s32[] constant(63)
  %add.2128 = s32[] add(s32[] %subtract.339, s32[] %constant_11879), metadata={op_type="add" op_name="pmap(_multi_device_update_fn)/scan/while/body/add" source_file="/usr/local/lib/python3.8/dist-packages/trax/optimizers/trainer.py" source_line=248}
  %select.1413 = s32[] select(pred[] %compare.1423, s32[] %add.2128, s32[] %add.2129), metadata={op_type="select" op_name="pmap(_multi_device_update_fn)/scan/while/body/select" source_file="/usr/local/lib/python3.8/dist-packages/trax/optimizers/trainer.py" source_line=248}
  ROOT %dynamic-update-slice.491 = f32[64,16,1024]{2,1,0} dynamic-update-slice(f32[64,16,1024]{2,1,0} %param_0, f32[1,16,1024]{2,1,0} %bitcast.407, s32[] %select.1413, s32[] %constant_10592, s32[] %constant_10592), metadata={op_type="dynamic_update_slice" op_name="pmap(_multi_device_update_fn)/scan/while/body/dynamic_update_slice" source_file="/usr/local/lib/python3.8/dist-packages/trax/optimizers/trainer.py" source_line=248}
}

%primitive_computation_add__1.7759 (parameter.7760: f32[], parameter.7761: f32[]) -> f32[] {
  %parameter.7760 = f32[] parameter(0), metadata={op_type="add" op_name="add"}
  %parameter.7761 = f32[] parameter(1), metadata={op_type="add" op_name="add"}
  ROOT %add.7762 = f32[] add(f32[] %parameter.7760, f32[] %parameter.7761), metadata={op_type="add" op_name="add"}
}

%fused_computation.2 (param_0.3: f32[4096], param_1.7: f32[16,4096]) -> f32[4096] {
  %param_0.3 = f32[4096]{0} parameter(0)
  %param_1.7 = f32[16,4096]{1,0} parameter(1)
  %constant_10598 = f32[] constant(0), metadata={op_type="pad" op_name="pmap(_multi_device_update_fn)/scan/while/body/pad[ padding_config=((0, 0, 0), (3072, 0, 0)) ]" source_file="/usr/local/lib/python3.8/dist-packages/trax/layers/rnn.py" source_line=61}
  %reduce.173 = f32[4096]{0} reduce(f32[16,4096]{1,0} %param_1.7, f32[] %constant_10598), dimensions={0}, to_apply=%primitive_computation_add__1.7759, metadata={op_type="reduce_sum" op_name="pmap(_multi_device_update_fn)/scan/while/body/reduce_sum[ axes=(0,) ]" source_file="/usr/local/lib/python3.8/dist-packages/trax/layers/rnn.py" source_line=58}
  ROOT %add.1761 = f32[4096]{0} add(f32[4096]{0} %param_0.3, f32[4096]{0} %reduce.173), metadata={op_type="add_any" op_name="pmap(_multi_device_update_fn)/scan/while/body/add_any" source_file="/usr/local/lib/python3.8/dist-packages/trax/fastmath/ops.py" source_line=144}
}

%fused_computation.3 (param_0.1548: f32[64,16,1024], param_1.1882: f32[16,1024], param_2.1477: f32[64,16,1024], param_3.1246: f32[64,16,1024], param_4.519: f32[64,16,1024], param_5.260: f32[64,16,1024], param_6.205: f32[64,16,1024], param_7.213: f32[64,16,1024], param_8.156: s32[], param_9.93: f32[64,16,1024], param_10.109: f32[64,16,1024], param_11.136: f32[16,2048], param_12.98: f32[64,16,1024], param_13.71: f32[64,16,1024]) -> f32[16,4096] {
  %param_10.109 = f32[64,16,1024]{2,1,0} parameter(10)
  %constant_11826 = s32[] constant(64), metadata={op_type="sub" op_name="pmap(_multi_device_update_fn)/scan/while/body/sub" source_file="/usr/local/lib/python3.8/dist-packages/trax/optimizers/trainer.py" source_line=248}
  %param_8.156 = s32[] parameter(8)
  %subtract.345 = s32[] subtract(s32[] %constant_11826, s32[] %param_8.156), metadata={op_type="sub" op_name="pmap(_multi_device_update_fn)/scan/while/body/sub" source_file="/usr/local/lib/python3.8/dist-packages/trax/optimizers/trainer.py" source_line=248}
  %constant_11824 = s32[] constant(-1)
  %add.2143 = s32[] add(s32[] %subtract.345, s32[] %constant_11824), metadata={op_type="sub" op_name="pmap(_multi_device_update_fn)/scan/while/body/sub" source_file="/usr/local/lib/python3.8/dist-packages/trax/optimizers/trainer.py" source_line=248}
  %constant_10603 = s32[] constant(0), metadata={op_type="lt" op_name="pmap(_multi_device_update_fn)/scan/while/body/lt" source_file="/usr/local/lib/python3.8/dist-packages/trax/optimizers/trainer.py" source_line=248}
  %compare.1430 = pred[] compare(s32[] %add.2143, s32[] %constant_10603), direction=LT, metadata={op_type="lt" op_name="pmap(_multi_device_update_fn)/scan/while/body/lt" source_file="/usr/local/lib/python3.8/dist-packages/trax/optimizers/trainer.py" source_line=248}
  %constant_11822 = s32[] constant(63)
  %add.2142 = s32[] add(s32[] %subtract.345, s32[] %constant_11822), metadata={op_type="add" op_name="pmap(_multi_device_update_fn)/scan/while/body/add" source_file="/usr/local/lib/python3.8/dist-packages/trax/optimizers/trainer.py" source_line=248}
  %select.1420 = s32[] select(pred[] %compare.1430, s32[] %add.2142, s32[] %add.2143), metadata={op_type="select" op_name="pmap(_multi_device_update_fn)/scan/while/body/select" source_file="/usr/local/lib/python3.8/dist-packages/trax/optimizers/trainer.py" source_line=248}
  %dynamic-slice.416 = f32[1,16,1024]{2,1,0} dynamic-slice(f32[64,16,1024]{2,1,0} %param_10.109, s32[] %select.1420, s32[] %constant_10603, s32[] %constant_10603), dynamic_slice_sizes={1,16,1024}, metadata={op_type="dynamic_slice" op_name="pmap(_multi_device_update_fn)/scan/while/body/dynamic_slice[ slice_sizes=(1, 16, 1024) ]" source_file="/usr/local/lib/python3.8/dist-packages/trax/optimizers/trainer.py" source_line=248}
  %bitcast.801 = f32[16,1024]{1,0} bitcast(f32[1,16,1024]{2,1,0} %dynamic-slice.416), metadata={op_type="squeeze" op_name="pmap(_multi_device_update_fn)/scan/while/body/squeeze[ dimensions=(0,) ]" source_file="/usr/local/lib/python3.8/dist-packages/trax/optimizers/trainer.py" source_line=248}
  %param_12.98 = f32[64,16,1024]{2,1,0} parameter(12)
  %dynamic-slice.420 = f32[1,16,1024]{2,1,0} dynamic-slice(f32[64,16,1024]{2,1,0} %param_12.98, s32[] %select.1420, s32[] %constant_10603, s32[] %constant_10603), dynamic_slice_sizes={1,16,1024}, metadata={op_type="dynamic_slice" op_name="pmap(_multi_device_update_fn)/scan/while/body/dynamic_slice[ slice_sizes=(1, 16, 1024) ]" source_file="/usr/local/lib/python3.8/dist-packages/trax/optimizers/trainer.py" source_line=248}
  %bitcast.805 = f32[16,1024]{1,0} bitcast(f32[1,16,1024]{2,1,0} %dynamic-slice.420), metadata={op_type="squeeze" op_name="pmap(_multi_device_update_fn)/scan/while/body/squeeze[ dimensions=(0,) ]" source_file="/usr/local/lib/python3.8/dist-packages/trax/optimizers/trainer.py" source_line=248}
  %param_11.136 = f32[16,2048]{1,0} parameter(11)
  %slice.956 = f32[16,1024]{1,0} slice(f32[16,2048]{1,0} %param_11.136), slice={[0:16], [1024:2048]}, metadata={op_type="slice" op_name="pmap(_multi_device_update_fn)/scan/while/body/slice[ limit_indices=(16, 2048)\n                                                     start_indices=(0, 1024)\n                                                     strides=None ]" source_file="/usr/local/lib/python3.8/dist-packages/trax/layers/rnn.py" source_line=65}
  %add.2152 = f32[16,1024]{1,0} add(f32[16,1024]{1,0} %bitcast.805, f32[16,1024]{1,0} %slice.956), metadata={op_type="add_any" op_name="pmap(_multi_device_update_fn)/scan/while/body/add_any" source_file="/usr/local/lib/python3.8/dist-packages/trax/fastmath/ops.py" source_line=144}
  %multiply.797 = f32[16,1024]{1,0} multiply(f32[16,1024]{1,0} %bitcast.801, f32[16,1024]{1,0} %add.2152), metadata={op_type="mul" op_name="pmap(_multi_device_update_fn)/scan/while/body/mul" source_file="/usr/local/lib/python3.8/dist-packages/trax/layers/rnn.py" source_line=64}
  %param_7.213 = f32[64,16,1024]{2,1,0} parameter(7)
  %dynamic-slice.291 = f32[1,16,1024]{2,1,0} dynamic-slice(f32[64,16,1024]{2,1,0} %param_7.213, s32[] %select.1420, s32[] %constant_10603, s32[] %constant_10603), dynamic_slice_sizes={1,16,1024}, metadata={op_type="dynamic_slice" op_name="pmap(_multi_device_update_fn)/scan/while/body/dynamic_slice[ slice_sizes=(1, 16, 1024) ]" source_file="/usr/local/lib/python3.8/dist-packages/trax/optimizers/trainer.py" source_line=248}
  %bitcast.414 = f32[16,1024]{1,0} bitcast(f32[1,16,1024]{2,1,0} %dynamic-slice.291), metadata={op_type="squeeze" op_name="pmap(_multi_device_update_fn)/scan/while/body/squeeze[ dimensions=(0,) ]" source_file="/usr/local/lib/python3.8/dist-packages/trax/optimizers/trainer.py" source_line=248}
  %multiply.796 = f32[16,1024]{1,0} multiply(f32[16,1024]{1,0} %multiply.797, f32[16,1024]{1,0} %bitcast.414), metadata={op_type="mul" op_name="pmap(_multi_device_update_fn)/scan/while/body/mul" source_file="/usr/local/lib/python3.8/dist-packages/trax/fastmath/ops.py" source_line=104}
  %param_13.71 = f32[64,16,1024]{2,1,0} parameter(13)
  %dynamic-slice.424 = f32[1,16,1024]{2,1,0} dynamic-slice(f32[64,16,1024]{2,1,0} %param_13.71, s32[] %select.1420, s32[] %constant_10603, s32[] %constant_10603), dynamic_slice_sizes={1,16,1024}, metadata={op_type="dynamic_slice" op_name="pmap(_multi_device_update_fn)/scan/while/body/dynamic_slice[ slice_sizes=(1, 16, 1024) ]" source_file="/usr/local/lib/python3.8/dist-packages/trax/optimizers/trainer.py" source_line=248}
  %bitcast.809 = f32[16,1024]{1,0} bitcast(f32[1,16,1024]{2,1,0} %dynamic-slice.424), metadata={op_type="squeeze" op_name="pmap(_multi_device_update_fn)/scan/while/body/squeeze[ dimensions=(0,) ]" source_file="/usr/local/lib/python3.8/dist-packages/trax/optimizers/trainer.py" source_line=248}
  %multiply.795 = f32[16,1024]{1,0} multiply(f32[16,1024]{1,0} %multiply.796, f32[16,1024]{1,0} %bitcast.809), metadata={op_type="mul" op_name="pmap(_multi_device_update_fn)/scan/while/body/mul" source_file="/usr/local/lib/python3.8/dist-packages/trax/fastmath/ops.py" source_line=104}
  %constant_10600 = f32[] constant(0), metadata={op_type="pad" op_name="pmap(_multi_device_update_fn)/scan/while/body/pad[ padding_config=((0, 0, 0), (3072, 0, 0)) ]" source_file="/usr/local/lib/python3.8/dist-packages/trax/layers/rnn.py" source_line=61}
  %pad.127 = f32[16,4096]{1,0} pad(f32[16,1024]{1,0} %multiply.795, f32[] %constant_10600), padding=0_0x3072_0, metadata={op_type="pad" op_name="pmap(_multi_device_update_fn)/scan/while/body/pad[ padding_config=((0, 0, 0), (3072, 0, 0)) ]" source_file="/usr/local/lib/python3.8/dist-packages/trax/layers/rnn.py" source_line=61}
  %param_6.205 = f32[64,16,1024]{2,1,0} parameter(6)
  %dynamic-slice.290 = f32[1,16,1024]{2,1,0} dynamic-slice(f32[64,16,1024]{2,1,0} %param_6.205, s32[] %select.1420, s32[] %constant_10603, s32[] %constant_10603), dynamic_slice_sizes={1,16,1024}, metadata={op_type="dynamic_slice" op_name="pmap(_multi_device_update_fn)/scan/while/body/dynamic_slice[ slice_sizes=(1, 16, 1024) ]" source_file="/usr/local/lib/python3.8/dist-packages/trax/optimizers/trainer.py" source_line=248}
  %bitcast.413 = f32[16,1024]{1,0} bitcast(f32[1,16,1024]{2,1,0} %dynamic-slice.290), metadata={op_type="squeeze" op_name="pmap(_multi_device_update_fn)/scan/while/body/squeeze[ dimensions=(0,) ]" source_file="/usr/local/lib/python3.8/dist-packages/trax/optimizers/trainer.py" source_line=248}
  %param_1.1882 = f32[16,1024]{1,0} parameter(1)
  %multiply.794 = f32[16,1024]{1,0} multiply(f32[16,1024]{1,0} %bitcast.413, f32[16,1024]{1,0} %param_1.1882), metadata={op_type="mul" op_name="pmap(_multi_device_update_fn)/scan/while/body/mul" source_file="/usr/local/lib/python3.8/dist-packages/trax/layers/rnn.py" source_line=63}
  %param_5.260 = f32[64,16,1024]{2,1,0} parameter(5)
  %dynamic-slice.289 = f32[1,16,1024]{2,1,0} dynamic-slice(f32[64,16,1024]{2,1,0} %param_5.260, s32[] %select.1420, s32[] %constant_10603, s32[] %constant_10603), dynamic_slice_sizes={1,16,1024}, metadata={op_type="dynamic_slice" op_name="pmap(_multi_device_update_fn)/scan/while/body/dynamic_slice[ slice_sizes=(1, 16, 1024) ]" source_file="/usr/local/lib/python3.8/dist-packages/trax/optimizers/trainer.py" source_line=248}
  %bitcast.412 = f32[16,1024]{1,0} bitcast(f32[1,16,1024]{2,1,0} %dynamic-slice.289), metadata={op_type="squeeze" op_name="pmap(_multi_device_update_fn)/scan/while/body/squeeze[ dimensions=(0,) ]" source_file="/usr/local/lib/python3.8/dist-packages/trax/optimizers/trainer.py" source_line=248}
  %multiply.793 = f32[16,1024]{1,0} multiply(f32[16,1024]{1,0} %multiply.794, f32[16,1024]{1,0} %bitcast.412), metadata={op_type="mul" op_name="pmap(_multi_device_update_fn)/scan/while/body/mul" source_file="/usr/local/lib/python3.8/dist-packages/trax/layers/rnn.py" source_line=63}
  %param_4.519 = f32[64,16,1024]{2,1,0} parameter(4)
  %dynamic-slice.288 = f32[1,16,1024]{2,1,0} dynamic-slice(f32[64,16,1024]{2,1,0} %param_4.519, s32[] %select.1420, s32[] %constant_10603, s32[] %constant_10603), dynamic_slice_sizes={1,16,1024}, metadata={op_type="dynamic_slice" op_name="pmap(_multi_device_update_fn)/scan/while/body/dynamic_slice[ slice_sizes=(1, 16, 1024) ]" source_file="/usr/local/lib/python3.8/dist-packages/trax/optimizers/trainer.py" source_line=248}
  %bitcast.411 = f32[16,1024]{1,0} bitcast(f32[1,16,1024]{2,1,0} %dynamic-slice.288), metadata={op_type="squeeze" op_name="pmap(_multi_device_update_fn)/scan/while/body/squeeze[ dimensions=(0,) ]" source_file="/usr/local/lib/python3.8/dist-packages/trax/optimizers/trainer.py" source_line=248}
  %multiply.792 = f32[16,1024]{1,0} multiply(f32[16,1024]{1,0} %multiply.793, f32[16,1024]{1,0} %bitcast.411), metadata={op_type="mul" op_name="pmap(_multi_device_update_fn)/scan/while/body/mul" source_file="/usr/local/lib/python3.8/dist-packages/trax/layers/rnn.py" source_line=63}
  %add.1765 = f32[16,1024]{1,0} add(f32[16,1024]{1,0} %multiply.793, f32[16,1024]{1,0} %multiply.792), metadata={op_type="add_any" op_name="pmap(_multi_device_update_fn)/scan/while/body/add_any" source_file="/usr/local/lib/python3.8/dist-packages/trax/fastmath/ops.py" source_line=144}
  %pad.126 = f32[16,4096]{1,0} pad(f32[16,1024]{1,0} %add.1765, f32[] %constant_10600), padding=0_0x1024_2048, metadata={op_type="pad" op_name="pmap(_multi_device_update_fn)/scan/while/body/pad[ padding_config=((0, 0, 0), (1024, 2048, 0)) ]" source_file="/usr/local/lib/python3.8/dist-packages/trax/layers/rnn.py" source_line=61}
  %add.1764 = f32[16,4096]{1,0} add(f32[16,4096]{1,0} %pad.127, f32[16,4096]{1,0} %pad.126), metadata={op_type="add_any" op_name="pmap(_multi_device_update_fn)/scan/while/body/add_any" source_file="/usr/local/lib/python3.8/dist-packages/trax/fastmath/ops.py" source_line=144}
  %multiply.791 = f32[16,1024]{1,0} multiply(f32[16,1024]{1,0} %param_1.1882, f32[16,1024]{1,0} %bitcast.411), metadata={op_type="mul" op_name="pmap(_multi_device_update_fn)/scan/while/body/mul" source_file="/usr/local/lib/python3.8/dist-packages/trax/layers/rnn.py" source_line=63}
  %param_3.1246 = f32[64,16,1024]{2,1,0} parameter(3)
  %dynamic-slice.287 = f32[1,16,1024]{2,1,0} dynamic-slice(f32[64,16,1024]{2,1,0} %param_3.1246, s32[] %select.1420, s32[] %constant_10603, s32[] %constant_10603), dynamic_slice_sizes={1,16,1024}, metadata={op_type="dynamic_slice" op_name="pmap(_multi_device_update_fn)/scan/while/body/dynamic_slice[ slice_sizes=(1, 16, 1024) ]" source_file="/usr/local/lib/python3.8/dist-packages/trax/optimizers/trainer.py" source_line=248}
  %bitcast.410 = f32[16,1024]{1,0} bitcast(f32[1,16,1024]{2,1,0} %dynamic-slice.287), metadata={op_type="squeeze" op_name="pmap(_multi_device_update_fn)/scan/while/body/squeeze[ dimensions=(0,) ]" source_file="/usr/local/lib/python3.8/dist-packages/trax/optimizers/trainer.py" source_line=248}
  %multiply.790 = f32[16,1024]{1,0} multiply(f32[16,1024]{1,0} %multiply.791, f32[16,1024]{1,0} %bitcast.410), metadata={op_type="mul" op_name="pmap(_multi_device_update_fn)/scan/while/body/mul" source_file="/usr/local/lib/python3.8/dist-packages/trax/fastmath/ops.py" source_line=104}
  %multiply.789 = f32[16,1024]{1,0} multiply(f32[16,1024]{1,0} %multiply.790, f32[16,1024]{1,0} %bitcast.413), metadata={op_type="mul" op_name="pmap(_multi_device_update_fn)/scan/while/body/mul" source_file="/usr/local/lib/python3.8/dist-packages/trax/fastmath/ops.py" source_line=104}
  %pad.125 = f32[16,4096]{1,0} pad(f32[16,1024]{1,0} %multiply.789, f32[] %constant_10600), padding=0_0x0_3072, metadata={op_type="pad" op_name="pmap(_multi_device_update_fn)/scan/while/body/pad[ padding_config=((0, 0, 0), (0, 3072, 0)) ]" source_file="/usr/local/lib/python3.8/dist-packages/trax/layers/rnn.py" source_line=61}
  %add.1763 = f32[16,4096]{1,0} add(f32[16,4096]{1,0} %add.1764, f32[16,4096]{1,0} %pad.125), metadata={op_type="add_any" op_name="pmap(_multi_device_update_fn)/scan/while/body/add_any" source_file="/usr/local/lib/python3.8/dist-packages/trax/fastmath/ops.py" source_line=144}
  %param_2.1477 = f32[64,16,1024]{2,1,0} parameter(2)
  %dynamic-slice.286 = f32[1,16,1024]{2,1,0} dynamic-slice(f32[64,16,1024]{2,1,0} %param_2.1477, s32[] %select.1420, s32[] %constant_10603, s32[] %constant_10603), dynamic_slice_sizes={1,16,1024}, metadata={op_type="dynamic_slice" op_name="pmap(_multi_device_update_fn)/scan/while/body/dynamic_slice[ slice_sizes=(1, 16, 1024) ]" source_file="/usr/local/lib/python3.8/dist-packages/trax/optimizers/trainer.py" source_line=248}
  %bitcast.409 = f32[16,1024]{1,0} bitcast(f32[1,16,1024]{2,1,0} %dynamic-slice.286), metadata={op_type="squeeze" op_name="pmap(_multi_device_update_fn)/scan/while/body/squeeze[ dimensions=(0,) ]" source_file="/usr/local/lib/python3.8/dist-packages/trax/optimizers/trainer.py" source_line=248}
  %multiply.788 = f32[16,1024]{1,0} multiply(f32[16,1024]{1,0} %bitcast.409, f32[16,1024]{1,0} %param_1.1882), metadata={op_type="mul" op_name="pmap(_multi_device_update_fn)/scan/while/body/mul" source_file="/usr/local/lib/python3.8/dist-packages/trax/layers/rnn.py" source_line=63}
  %param_0.1548 = f32[64,16,1024]{2,1,0} parameter(0)
  %dynamic-slice.285 = f32[1,16,1024]{2,1,0} dynamic-slice(f32[64,16,1024]{2,1,0} %param_0.1548, s32[] %select.1420, s32[] %constant_10603, s32[] %constant_10603), dynamic_slice_sizes={1,16,1024}, metadata={op_type="dynamic_slice" op_name="pmap(_multi_device_update_fn)/scan/while/body/dynamic_slice[ slice_sizes=(1, 16, 1024) ]" source_file="/usr/local/lib/python3.8/dist-packages/trax/optimizers/trainer.py" source_line=248}
  %bitcast.408 = f32[16,1024]{1,0} bitcast(f32[1,16,1024]{2,1,0} %dynamic-slice.285), metadata={op_type="squeeze" op_name="pmap(_multi_device_update_fn)/scan/while/body/squeeze[ dimensions=(0,) ]" source_file="/usr/local/lib/python3.8/dist-packages/trax/optimizers/trainer.py" source_line=248}
  %multiply.787 = f32[16,1024]{1,0} multiply(f32[16,1024]{1,0} %multiply.788, f32[16,1024]{1,0} %bitcast.408), metadata={op_type="mul" op_name="pmap(_multi_device_update_fn)/scan/while/body/mul" source_file="/usr/local/lib/python3.8/dist-packages/trax/fastmath/ops.py" source_line=104}
  %param_9.93 = f32[64,16,1024]{2,1,0} parameter(9)
  %dynamic-slice.412 = f32[1,16,1024]{2,1,0} dynamic-slice(f32[64,16,1024]{2,1,0} %param_9.93, s32[] %select.1420, s32[] %constant_10603, s32[] %constant_10603), dynamic_slice_sizes={1,16,1024}, metadata={op_type="dynamic_slice" op_name="pmap(_multi_device_update_fn)/scan/while/body/dynamic_slice[ slice_sizes=(1, 16, 1024) ]" source_file="/usr/local/lib/python3.8/dist-packages/trax/optimizers/trainer.py" source_line=248}
  %bitcast.797 = f32[16,1024]{1,0} bitcast(f32[1,16,1024]{2,1,0} %dynamic-slice.412), metadata={op_type="squeeze" op_name="pmap(_multi_device_update_fn)/scan/while/body/squeeze[ dimensions=(0,) ]" source_file="/usr/local/lib/python3.8/dist-packages/trax/optimizers/trainer.py" source_line=248}
  %multiply.786 = f32[16,1024]{1,0} multiply(f32[16,1024]{1,0} %multiply.787, f32[16,1024]{1,0} %bitcast.797), metadata={op_type="mul" op_name="pmap(_multi_device_update_fn)/scan/while/body/mul" source_file="/usr/local/lib/python3.8/dist-packages/trax/fastmath/ops.py" source_line=104}
  %pad.124 = f32[16,4096]{1,0} pad(f32[16,1024]{1,0} %multiply.786, f32[] %constant_10600), padding=0_0x2048_1024, metadata={op_type="pad" op_name="pmap(_multi_device_update_fn)/scan/while/body/pad[ padding_config=((0, 0, 0), (2048, 1024, 0)) ]" source_file="/usr/local/lib/python3.8/dist-packages/trax/layers/rnn.py" source_line=61}
  ROOT %add.1762 = f32[16,4096]{1,0} add(f32[16,4096]{1,0} %add.1763, f32[16,4096]{1,0} %pad.124), metadata={op_type="add_any" op_name="pmap(_multi_device_update_fn)/scan/while/body/add_any" source_file="/usr/local/lib/python3.8/dist-packages/trax/fastmath/ops.py" source_line=144}
}

%fused_computation.5 (param_0.1552: f32[64,16,1024], param_1.1893: f32[16,2048], param_2.1484: s32[], param_3.1255: f32[64,16,1024], param_4.528: f32[64,16,1024], param_5.270: f32[64,16,1024]) -> f32[16,1024] {
  %param_1.1893 = f32[16,2048]{1,0} parameter(1)
  %slice.820 = f32[16,1024]{1,0} slice(f32[16,2048]{1,0} %param_1.1893), slice={[0:16], [0:1024]}, metadata={op_type="slice" op_name="pmap(_multi_device_update_fn)/scan/while/body/slice[ limit_indices=(16, 1024)\n                                                     start_indices=(0, 0)\n                                                     strides=None ]" source_file="/usr/local/lib/python3.8/dist-packages/trax/layers/rnn.py" source_line=65}
  %param_4.528 = f32[64,16,1024]{2,1,0} parameter(4)
  %constant_11869 = s32[] constant(64), metadata={op_type="sub" op_name="pmap(_multi_device_update_fn)/scan/while/body/sub" source_file="/usr/local/lib/python3.8/dist-packages/trax/optimizers/trainer.py" source_line=248}
  %param_2.1484 = s32[] parameter(2)
  %subtract.351 = s32[] subtract(s32[] %constant_11869, s32[] %param_2.1484), metadata={op_type="sub" op_name="pmap(_multi_device_update_fn)/scan/while/body/sub" source_file="/usr/local/lib/python3.8/dist-packages/trax/optimizers/trainer.py" source_line=248}
  %constant_11868 = s32[] constant(-1)
  %add.2161 = s32[] add(s32[] %subtract.351, s32[] %constant_11868), metadata={op_type="sub" op_name="pmap(_multi_device_update_fn)/scan/while/body/sub" source_file="/usr/local/lib/python3.8/dist-packages/trax/optimizers/trainer.py" source_line=248}
  %constant_10606 = s32[] constant(0), metadata={op_type="lt" op_name="pmap(_multi_device_update_fn)/scan/while/body/lt" source_file="/usr/local/lib/python3.8/dist-packages/trax/optimizers/trainer.py" source_line=248}
  %compare.1437 = pred[] compare(s32[] %add.2161, s32[] %constant_10606), direction=LT, metadata={op_type="lt" op_name="pmap(_multi_device_update_fn)/scan/while/body/lt" source_file="/usr/local/lib/python3.8/dist-packages/trax/optimizers/trainer.py" source_line=248}
  %constant_11863 = s32[] constant(63)
  %add.2160 = s32[] add(s32[] %subtract.351, s32[] %constant_11863), metadata={op_type="add" op_name="pmap(_multi_device_update_fn)/scan/while/body/add" source_file="/usr/local/lib/python3.8/dist-packages/trax/optimizers/trainer.py" source_line=248}
  %select.1427 = s32[] select(pred[] %compare.1437, s32[] %add.2160, s32[] %add.2161), metadata={op_type="select" op_name="pmap(_multi_device_update_fn)/scan/while/body/select" source_file="/usr/local/lib/python3.8/dist-packages/trax/optimizers/trainer.py" source_line=248}
  %dynamic-slice.422 = f32[1,16,1024]{2,1,0} dynamic-slice(f32[64,16,1024]{2,1,0} %param_4.528, s32[] %select.1427, s32[] %constant_10606, s32[] %constant_10606), dynamic_slice_sizes={1,16,1024}, metadata={op_type="dynamic_slice" op_name="pmap(_multi_device_update_fn)/scan/while/body/dynamic_slice[ slice_sizes=(1, 16, 1024) ]" source_file="/usr/local/lib/python3.8/dist-packages/trax/optimizers/trainer.py" source_line=248}
  %bitcast.807 = f32[16,1024]{1,0} bitcast(f32[1,16,1024]{2,1,0} %dynamic-slice.422), metadata={op_type="squeeze" op_name="pmap(_multi_device_update_fn)/scan/while/body/squeeze[ dimensions=(0,) ]" source_file="/usr/local/lib/python3.8/dist-packages/trax/optimizers/trainer.py" source_line=248}
  %slice.958 = f32[16,1024]{1,0} slice(f32[16,2048]{1,0} %param_1.1893), slice={[0:16], [1024:2048]}, metadata={op_type="slice" op_name="pmap(_multi_device_update_fn)/scan/while/body/slice[ limit_indices=(16, 2048)\n                                                     start_indices=(0, 1024)\n                                                     strides=None ]" source_file="/usr/local/lib/python3.8/dist-packages/trax/layers/rnn.py" source_line=65}
  %add.2159 = f32[16,1024]{1,0} add(f32[16,1024]{1,0} %bitcast.807, f32[16,1024]{1,0} %slice.958), metadata={op_type="add_any" op_name="pmap(_multi_device_update_fn)/scan/while/body/add_any" source_file="/usr/local/lib/python3.8/dist-packages/trax/fastmath/ops.py" source_line=144}
  %param_5.270 = f32[64,16,1024]{2,1,0} parameter(5)
  %dynamic-slice.426 = f32[1,16,1024]{2,1,0} dynamic-slice(f32[64,16,1024]{2,1,0} %param_5.270, s32[] %select.1427, s32[] %constant_10606, s32[] %constant_10606), dynamic_slice_sizes={1,16,1024}, metadata={op_type="dynamic_slice" op_name="pmap(_multi_device_update_fn)/scan/while/body/dynamic_slice[ slice_sizes=(1, 16, 1024) ]" source_file="/usr/local/lib/python3.8/dist-packages/trax/optimizers/trainer.py" source_line=248}
  %bitcast.811 = f32[16,1024]{1,0} bitcast(f32[1,16,1024]{2,1,0} %dynamic-slice.426), metadata={op_type="squeeze" op_name="pmap(_multi_device_update_fn)/scan/while/body/squeeze[ dimensions=(0,) ]" source_file="/usr/local/lib/python3.8/dist-packages/trax/optimizers/trainer.py" source_line=248}
  %multiply.800 = f32[16,1024]{1,0} multiply(f32[16,1024]{1,0} %add.2159, f32[16,1024]{1,0} %bitcast.811), metadata={op_type="mul" op_name="pmap(_multi_device_update_fn)/scan/while/body/mul" source_file="/usr/local/lib/python3.8/dist-packages/trax/layers/rnn.py" source_line=64}
  %param_0.1552 = f32[64,16,1024]{2,1,0} parameter(0)
  %dynamic-slice.293 = f32[1,16,1024]{2,1,0} dynamic-slice(f32[64,16,1024]{2,1,0} %param_0.1552, s32[] %select.1427, s32[] %constant_10606, s32[] %constant_10606), dynamic_slice_sizes={1,16,1024}, metadata={op_type="dynamic_slice" op_name="pmap(_multi_device_update_fn)/scan/while/body/dynamic_slice[ slice_sizes=(1, 16, 1024) ]" source_file="/usr/local/lib/python3.8/dist-packages/trax/optimizers/trainer.py" source_line=248}
  %bitcast.416 = f32[16,1024]{1,0} bitcast(f32[1,16,1024]{2,1,0} %dynamic-slice.293), metadata={op_type="squeeze" op_name="pmap(_multi_device_update_fn)/scan/while/body/squeeze[ dimensions=(0,) ]" source_file="/usr/local/lib/python3.8/dist-packages/trax/optimizers/trainer.py" source_line=248}
  %multiply.799 = f32[16,1024]{1,0} multiply(f32[16,1024]{1,0} %multiply.800, f32[16,1024]{1,0} %bitcast.416), metadata={op_type="mul" op_name="pmap(_multi_device_update_fn)/scan/while/body/mul" source_file="/usr/local/lib/python3.8/dist-packages/trax/layers/rnn.py" source_line=64}
  %add.1767 = f32[16,1024]{1,0} add(f32[16,1024]{1,0} %slice.820, f32[16,1024]{1,0} %multiply.799), metadata={op_type="add_any" op_name="pmap(_multi_device_update_fn)/scan/while/body/add_any" source_file="/usr/local/lib/python3.8/dist-packages/trax/fastmath/ops.py" source_line=144}
  %param_3.1255 = f32[64,16,1024]{2,1,0} parameter(3)
  %dynamic-slice.418 = f32[1,16,1024]{2,1,0} dynamic-slice(f32[64,16,1024]{2,1,0} %param_3.1255, s32[] %select.1427, s32[] %constant_10606, s32[] %constant_10606), dynamic_slice_sizes={1,16,1024}, metadata={op_type="dynamic_slice" op_name="pmap(_multi_device_update_fn)/scan/while/body/dynamic_slice[ slice_sizes=(1, 16, 1024) ]" source_file="/usr/local/lib/python3.8/dist-packages/trax/optimizers/trainer.py" source_line=248}
  %bitcast.803 = f32[16,1024]{1,0} bitcast(f32[1,16,1024]{2,1,0} %dynamic-slice.418), metadata={op_type="squeeze" op_name="pmap(_multi_device_update_fn)/scan/while/body/squeeze[ dimensions=(0,) ]" source_file="/usr/local/lib/python3.8/dist-packages/trax/optimizers/trainer.py" source_line=248}
  %multiply.798 = f32[16,1024]{1,0} multiply(f32[16,1024]{1,0} %multiply.799, f32[16,1024]{1,0} %bitcast.803), metadata={op_type="mul" op_name="pmap(_multi_device_update_fn)/scan/while/body/mul" source_file="/usr/local/lib/python3.8/dist-packages/trax/layers/rnn.py" source_line=64}
  ROOT %add.1766 = f32[16,1024]{1,0} add(f32[16,1024]{1,0} %add.1767, f32[16,1024]{1,0} %multiply.798), metadata={op_type="add_any" op_name="pmap(_multi_device_update_fn)/scan/while/body/add_any" source_file="/usr/local/lib/python3.8/dist-packages/trax/fastmath/ops.py" source_line=144}
}

%fused_computation.9 (param_0.18: f32[64,16,2048], param_1.1864: s32[], param_2.2315: f32[16,1024], param_3.2072: f32[64,16,1024], param_4.1062: f32[16,2048]) -> (f32[16,2048], f32[16,2048]) {
  %param_0.18 = f32[64,16,2048]{2,1,0} parameter(0)
  %constant_11795 = s32[] constant(64), metadata={op_type="sub" op_name="pmap(_multi_device_update_fn)/scan/while/body/sub" source_file="/usr/local/lib/python3.8/dist-packages/trax/optimizers/trainer.py" source_line=248}
  %param_1.1864 = s32[] parameter(1)
  %subtract.325 = s32[] subtract(s32[] %constant_11795, s32[] %param_1.1864), metadata={op_type="sub" op_name="pmap(_multi_device_update_fn)/scan/while/body/sub" source_file="/usr/local/lib/python3.8/dist-packages/trax/optimizers/trainer.py" source_line=248}
  %constant_11794 = s32[] constant(-1)
  %add.2097 = s32[] add(s32[] %subtract.325, s32[] %constant_11794), metadata={op_type="sub" op_name="pmap(_multi_device_update_fn)/scan/while/body/sub" source_file="/usr/local/lib/python3.8/dist-packages/trax/optimizers/trainer.py" source_line=248}
  %constant_10614 = s32[] constant(0), metadata={op_type="lt" op_name="pmap(_multi_device_update_fn)/scan/while/body/lt" source_file="/usr/local/lib/python3.8/dist-packages/trax/optimizers/trainer.py" source_line=248}
  %compare.1407 = pred[] compare(s32[] %add.2097, s32[] %constant_10614), direction=LT, metadata={op_type="lt" op_name="pmap(_multi_device_update_fn)/scan/while/body/lt" source_file="/usr/local/lib/python3.8/dist-packages/trax/optimizers/trainer.py" source_line=248}
  %constant_11791 = s32[] constant(63)
  %add.2096 = s32[] add(s32[] %subtract.325, s32[] %constant_11791), metadata={op_type="add" op_name="pmap(_multi_device_update_fn)/scan/while/body/add" source_file="/usr/local/lib/python3.8/dist-packages/trax/optimizers/trainer.py" source_line=248}
  %select.1397 = s32[] select(pred[] %compare.1407, s32[] %add.2096, s32[] %add.2097), metadata={op_type="select" op_name="pmap(_multi_device_update_fn)/scan/while/body/select" source_file="/usr/local/lib/python3.8/dist-packages/trax/optimizers/trainer.py" source_line=248}
  %dynamic-slice.297 = f32[1,16,2048]{2,1,0} dynamic-slice(f32[64,16,2048]{2,1,0} %param_0.18, s32[] %select.1397, s32[] %constant_10614, s32[] %constant_10614), dynamic_slice_sizes={1,16,2048}, metadata={op_type="dynamic_slice" op_name="pmap(_multi_device_update_fn)/scan/while/body/dynamic_slice[ slice_sizes=(1, 16, 2048) ]" source_file="/usr/local/lib/python3.8/dist-packages/trax/optimizers/trainer.py" source_line=248}
  %bitcast.420 = f32[16,2048]{1,0} bitcast(f32[1,16,2048]{2,1,0} %dynamic-slice.297), metadata={op_type="squeeze" op_name="pmap(_multi_device_update_fn)/scan/while/body/squeeze[ dimensions=(0,) ]" source_file="/usr/local/lib/python3.8/dist-packages/trax/optimizers/trainer.py" source_line=248}
  %param_4.1062 = f32[16,2048]{1,0} parameter(4)
  %slice.819.clone.1 = f32[16,1024]{1,0} slice(f32[16,2048]{1,0} %param_4.1062), slice={[0:16], [1024:2048]}, metadata={op_type="slice" op_name="pmap(_multi_device_update_fn)/scan/while/body/slice[ limit_indices=(16, 2048)\n                                                     start_indices=(0, 1024)\n                                                     strides=None ]" source_file="/usr/local/lib/python3.8/dist-packages/trax/layers/rnn.py" source_line=58}
  %constant_10595_clone_1 = f32[] constant(0), metadata={op_type="pad" op_name="pmap(_multi_device_update_fn)/scan/while/body/pad[ padding_config=((0, 0, 0), (3072, 0, 0)) ]" source_file="/usr/local/lib/python3.8/dist-packages/trax/layers/rnn.py" source_line=61}
  %pad.123.clone.1 = f32[16,2048]{1,0} pad(f32[16,1024]{1,0} %slice.819.clone.1, f32[] %constant_10595_clone_1), padding=0_0x1024_0, metadata={op_type="pad" op_name="pmap(_multi_device_update_fn)/scan/while/body/pad[ padding_config=((0, 0, 0), (1024, 0, 0)) ]" source_file="/usr/local/lib/python3.8/dist-packages/trax/layers/rnn.py" source_line=54}
  %param_2.2315 = f32[16,1024]{1,0} parameter(2)
  %param_3.2072 = f32[64,16,1024]{2,1,0} parameter(3)
  %dynamic-slice.414.clone.1 = f32[1,16,1024]{2,1,0} dynamic-slice(f32[64,16,1024]{2,1,0} %param_3.2072, s32[] %select.1397, s32[] %constant_10614, s32[] %constant_10614), dynamic_slice_sizes={1,16,1024}, metadata={op_type="dynamic_slice" op_name="pmap(_multi_device_update_fn)/scan/while/body/dynamic_slice[ slice_sizes=(1, 16, 1024) ]" source_file="/usr/local/lib/python3.8/dist-packages/trax/optimizers/trainer.py" source_line=248}
  %bitcast.799.clone.1 = f32[16,1024]{1,0} bitcast(f32[1,16,1024]{2,1,0} %dynamic-slice.414.clone.1), metadata={op_type="squeeze" op_name="pmap(_multi_device_update_fn)/scan/while/body/squeeze[ dimensions=(0,) ]" source_file="/usr/local/lib/python3.8/dist-packages/trax/optimizers/trainer.py" source_line=248}
  %multiply.785.clone.1 = f32[16,1024]{1,0} multiply(f32[16,1024]{1,0} %param_2.2315, f32[16,1024]{1,0} %bitcast.799.clone.1), metadata={op_type="mul" op_name="pmap(_multi_device_update_fn)/scan/while/body/mul" source_file="/usr/local/lib/python3.8/dist-packages/trax/layers/rnn.py" source_line=63}
  %pad.122.clone.1 = f32[16,2048]{1,0} pad(f32[16,1024]{1,0} %multiply.785.clone.1, f32[] %constant_10595_clone_1), padding=0_0x0_1024, metadata={op_type="pad" op_name="pmap(_multi_device_update_fn)/scan/while/body/pad[ padding_config=((0, 0, 0), (0, 1024, 0)) ]" source_file="/usr/local/lib/python3.8/dist-packages/trax/layers/rnn.py" source_line=54}
  %add.1760.clone.1 = f32[16,2048]{1,0} add(f32[16,2048]{1,0} %pad.123.clone.1, f32[16,2048]{1,0} %pad.122.clone.1), metadata={op_type="add_any" op_name="pmap(_multi_device_update_fn)/scan/while/body/add_any" source_file="/usr/local/lib/python3.8/dist-packages/trax/fastmath/ops.py" source_line=144}
  ROOT %tuple.465 = (f32[16,2048]{1,0}, f32[16,2048]{1,0}) tuple(f32[16,2048]{1,0} %bitcast.420, f32[16,2048]{1,0} %add.1760.clone.1)
}

%body_computation__45.7767.clone.clone (parameter.63: (f32[64,16,1024], f32[64,16,1024], f32[64,16,1024], f32[64,16,2048], f32[64,16,1024], /*index=5*/f32[64,16,1024], f32[64,16,1024], f32[64,16,1024], f32[64,16,1024], f32[64,16,1024], /*index=10*/f32[64,16,1024], f32[64,16,1024], f32[64,16,1024], f32[2048,4096], s32[], /*index=15*/f32[2048,4096], f32[4096], f32[16,2048], f32[64,16,1024])) -> (f32[64,16,1024], f32[64,16,1024], f32[64,16,1024], f32[64,16,2048], f32[64,16,1024], /*index=5*/f32[64,16,1024], f32[64,16,1024], f32[64,16,1024], f32[64,16,1024], f32[64,16,1024], /*index=10*/f32[64,16,1024], f32[64,16,1024], f32[64,16,1024], f32[2048,4096], s32[], /*index=15*/f32[2048,4096], f32[4096], f32[16,2048], f32[64,16,1024]) {
  %parameter.63 = (f32[64,16,1024]{2,1,0}, f32[64,16,1024]{2,1,0}, f32[64,16,1024]{2,1,0}, f32[64,16,2048]{2,1,0}, f32[64,16,1024]{2,1,0}, /*index=5*/f32[64,16,1024]{2,1,0}, f32[64,16,1024]{2,1,0}, f32[64,16,1024]{2,1,0}, f32[64,16,1024]{2,1,0}, f32[64,16,1024]{2,1,0}, /*index=10*/f32[64,16,1024]{2,1,0}, f32[64,16,1024]{2,1,0}, f32[64,16,1024]{2,1,0}, f32[2048,4096]{1,0}, s32[], /*index=15*/f32[2048,4096]{1,0}, f32[4096]{0}, f32[16,2048]{1,0}, f32[64,16,1024]{2,1,0}) parameter(0)
  %get-tuple-element.6336 = f32[64,16,1024]{2,1,0} get-tuple-element((f32[64,16,1024]{2,1,0}, f32[64,16,1024]{2,1,0}, f32[64,16,1024]{2,1,0}, f32[64,16,2048]{2,1,0}, f32[64,16,1024]{2,1,0}, /*index=5*/f32[64,16,1024]{2,1,0}, f32[64,16,1024]{2,1,0}, f32[64,16,1024]{2,1,0}, f32[64,16,1024]{2,1,0}, f32[64,16,1024]{2,1,0}, /*index=10*/f32[64,16,1024]{2,1,0}, f32[64,16,1024]{2,1,0}, f32[64,16,1024]{2,1,0}, f32[2048,4096]{1,0}, s32[], /*index=15*/f32[2048,4096]{1,0}, f32[4096]{0}, f32[16,2048]{1,0}, f32[64,16,1024]{2,1,0}) %parameter.63), index=0
  %get-tuple-element.6337 = f32[64,16,1024]{2,1,0} get-tuple-element((f32[64,16,1024]{2,1,0}, f32[64,16,1024]{2,1,0}, f32[64,16,1024]{2,1,0}, f32[64,16,2048]{2,1,0}, f32[64,16,1024]{2,1,0}, /*index=5*/f32[64,16,1024]{2,1,0}, f32[64,16,1024]{2,1,0}, f32[64,16,1024]{2,1,0}, f32[64,16,1024]{2,1,0}, f32[64,16,1024]{2,1,0}, /*index=10*/f32[64,16,1024]{2,1,0}, f32[64,16,1024]{2,1,0}, f32[64,16,1024]{2,1,0}, f32[2048,4096]{1,0}, s32[], /*index=15*/f32[2048,4096]{1,0}, f32[4096]{0}, f32[16,2048]{1,0}, f32[64,16,1024]{2,1,0}) %parameter.63), index=1
  %get-tuple-element.6338 = f32[64,16,1024]{2,1,0} get-tuple-element((f32[64,16,1024]{2,1,0}, f32[64,16,1024]{2,1,0}, f32[64,16,1024]{2,1,0}, f32[64,16,2048]{2,1,0}, f32[64,16,1024]{2,1,0}, /*index=5*/f32[64,16,1024]{2,1,0}, f32[64,16,1024]{2,1,0}, f32[64,16,1024]{2,1,0}, f32[64,16,1024]{2,1,0}, f32[64,16,1024]{2,1,0}, /*index=10*/f32[64,16,1024]{2,1,0}, f32[64,16,1024]{2,1,0}, f32[64,16,1024]{2,1,0}, f32[2048,4096]{1,0}, s32[], /*index=15*/f32[2048,4096]{1,0}, f32[4096]{0}, f32[16,2048]{1,0}, f32[64,16,1024]{2,1,0}) %parameter.63), index=2
  %get-tuple-element.6339 = f32[64,16,2048]{2,1,0} get-tuple-element((f32[64,16,1024]{2,1,0}, f32[64,16,1024]{2,1,0}, f32[64,16,1024]{2,1,0}, f32[64,16,2048]{2,1,0}, f32[64,16,1024]{2,1,0}, /*index=5*/f32[64,16,1024]{2,1,0}, f32[64,16,1024]{2,1,0}, f32[64,16,1024]{2,1,0}, f32[64,16,1024]{2,1,0}, f32[64,16,1024]{2,1,0}, /*index=10*/f32[64,16,1024]{2,1,0}, f32[64,16,1024]{2,1,0}, f32[64,16,1024]{2,1,0}, f32[2048,4096]{1,0}, s32[], /*index=15*/f32[2048,4096]{1,0}, f32[4096]{0}, f32[16,2048]{1,0}, f32[64,16,1024]{2,1,0}) %parameter.63), index=3
  %get-tuple-element.6340 = f32[64,16,1024]{2,1,0} get-tuple-element((f32[64,16,1024]{2,1,0}, f32[64,16,1024]{2,1,0}, f32[64,16,1024]{2,1,0}, f32[64,16,2048]{2,1,0}, f32[64,16,1024]{2,1,0}, /*index=5*/f32[64,16,1024]{2,1,0}, f32[64,16,1024]{2,1,0}, f32[64,16,1024]{2,1,0}, f32[64,16,1024]{2,1,0}, f32[64,16,1024]{2,1,0}, /*index=10*/f32[64,16,1024]{2,1,0}, f32[64,16,1024]{2,1,0}, f32[64,16,1024]{2,1,0}, f32[2048,4096]{1,0}, s32[], /*index=15*/f32[2048,4096]{1,0}, f32[4096]{0}, f32[16,2048]{1,0}, f32[64,16,1024]{2,1,0}) %parameter.63), index=4
  %get-tuple-element.6341 = f32[64,16,1024]{2,1,0} get-tuple-element((f32[64,16,1024]{2,1,0}, f32[64,16,1024]{2,1,0}, f32[64,16,1024]{2,1,0}, f32[64,16,2048]{2,1,0}, f32[64,16,1024]{2,1,0}, /*index=5*/f32[64,16,1024]{2,1,0}, f32[64,16,1024]{2,1,0}, f32[64,16,1024]{2,1,0}, f32[64,16,1024]{2,1,0}, f32[64,16,1024]{2,1,0}, /*index=10*/f32[64,16,1024]{2,1,0}, f32[64,16,1024]{2,1,0}, f32[64,16,1024]{2,1,0}, f32[2048,4096]{1,0}, s32[], /*index=15*/f32[2048,4096]{1,0}, f32[4096]{0}, f32[16,2048]{1,0}, f32[64,16,1024]{2,1,0}) %parameter.63), index=5
  %get-tuple-element.6342 = f32[64,16,1024]{2,1,0} get-tuple-element((f32[64,16,1024]{2,1,0}, f32[64,16,1024]{2,1,0}, f32[64,16,1024]{2,1,0}, f32[64,16,2048]{2,1,0}, f32[64,16,1024]{2,1,0}, /*index=5*/f32[64,16,1024]{2,1,0}, f32[64,16,1024]{2,1,0}, f32[64,16,1024]{2,1,0}, f32[64,16,1024]{2,1,0}, f32[64,16,1024]{2,1,0}, /*index=10*/f32[64,16,1024]{2,1,0}, f32[64,16,1024]{2,1,0}, f32[64,16,1024]{2,1,0}, f32[2048,4096]{1,0}, s32[], /*index=15*/f32[2048,4096]{1,0}, f32[4096]{0}, f32[16,2048]{1,0}, f32[64,16,1024]{2,1,0}) %parameter.63), index=6
  %get-tuple-element.6343 = f32[64,16,1024]{2,1,0} get-tuple-element((f32[64,16,1024]{2,1,0}, f32[64,16,1024]{2,1,0}, f32[64,16,1024]{2,1,0}, f32[64,16,2048]{2,1,0}, f32[64,16,1024]{2,1,0}, /*index=5*/f32[64,16,1024]{2,1,0}, f32[64,16,1024]{2,1,0}, f32[64,16,1024]{2,1,0}, f32[64,16,1024]{2,1,0}, f32[64,16,1024]{2,1,0}, /*index=10*/f32[64,16,1024]{2,1,0}, f32[64,16,1024]{2,1,0}, f32[64,16,1024]{2,1,0}, f32[2048,4096]{1,0}, s32[], /*index=15*/f32[2048,4096]{1,0}, f32[4096]{0}, f32[16,2048]{1,0}, f32[64,16,1024]{2,1,0}) %parameter.63), index=7
  %get-tuple-element.6344 = f32[64,16,1024]{2,1,0} get-tuple-element((f32[64,16,1024]{2,1,0}, f32[64,16,1024]{2,1,0}, f32[64,16,1024]{2,1,0}, f32[64,16,2048]{2,1,0}, f32[64,16,1024]{2,1,0}, /*index=5*/f32[64,16,1024]{2,1,0}, f32[64,16,1024]{2,1,0}, f32[64,16,1024]{2,1,0}, f32[64,16,1024]{2,1,0}, f32[64,16,1024]{2,1,0}, /*index=10*/f32[64,16,1024]{2,1,0}, f32[64,16,1024]{2,1,0}, f32[64,16,1024]{2,1,0}, f32[2048,4096]{1,0}, s32[], /*index=15*/f32[2048,4096]{1,0}, f32[4096]{0}, f32[16,2048]{1,0}, f32[64,16,1024]{2,1,0}) %parameter.63), index=8
  %get-tuple-element.6345 = f32[64,16,1024]{2,1,0} get-tuple-element((f32[64,16,1024]{2,1,0}, f32[64,16,1024]{2,1,0}, f32[64,16,1024]{2,1,0}, f32[64,16,2048]{2,1,0}, f32[64,16,1024]{2,1,0}, /*index=5*/f32[64,16,1024]{2,1,0}, f32[64,16,1024]{2,1,0}, f32[64,16,1024]{2,1,0}, f32[64,16,1024]{2,1,0}, f32[64,16,1024]{2,1,0}, /*index=10*/f32[64,16,1024]{2,1,0}, f32[64,16,1024]{2,1,0}, f32[64,16,1024]{2,1,0}, f32[2048,4096]{1,0}, s32[], /*index=15*/f32[2048,4096]{1,0}, f32[4096]{0}, f32[16,2048]{1,0}, f32[64,16,1024]{2,1,0}) %parameter.63), index=9
  %get-tuple-element.6346 = f32[64,16,1024]{2,1,0} get-tuple-element((f32[64,16,1024]{2,1,0}, f32[64,16,1024]{2,1,0}, f32[64,16,1024]{2,1,0}, f32[64,16,2048]{2,1,0}, f32[64,16,1024]{2,1,0}, /*index=5*/f32[64,16,1024]{2,1,0}, f32[64,16,1024]{2,1,0}, f32[64,16,1024]{2,1,0}, f32[64,16,1024]{2,1,0}, f32[64,16,1024]{2,1,0}, /*index=10*/f32[64,16,1024]{2,1,0}, f32[64,16,1024]{2,1,0}, f32[64,16,1024]{2,1,0}, f32[2048,4096]{1,0}, s32[], /*index=15*/f32[2048,4096]{1,0}, f32[4096]{0}, f32[16,2048]{1,0}, f32[64,16,1024]{2,1,0}) %parameter.63), index=10
  %get-tuple-element.6347 = f32[64,16,1024]{2,1,0} get-tuple-element((f32[64,16,1024]{2,1,0}, f32[64,16,1024]{2,1,0}, f32[64,16,1024]{2,1,0}, f32[64,16,2048]{2,1,0}, f32[64,16,1024]{2,1,0}, /*index=5*/f32[64,16,1024]{2,1,0}, f32[64,16,1024]{2,1,0}, f32[64,16,1024]{2,1,0}, f32[64,16,1024]{2,1,0}, f32[64,16,1024]{2,1,0}, /*index=10*/f32[64,16,1024]{2,1,0}, f32[64,16,1024]{2,1,0}, f32[64,16,1024]{2,1,0}, f32[2048,4096]{1,0}, s32[], /*index=15*/f32[2048,4096]{1,0}, f32[4096]{0}, f32[16,2048]{1,0}, f32[64,16,1024]{2,1,0}) %parameter.63), index=11
  %get-tuple-element.6349 = f32[64,16,1024]{2,1,0} get-tuple-element((f32[64,16,1024]{2,1,0}, f32[64,16,1024]{2,1,0}, f32[64,16,1024]{2,1,0}, f32[64,16,2048]{2,1,0}, f32[64,16,1024]{2,1,0}, /*index=5*/f32[64,16,1024]{2,1,0}, f32[64,16,1024]{2,1,0}, f32[64,16,1024]{2,1,0}, f32[64,16,1024]{2,1,0}, f32[64,16,1024]{2,1,0}, /*index=10*/f32[64,16,1024]{2,1,0}, f32[64,16,1024]{2,1,0}, f32[64,16,1024]{2,1,0}, f32[2048,4096]{1,0}, s32[], /*index=15*/f32[2048,4096]{1,0}, f32[4096]{0}, f32[16,2048]{1,0}, f32[64,16,1024]{2,1,0}) %parameter.63), index=12
  %get-tuple-element.6350 = f32[2048,4096]{1,0} get-tuple-element((f32[64,16,1024]{2,1,0}, f32[64,16,1024]{2,1,0}, f32[64,16,1024]{2,1,0}, f32[64,16,2048]{2,1,0}, f32[64,16,1024]{2,1,0}, /*index=5*/f32[64,16,1024]{2,1,0}, f32[64,16,1024]{2,1,0}, f32[64,16,1024]{2,1,0}, f32[64,16,1024]{2,1,0}, f32[64,16,1024]{2,1,0}, /*index=10*/f32[64,16,1024]{2,1,0}, f32[64,16,1024]{2,1,0}, f32[64,16,1024]{2,1,0}, f32[2048,4096]{1,0}, s32[], /*index=15*/f32[2048,4096]{1,0}, f32[4096]{0}, f32[16,2048]{1,0}, f32[64,16,1024]{2,1,0}) %parameter.63), index=13
  %get-tuple-element.6354 = f32[16,2048]{1,0} get-tuple-element((f32[64,16,1024]{2,1,0}, f32[64,16,1024]{2,1,0}, f32[64,16,1024]{2,1,0}, f32[64,16,2048]{2,1,0}, f32[64,16,1024]{2,1,0}, /*index=5*/f32[64,16,1024]{2,1,0}, f32[64,16,1024]{2,1,0}, f32[64,16,1024]{2,1,0}, f32[64,16,1024]{2,1,0}, f32[64,16,1024]{2,1,0}, /*index=10*/f32[64,16,1024]{2,1,0}, f32[64,16,1024]{2,1,0}, f32[64,16,1024]{2,1,0}, f32[2048,4096]{1,0}, s32[], /*index=15*/f32[2048,4096]{1,0}, f32[4096]{0}, f32[16,2048]{1,0}, f32[64,16,1024]{2,1,0}) %parameter.63), index=17
  %get-tuple-element.6351 = s32[] get-tuple-element((f32[64,16,1024]{2,1,0}, f32[64,16,1024]{2,1,0}, f32[64,16,1024]{2,1,0}, f32[64,16,2048]{2,1,0}, f32[64,16,1024]{2,1,0}, /*index=5*/f32[64,16,1024]{2,1,0}, f32[64,16,1024]{2,1,0}, f32[64,16,1024]{2,1,0}, f32[64,16,1024]{2,1,0}, f32[64,16,1024]{2,1,0}, /*index=10*/f32[64,16,1024]{2,1,0}, f32[64,16,1024]{2,1,0}, f32[64,16,1024]{2,1,0}, f32[2048,4096]{1,0}, s32[], /*index=15*/f32[2048,4096]{1,0}, f32[4096]{0}, f32[16,2048]{1,0}, f32[64,16,1024]{2,1,0}) %parameter.63), index=14
  %fusion.5 = f32[16,1024]{1,0} fusion(f32[64,16,1024]{2,1,0} %get-tuple-element.6346, f32[16,2048]{1,0} %get-tuple-element.6354, s32[] %get-tuple-element.6351, f32[64,16,1024]{2,1,0} %get-tuple-element.6345, f32[64,16,1024]{2,1,0} %get-tuple-element.6336, /*index=5*/f32[64,16,1024]{2,1,0} %get-tuple-element.6347), kind=kLoop, calls=%fused_computation.5, metadata={op_type="add_any" op_name="pmap(_multi_device_update_fn)/scan/while/body/add_any" source_file="/usr/local/lib/python3.8/dist-packages/trax/fastmath/ops.py" source_line=144}
  %fusion.3 = f32[16,4096]{1,0} fusion(f32[64,16,1024]{2,1,0} %get-tuple-element.6340, f32[16,1024]{1,0} %fusion.5, f32[64,16,1024]{2,1,0} %get-tuple-element.6338, f32[64,16,1024]{2,1,0} %get-tuple-element.6342, f32[64,16,1024]{2,1,0} %get-tuple-element.6343, /*index=5*/f32[64,16,1024]{2,1,0} %get-tuple-element.6344, f32[64,16,1024]{2,1,0} %get-tuple-element.6341, f32[64,16,1024]{2,1,0} %get-tuple-element.6349, s32[] %get-tuple-element.6351, f32[64,16,1024]{2,1,0} %get-tuple-element.6337, /*index=10*/f32[64,16,1024]{2,1,0} %get-tuple-element.6345, f32[16,2048]{1,0} %get-tuple-element.6354, f32[64,16,1024]{2,1,0} %get-tuple-element.6336, f32[64,16,1024]{2,1,0} %get-tuple-element.6347), kind=kLoop, calls=%fused_computation.3, metadata={op_type="add_any" op_name="pmap(_multi_device_update_fn)/scan/while/body/add_any" source_file="/usr/local/lib/python3.8/dist-packages/trax/fastmath/ops.py" source_line=144}
  %custom-call.94 = f32[16,2048]{1,0} custom-call(f32[16,4096]{1,0} %fusion.3, f32[2048,4096]{1,0} %get-tuple-element.6350), custom_call_target="__cublas$gemm", metadata={op_type="dot_general" op_name="pmap(_multi_device_update_fn)/scan/while/body/dot_general[ dimension_numbers=(((1,), (1,)), ((), ()))\n                                                           precision=None\n                                                           preferred_element_type=None ]" source_file="/usr/local/lib/python3.8/dist-packages/trax/layers/rnn.py" source_line=58}, backend_config="{\"alpha_real\":1,\"alpha_imag\":0,\"beta\":0,\"dot_dimension_numbers\":{\"lhs_contracting_dimensions\":[\"1\"],\"rhs_contracting_dimensions\":[\"1\"],\"lhs_batch_dimensions\":[],\"rhs_batch_dimensions\":[]},\"batch_size\":\"1\",\"selected_algorithm\":\"-1\"}"
  %fusion.9 = (f32[16,2048]{1,0}, f32[16,2048]{1,0}) fusion(f32[64,16,2048]{2,1,0} %get-tuple-element.6339, s32[] %get-tuple-element.6351, f32[16,1024]{1,0} %fusion.5, f32[64,16,1024]{2,1,0} %get-tuple-element.6337, f32[16,2048]{1,0} %custom-call.94), kind=kLoop, calls=%fused_computation.9, control-predecessors={%fusion.5, %fusion.3}, metadata={op_type="squeeze" op_name="pmap(_multi_device_update_fn)/scan/while/body/squeeze[ dimensions=(0,) ]" source_file="/usr/local/lib/python3.8/dist-packages/trax/optimizers/trainer.py" source_line=248}
  %get-tuple-element.6355 = f32[64,16,1024]{2,1,0} get-tuple-element((f32[64,16,1024]{2,1,0}, f32[64,16,1024]{2,1,0}, f32[64,16,1024]{2,1,0}, f32[64,16,2048]{2,1,0}, f32[64,16,1024]{2,1,0}, /*index=5*/f32[64,16,1024]{2,1,0}, f32[64,16,1024]{2,1,0}, f32[64,16,1024]{2,1,0}, f32[64,16,1024]{2,1,0}, f32[64,16,1024]{2,1,0}, /*index=10*/f32[64,16,1024]{2,1,0}, f32[64,16,1024]{2,1,0}, f32[64,16,1024]{2,1,0}, f32[2048,4096]{1,0}, s32[], /*index=15*/f32[2048,4096]{1,0}, f32[4096]{0}, f32[16,2048]{1,0}, f32[64,16,1024]{2,1,0}) %parameter.63), index=18
  %fusion = f32[64,16,1024]{2,1,0} fusion(f32[64,16,1024]{2,1,0} %get-tuple-element.6355, f32[16,2048]{1,0} %custom-call.94, s32[] %get-tuple-element.6351), kind=kLoop, calls=%fused_computation, metadata={op_type="dynamic_update_slice" op_name="pmap(_multi_device_update_fn)/scan/while/body/dynamic_update_slice" source_file="/usr/local/lib/python3.8/dist-packages/trax/optimizers/trainer.py" source_line=248}
  %constant_8369 = s32[] constant(1), metadata={op_type="add" op_name="pmap(_multi_device_update_fn)/scan/while/body/add" source_file="/usr/local/lib/python3.8/dist-packages/trax/optimizers/trainer.py" source_line=248}
  %add.1210 = s32[] add(s32[] %get-tuple-element.6351, s32[] %constant_8369), control-predecessors={%fusion, %fusion.9, %fusion.5, %fusion.3}, metadata={op_type="add" op_name="pmap(_multi_device_update_fn)/scan/while/body/add" source_file="/usr/local/lib/python3.8/dist-packages/trax/optimizers/trainer.py" source_line=248}
  %get-tuple-element.5036 = f32[16,2048]{1,0} get-tuple-element((f32[16,2048]{1,0}, f32[16,2048]{1,0}) %fusion.9), index=0
  %get-tuple-element.6352 = f32[2048,4096]{1,0} get-tuple-element((f32[64,16,1024]{2,1,0}, f32[64,16,1024]{2,1,0}, f32[64,16,1024]{2,1,0}, f32[64,16,2048]{2,1,0}, f32[64,16,1024]{2,1,0}, /*index=5*/f32[64,16,1024]{2,1,0}, f32[64,16,1024]{2,1,0}, f32[64,16,1024]{2,1,0}, f32[64,16,1024]{2,1,0}, f32[64,16,1024]{2,1,0}, /*index=10*/f32[64,16,1024]{2,1,0}, f32[64,16,1024]{2,1,0}, f32[64,16,1024]{2,1,0}, f32[2048,4096]{1,0}, s32[], /*index=15*/f32[2048,4096]{1,0}, f32[4096]{0}, f32[16,2048]{1,0}, f32[64,16,1024]{2,1,0}) %parameter.63), index=15
  %custom-call.93 = f32[2048,4096]{1,0} custom-call(f32[16,2048]{1,0} %get-tuple-element.5036, f32[16,4096]{1,0} %fusion.3, f32[2048,4096]{1,0} %get-tuple-element.6352), custom_call_target="__cublas$gemm", metadata={op_type="add_any" op_name="pmap(_multi_device_update_fn)/scan/while/body/add_any" source_file="/usr/local/lib/python3.8/dist-packages/trax/fastmath/ops.py" source_line=144}, backend_config="{\"alpha_real\":1,\"alpha_imag\":0,\"beta\":1,\"dot_dimension_numbers\":{\"lhs_contracting_dimensions\":[\"0\"],\"rhs_contracting_dimensions\":[\"0\"],\"lhs_batch_dimensions\":[],\"rhs_batch_dimensions\":[]},\"batch_size\":\"1\",\"selected_algorithm\":\"4\"}"
  %get-tuple-element.6353 = f32[4096]{0} get-tuple-element((f32[64,16,1024]{2,1,0}, f32[64,16,1024]{2,1,0}, f32[64,16,1024]{2,1,0}, f32[64,16,2048]{2,1,0}, f32[64,16,1024]{2,1,0}, /*index=5*/f32[64,16,1024]{2,1,0}, f32[64,16,1024]{2,1,0}, f32[64,16,1024]{2,1,0}, f32[64,16,1024]{2,1,0}, f32[64,16,1024]{2,1,0}, /*index=10*/f32[64,16,1024]{2,1,0}, f32[64,16,1024]{2,1,0}, f32[64,16,1024]{2,1,0}, f32[2048,4096]{1,0}, s32[], /*index=15*/f32[2048,4096]{1,0}, f32[4096]{0}, f32[16,2048]{1,0}, f32[64,16,1024]{2,1,0}) %parameter.63), index=16
  %fusion.2 = f32[4096]{0} fusion(f32[4096]{0} %get-tuple-element.6353, f32[16,4096]{1,0} %fusion.3), kind=kLoop, calls=%fused_computation.2, metadata={op_type="add_any" op_name="pmap(_multi_device_update_fn)/scan/while/body/add_any" source_file="/usr/local/lib/python3.8/dist-packages/trax/fastmath/ops.py" source_line=144}
  %get-tuple-element.5037 = f32[16,2048]{1,0} get-tuple-element((f32[16,2048]{1,0}, f32[16,2048]{1,0}) %fusion.9), index=1
  ROOT %tuple.814 = (f32[64,16,1024]{2,1,0}, f32[64,16,1024]{2,1,0}, f32[64,16,1024]{2,1,0}, f32[64,16,2048]{2,1,0}, f32[64,16,1024]{2,1,0}, /*index=5*/f32[64,16,1024]{2,1,0}, f32[64,16,1024]{2,1,0}, f32[64,16,1024]{2,1,0}, f32[64,16,1024]{2,1,0}, f32[64,16,1024]{2,1,0}, /*index=10*/f32[64,16,1024]{2,1,0}, f32[64,16,1024]{2,1,0}, f32[64,16,1024]{2,1,0}, f32[2048,4096]{1,0}, s32[], /*index=15*/f32[2048,4096]{1,0}, f32[4096]{0}, f32[16,2048]{1,0}, f32[64,16,1024]{2,1,0}) tuple(f32[64,16,1024]{2,1,0} %get-tuple-element.6336, f32[64,16,1024]{2,1,0} %get-tuple-element.6337, f32[64,16,1024]{2,1,0} %get-tuple-element.6338, f32[64,16,2048]{2,1,0} %get-tuple-element.6339, f32[64,16,1024]{2,1,0} %get-tuple-element.6340, /*index=5*/f32[64,16,1024]{2,1,0} %get-tuple-element.6341, f32[64,16,1024]{2,1,0} %get-tuple-element.6342, f32[64,16,1024]{2,1,0} %get-tuple-element.6343, f32[64,16,1024]{2,1,0} %get-tuple-element.6344, f32[64,16,1024]{2,1,0} %get-tuple-element.6345, /*index=10*/f32[64,16,1024]{2,1,0} %get-tuple-element.6346, f32[64,16,1024]{2,1,0} %get-tuple-element.6347, f32[64,16,1024]{2,1,0} %get-tuple-element.6349, f32[2048,4096]{1,0} %get-tuple-element.6350, s32[] %add.1210, /*index=15*/f32[2048,4096]{1,0} %custom-call.93, f32[4096]{0} %fusion.2, f32[16,2048]{1,0} %get-tuple-element.5037, f32[64,16,1024]{2,1,0} %fusion)
}

%cond_computation__45.8178.clone.clone (parameter.64: (f32[64,16,1024], f32[64,16,1024], f32[64,16,1024], f32[64,16,2048], f32[64,16,1024], /*index=5*/f32[64,16,1024], f32[64,16,1024], f32[64,16,1024], f32[64,16,1024], f32[64,16,1024], /*index=10*/f32[64,16,1024], f32[64,16,1024], f32[64,16,1024], f32[2048,4096], s32[], /*index=15*/f32[2048,4096], f32[4096], f32[16,2048], f32[64,16,1024])) -> pred[] {
  %parameter.64 = (f32[64,16,1024]{2,1,0}, f32[64,16,1024]{2,1,0}, f32[64,16,1024]{2,1,0}, f32[64,16,2048]{2,1,0}, f32[64,16,1024]{2,1,0}, /*index=5*/f32[64,16,1024]{2,1,0}, f32[64,16,1024]{2,1,0}, f32[64,16,1024]{2,1,0}, f32[64,16,1024]{2,1,0}, f32[64,16,1024]{2,1,0}, /*index=10*/f32[64,16,1024]{2,1,0}, f32[64,16,1024]{2,1,0}, f32[64,16,1024]{2,1,0}, f32[2048,4096]{1,0}, s32[], /*index=15*/f32[2048,4096]{1,0}, f32[4096]{0}, f32[16,2048]{1,0}, f32[64,16,1024]{2,1,0}) parameter(0)
  %get-tuple-element.3306 = s32[] get-tuple-element((f32[64,16,1024]{2,1,0}, f32[64,16,1024]{2,1,0}, f32[64,16,1024]{2,1,0}, f32[64,16,2048]{2,1,0}, f32[64,16,1024]{2,1,0}, /*index=5*/f32[64,16,1024]{2,1,0}, f32[64,16,1024]{2,1,0}, f32[64,16,1024]{2,1,0}, f32[64,16,1024]{2,1,0}, f32[64,16,1024]{2,1,0}, /*index=10*/f32[64,16,1024]{2,1,0}, f32[64,16,1024]{2,1,0}, f32[64,16,1024]{2,1,0}, f32[2048,4096]{1,0}, s32[], /*index=15*/f32[2048,4096]{1,0}, f32[4096]{0}, f32[16,2048]{1,0}, f32[64,16,1024]{2,1,0}) %parameter.64), index=14
  %constant_8378 = s32[] constant(64), metadata={op_type="lt" op_name="pmap(_multi_device_update_fn)/scan/while/cond/lt" source_file="/usr/local/lib/python3.8/dist-packages/trax/optimizers/trainer.py" source_line=248}
  ROOT %compare.1107 = pred[] compare(s32[] %get-tuple-element.3306, s32[] %constant_8378), direction=LT, metadata={op_type="lt" op_name="pmap(_multi_device_update_fn)/scan/while/cond/lt" source_file="/usr/local/lib/python3.8/dist-packages/trax/optimizers/trainer.py" source_line=248}
}

%fused_computation.11 (param_0.23: f32[64,16,1024], param_1.1914: f32[16,2048], param_2.1516: s32[]) -> f32[64,16,1024] {
  %param_0.23 = f32[64,16,1024]{2,1,0} parameter(0)
  %param_1.1914 = f32[16,2048]{1,0} parameter(1)
  %slice.822 = f32[16,1024]{1,0} slice(f32[16,2048]{1,0} %param_1.1914), slice={[0:16], [0:1024]}, metadata={op_type="slice" op_name="pmap(_multi_device_update_fn)/scan/while/body/slice[ limit_indices=(16, 1024)\n                                                     start_indices=(0, 0)\n                                                     strides=None ]" source_file="/usr/local/lib/python3.8/dist-packages/trax/layers/rnn.py" source_line=58}
  %bitcast.421 = f32[1,16,1024]{2,1,0} bitcast(f32[16,1024]{1,0} %slice.822), metadata={op_type="broadcast_in_dim" op_name="pmap(_multi_device_update_fn)/scan/while/body/broadcast_in_dim[ broadcast_dimensions=(1, 2)\n                                                                shape=(1, 16, 1024) ]" source_file="/usr/local/lib/python3.8/dist-packages/trax/optimizers/trainer.py" source_line=248}
  %constant_12085 = s32[] constant(64), metadata={op_type="sub" op_name="pmap(_multi_device_update_fn)/scan/while/body/sub" source_file="/usr/local/lib/python3.8/dist-packages/trax/optimizers/trainer.py" source_line=248}
  %param_2.1516 = s32[] parameter(2)
  %subtract.371 = s32[] subtract(s32[] %constant_12085, s32[] %param_2.1516), metadata={op_type="sub" op_name="pmap(_multi_device_update_fn)/scan/while/body/sub" source_file="/usr/local/lib/python3.8/dist-packages/trax/optimizers/trainer.py" source_line=248}
  %constant_12083 = s32[] constant(-1)
  %add.2207 = s32[] add(s32[] %subtract.371, s32[] %constant_12083), metadata={op_type="sub" op_name="pmap(_multi_device_update_fn)/scan/while/body/sub" source_file="/usr/local/lib/python3.8/dist-packages/trax/optimizers/trainer.py" source_line=248}
  %constant_10618 = s32[] constant(0), metadata={op_type="lt" op_name="pmap(_multi_device_update_fn)/scan/while/body/lt" source_file="/usr/local/lib/python3.8/dist-packages/trax/optimizers/trainer.py" source_line=248}
  %compare.1460 = pred[] compare(s32[] %add.2207, s32[] %constant_10618), direction=LT, metadata={op_type="lt" op_name="pmap(_multi_device_update_fn)/scan/while/body/lt" source_file="/usr/local/lib/python3.8/dist-packages/trax/optimizers/trainer.py" source_line=248}
  %constant_12081 = s32[] constant(63)
  %add.2206 = s32[] add(s32[] %subtract.371, s32[] %constant_12081), metadata={op_type="add" op_name="pmap(_multi_device_update_fn)/scan/while/body/add" source_file="/usr/local/lib/python3.8/dist-packages/trax/optimizers/trainer.py" source_line=248}
  %select.1450 = s32[] select(pred[] %compare.1460, s32[] %add.2206, s32[] %add.2207), metadata={op_type="select" op_name="pmap(_multi_device_update_fn)/scan/while/body/select" source_file="/usr/local/lib/python3.8/dist-packages/trax/optimizers/trainer.py" source_line=248}
  ROOT %dynamic-update-slice.492 = f32[64,16,1024]{2,1,0} dynamic-update-slice(f32[64,16,1024]{2,1,0} %param_0.23, f32[1,16,1024]{2,1,0} %bitcast.421, s32[] %select.1450, s32[] %constant_10618, s32[] %constant_10618), metadata={op_type="dynamic_update_slice" op_name="pmap(_multi_device_update_fn)/scan/while/body/dynamic_update_slice" source_file="/usr/local/lib/python3.8/dist-packages/trax/optimizers/trainer.py" source_line=248}
}

%primitive_computation_add__1.8271 (parameter.8272: f32[], parameter.8273: f32[]) -> f32[] {
  %parameter.8272 = f32[] parameter(0), metadata={op_type="add" op_name="add"}
  %parameter.8273 = f32[] parameter(1), metadata={op_type="add" op_name="add"}
  ROOT %add.8274 = f32[] add(f32[] %parameter.8272, f32[] %parameter.8273), metadata={op_type="add" op_name="add"}
}

%fused_computation.13 (param_0.26: f32[4096], param_1.38: f32[16,4096]) -> f32[4096] {
  %param_0.26 = f32[4096]{0} parameter(0)
  %param_1.38 = f32[16,4096]{1,0} parameter(1)
  %constant_10623 = f32[] constant(0), metadata={op_type="pad" op_name="pmap(_multi_device_update_fn)/scan/while/body/pad[ padding_config=((0, 0, 0), (3072, 0, 0)) ]" source_file="/usr/local/lib/python3.8/dist-packages/trax/layers/rnn.py" source_line=61}
  %reduce.174 = f32[4096]{0} reduce(f32[16,4096]{1,0} %param_1.38, f32[] %constant_10623), dimensions={0}, to_apply=%primitive_computation_add__1.8271, metadata={op_type="reduce_sum" op_name="pmap(_multi_device_update_fn)/scan/while/body/reduce_sum[ axes=(0,) ]" source_file="/usr/local/lib/python3.8/dist-packages/trax/layers/rnn.py" source_line=58}
  ROOT %add.1772 = f32[4096]{0} add(f32[4096]{0} %param_0.26, f32[4096]{0} %reduce.174), metadata={op_type="add_any" op_name="pmap(_multi_device_update_fn)/scan/while/body/add_any" source_file="/usr/local/lib/python3.8/dist-packages/trax/fastmath/ops.py" source_line=144}
}

%fused_computation.14 (param_0.1566: f32[64,16,1024], param_1.1916: f32[16,1024], param_2.1517: f32[64,16,1024], param_3.1280: f32[64,16,1024], param_4.541: f32[64,16,1024], param_5.279: f32[64,16,1024], param_6.229: f32[64,16,1024], param_7.234: f32[64,16,1024], param_8.169: s32[], param_9.101: f32[64,16,1024], param_10.114: f32[64,16,1024], param_11.141: f32[16,2048], param_12.110: f32[64,16,1024], param_13.92: f32[64,16,1024]) -> f32[16,4096] {
  %param_10.114 = f32[64,16,1024]{2,1,0} parameter(10)
  %constant_12021 = s32[] constant(64), metadata={op_type="sub" op_name="pmap(_multi_device_update_fn)/scan/while/body/sub" source_file="/usr/local/lib/python3.8/dist-packages/trax/optimizers/trainer.py" source_line=248}
  %param_8.169 = s32[] parameter(8)
  %subtract.377 = s32[] subtract(s32[] %constant_12021, s32[] %param_8.169), metadata={op_type="sub" op_name="pmap(_multi_device_update_fn)/scan/while/body/sub" source_file="/usr/local/lib/python3.8/dist-packages/trax/optimizers/trainer.py" source_line=248}
  %constant_12020 = s32[] constant(-1)
  %add.2221 = s32[] add(s32[] %subtract.377, s32[] %constant_12020), metadata={op_type="sub" op_name="pmap(_multi_device_update_fn)/scan/while/body/sub" source_file="/usr/local/lib/python3.8/dist-packages/trax/optimizers/trainer.py" source_line=248}
  %constant_10629 = s32[] constant(0), metadata={op_type="lt" op_name="pmap(_multi_device_update_fn)/scan/while/body/lt" source_file="/usr/local/lib/python3.8/dist-packages/trax/optimizers/trainer.py" source_line=248}
  %compare.1467 = pred[] compare(s32[] %add.2221, s32[] %constant_10629), direction=LT, metadata={op_type="lt" op_name="pmap(_multi_device_update_fn)/scan/while/body/lt" source_file="/usr/local/lib/python3.8/dist-packages/trax/optimizers/trainer.py" source_line=248}
  %constant_12018 = s32[] constant(63)
  %add.2220 = s32[] add(s32[] %subtract.377, s32[] %constant_12018), metadata={op_type="add" op_name="pmap(_multi_device_update_fn)/scan/while/body/add" source_file="/usr/local/lib/python3.8/dist-packages/trax/optimizers/trainer.py" source_line=248}
  %select.1457 = s32[] select(pred[] %compare.1467, s32[] %add.2220, s32[] %add.2221), metadata={op_type="select" op_name="pmap(_multi_device_update_fn)/scan/while/body/select" source_file="/usr/local/lib/python3.8/dist-packages/trax/optimizers/trainer.py" source_line=248}
  %dynamic-slice.432 = f32[1,16,1024]{2,1,0} dynamic-slice(f32[64,16,1024]{2,1,0} %param_10.114, s32[] %select.1457, s32[] %constant_10629, s32[] %constant_10629), dynamic_slice_sizes={1,16,1024}, metadata={op_type="dynamic_slice" op_name="pmap(_multi_device_update_fn)/scan/while/body/dynamic_slice[ slice_sizes=(1, 16, 1024) ]" source_file="/usr/local/lib/python3.8/dist-packages/trax/optimizers/trainer.py" source_line=248}
  %bitcast.817 = f32[16,1024]{1,0} bitcast(f32[1,16,1024]{2,1,0} %dynamic-slice.432), metadata={op_type="squeeze" op_name="pmap(_multi_device_update_fn)/scan/while/body/squeeze[ dimensions=(0,) ]" source_file="/usr/local/lib/python3.8/dist-packages/trax/optimizers/trainer.py" source_line=248}
  %param_12.110 = f32[64,16,1024]{2,1,0} parameter(12)
  %dynamic-slice.436 = f32[1,16,1024]{2,1,0} dynamic-slice(f32[64,16,1024]{2,1,0} %param_12.110, s32[] %select.1457, s32[] %constant_10629, s32[] %constant_10629), dynamic_slice_sizes={1,16,1024}, metadata={op_type="dynamic_slice" op_name="pmap(_multi_device_update_fn)/scan/while/body/dynamic_slice[ slice_sizes=(1, 16, 1024) ]" source_file="/usr/local/lib/python3.8/dist-packages/trax/optimizers/trainer.py" source_line=248}
  %bitcast.821 = f32[16,1024]{1,0} bitcast(f32[1,16,1024]{2,1,0} %dynamic-slice.436), metadata={op_type="squeeze" op_name="pmap(_multi_device_update_fn)/scan/while/body/squeeze[ dimensions=(0,) ]" source_file="/usr/local/lib/python3.8/dist-packages/trax/optimizers/trainer.py" source_line=248}
  %param_11.141 = f32[16,2048]{1,0} parameter(11)
  %slice.960 = f32[16,1024]{1,0} slice(f32[16,2048]{1,0} %param_11.141), slice={[0:16], [1024:2048]}, metadata={op_type="slice" op_name="pmap(_multi_device_update_fn)/scan/while/body/slice[ limit_indices=(16, 2048)\n                                                     start_indices=(0, 1024)\n                                                     strides=None ]" source_file="/usr/local/lib/python3.8/dist-packages/trax/layers/rnn.py" source_line=65}
  %add.2230 = f32[16,1024]{1,0} add(f32[16,1024]{1,0} %bitcast.821, f32[16,1024]{1,0} %slice.960), metadata={op_type="add_any" op_name="pmap(_multi_device_update_fn)/scan/while/body/add_any" source_file="/usr/local/lib/python3.8/dist-packages/trax/fastmath/ops.py" source_line=144}
  %multiply.813 = f32[16,1024]{1,0} multiply(f32[16,1024]{1,0} %bitcast.817, f32[16,1024]{1,0} %add.2230), metadata={op_type="mul" op_name="pmap(_multi_device_update_fn)/scan/while/body/mul" source_file="/usr/local/lib/python3.8/dist-packages/trax/layers/rnn.py" source_line=64}
  %param_7.234 = f32[64,16,1024]{2,1,0} parameter(7)
  %dynamic-slice.304 = f32[1,16,1024]{2,1,0} dynamic-slice(f32[64,16,1024]{2,1,0} %param_7.234, s32[] %select.1457, s32[] %constant_10629, s32[] %constant_10629), dynamic_slice_sizes={1,16,1024}, metadata={op_type="dynamic_slice" op_name="pmap(_multi_device_update_fn)/scan/while/body/dynamic_slice[ slice_sizes=(1, 16, 1024) ]" source_file="/usr/local/lib/python3.8/dist-packages/trax/optimizers/trainer.py" source_line=248}
  %bitcast.428 = f32[16,1024]{1,0} bitcast(f32[1,16,1024]{2,1,0} %dynamic-slice.304), metadata={op_type="squeeze" op_name="pmap(_multi_device_update_fn)/scan/while/body/squeeze[ dimensions=(0,) ]" source_file="/usr/local/lib/python3.8/dist-packages/trax/optimizers/trainer.py" source_line=248}
  %multiply.812 = f32[16,1024]{1,0} multiply(f32[16,1024]{1,0} %multiply.813, f32[16,1024]{1,0} %bitcast.428), metadata={op_type="mul" op_name="pmap(_multi_device_update_fn)/scan/while/body/mul" source_file="/usr/local/lib/python3.8/dist-packages/trax/fastmath/ops.py" source_line=104}
  %param_13.92 = f32[64,16,1024]{2,1,0} parameter(13)
  %dynamic-slice.440 = f32[1,16,1024]{2,1,0} dynamic-slice(f32[64,16,1024]{2,1,0} %param_13.92, s32[] %select.1457, s32[] %constant_10629, s32[] %constant_10629), dynamic_slice_sizes={1,16,1024}, metadata={op_type="dynamic_slice" op_name="pmap(_multi_device_update_fn)/scan/while/body/dynamic_slice[ slice_sizes=(1, 16, 1024) ]" source_file="/usr/local/lib/python3.8/dist-packages/trax/optimizers/trainer.py" source_line=248}
  %bitcast.825 = f32[16,1024]{1,0} bitcast(f32[1,16,1024]{2,1,0} %dynamic-slice.440), metadata={op_type="squeeze" op_name="pmap(_multi_device_update_fn)/scan/while/body/squeeze[ dimensions=(0,) ]" source_file="/usr/local/lib/python3.8/dist-packages/trax/optimizers/trainer.py" source_line=248}
  %multiply.811 = f32[16,1024]{1,0} multiply(f32[16,1024]{1,0} %multiply.812, f32[16,1024]{1,0} %bitcast.825), metadata={op_type="mul" op_name="pmap(_multi_device_update_fn)/scan/while/body/mul" source_file="/usr/local/lib/python3.8/dist-packages/trax/fastmath/ops.py" source_line=104}
  %constant_10626 = f32[] constant(0), metadata={op_type="pad" op_name="pmap(_multi_device_update_fn)/scan/while/body/pad[ padding_config=((0, 0, 0), (3072, 0, 0)) ]" source_file="/usr/local/lib/python3.8/dist-packages/trax/layers/rnn.py" source_line=61}
  %pad.133 = f32[16,4096]{1,0} pad(f32[16,1024]{1,0} %multiply.811, f32[] %constant_10626), padding=0_0x3072_0, metadata={op_type="pad" op_name="pmap(_multi_device_update_fn)/scan/while/body/pad[ padding_config=((0, 0, 0), (3072, 0, 0)) ]" source_file="/usr/local/lib/python3.8/dist-packages/trax/layers/rnn.py" source_line=61}
  %param_6.229 = f32[64,16,1024]{2,1,0} parameter(6)
  %dynamic-slice.303 = f32[1,16,1024]{2,1,0} dynamic-slice(f32[64,16,1024]{2,1,0} %param_6.229, s32[] %select.1457, s32[] %constant_10629, s32[] %constant_10629), dynamic_slice_sizes={1,16,1024}, metadata={op_type="dynamic_slice" op_name="pmap(_multi_device_update_fn)/scan/while/body/dynamic_slice[ slice_sizes=(1, 16, 1024) ]" source_file="/usr/local/lib/python3.8/dist-packages/trax/optimizers/trainer.py" source_line=248}
  %bitcast.427 = f32[16,1024]{1,0} bitcast(f32[1,16,1024]{2,1,0} %dynamic-slice.303), metadata={op_type="squeeze" op_name="pmap(_multi_device_update_fn)/scan/while/body/squeeze[ dimensions=(0,) ]" source_file="/usr/local/lib/python3.8/dist-packages/trax/optimizers/trainer.py" source_line=248}
  %param_1.1916 = f32[16,1024]{1,0} parameter(1)
  %multiply.810 = f32[16,1024]{1,0} multiply(f32[16,1024]{1,0} %bitcast.427, f32[16,1024]{1,0} %param_1.1916), metadata={op_type="mul" op_name="pmap(_multi_device_update_fn)/scan/while/body/mul" source_file="/usr/local/lib/python3.8/dist-packages/trax/layers/rnn.py" source_line=63}
  %param_5.279 = f32[64,16,1024]{2,1,0} parameter(5)
  %dynamic-slice.302 = f32[1,16,1024]{2,1,0} dynamic-slice(f32[64,16,1024]{2,1,0} %param_5.279, s32[] %select.1457, s32[] %constant_10629, s32[] %constant_10629), dynamic_slice_sizes={1,16,1024}, metadata={op_type="dynamic_slice" op_name="pmap(_multi_device_update_fn)/scan/while/body/dynamic_slice[ slice_sizes=(1, 16, 1024) ]" source_file="/usr/local/lib/python3.8/dist-packages/trax/optimizers/trainer.py" source_line=248}
  %bitcast.426 = f32[16,1024]{1,0} bitcast(f32[1,16,1024]{2,1,0} %dynamic-slice.302), metadata={op_type="squeeze" op_name="pmap(_multi_device_update_fn)/scan/while/body/squeeze[ dimensions=(0,) ]" source_file="/usr/local/lib/python3.8/dist-packages/trax/optimizers/trainer.py" source_line=248}
  %multiply.809 = f32[16,1024]{1,0} multiply(f32[16,1024]{1,0} %multiply.810, f32[16,1024]{1,0} %bitcast.426), metadata={op_type="mul" op_name="pmap(_multi_device_update_fn)/scan/while/body/mul" source_file="/usr/local/lib/python3.8/dist-packages/trax/layers/rnn.py" source_line=63}
  %param_4.541 = f32[64,16,1024]{2,1,0} parameter(4)
  %dynamic-slice.301 = f32[1,16,1024]{2,1,0} dynamic-slice(f32[64,16,1024]{2,1,0} %param_4.541, s32[] %select.1457, s32[] %constant_10629, s32[] %constant_10629), dynamic_slice_sizes={1,16,1024}, metadata={op_type="dynamic_slice" op_name="pmap(_multi_device_update_fn)/scan/while/body/dynamic_slice[ slice_sizes=(1, 16, 1024) ]" source_file="/usr/local/lib/python3.8/dist-packages/trax/optimizers/trainer.py" source_line=248}
  %bitcast.425 = f32[16,1024]{1,0} bitcast(f32[1,16,1024]{2,1,0} %dynamic-slice.301), metadata={op_type="squeeze" op_name="pmap(_multi_device_update_fn)/scan/while/body/squeeze[ dimensions=(0,) ]" source_file="/usr/local/lib/python3.8/dist-packages/trax/optimizers/trainer.py" source_line=248}
  %multiply.808 = f32[16,1024]{1,0} multiply(f32[16,1024]{1,0} %multiply.809, f32[16,1024]{1,0} %bitcast.425), metadata={op_type="mul" op_name="pmap(_multi_device_update_fn)/scan/while/body/mul" source_file="/usr/local/lib/python3.8/dist-packages/trax/layers/rnn.py" source_line=63}
  %add.1776 = f32[16,1024]{1,0} add(f32[16,1024]{1,0} %multiply.809, f32[16,1024]{1,0} %multiply.808), metadata={op_type="add_any" op_name="pmap(_multi_device_update_fn)/scan/while/body/add_any" source_file="/usr/local/lib/python3.8/dist-packages/trax/fastmath/ops.py" source_line=144}
  %pad.132 = f32[16,4096]{1,0} pad(f32[16,1024]{1,0} %add.1776, f32[] %constant_10626), padding=0_0x1024_2048, metadata={op_type="pad" op_name="pmap(_multi_device_update_fn)/scan/while/body/pad[ padding_config=((0, 0, 0), (1024, 2048, 0)) ]" source_file="/usr/local/lib/python3.8/dist-packages/trax/layers/rnn.py" source_line=61}
  %add.1775 = f32[16,4096]{1,0} add(f32[16,4096]{1,0} %pad.133, f32[16,4096]{1,0} %pad.132), metadata={op_type="add_any" op_name="pmap(_multi_device_update_fn)/scan/while/body/add_any" source_file="/usr/local/lib/python3.8/dist-packages/trax/fastmath/ops.py" source_line=144}
  %multiply.807 = f32[16,1024]{1,0} multiply(f32[16,1024]{1,0} %param_1.1916, f32[16,1024]{1,0} %bitcast.425), metadata={op_type="mul" op_name="pmap(_multi_device_update_fn)/scan/while/body/mul" source_file="/usr/local/lib/python3.8/dist-packages/trax/layers/rnn.py" source_line=63}
  %param_3.1280 = f32[64,16,1024]{2,1,0} parameter(3)
  %dynamic-slice.300 = f32[1,16,1024]{2,1,0} dynamic-slice(f32[64,16,1024]{2,1,0} %param_3.1280, s32[] %select.1457, s32[] %constant_10629, s32[] %constant_10629), dynamic_slice_sizes={1,16,1024}, metadata={op_type="dynamic_slice" op_name="pmap(_multi_device_update_fn)/scan/while/body/dynamic_slice[ slice_sizes=(1, 16, 1024) ]" source_file="/usr/local/lib/python3.8/dist-packages/trax/optimizers/trainer.py" source_line=248}
  %bitcast.424 = f32[16,1024]{1,0} bitcast(f32[1,16,1024]{2,1,0} %dynamic-slice.300), metadata={op_type="squeeze" op_name="pmap(_multi_device_update_fn)/scan/while/body/squeeze[ dimensions=(0,) ]" source_file="/usr/local/lib/python3.8/dist-packages/trax/optimizers/trainer.py" source_line=248}
  %multiply.806 = f32[16,1024]{1,0} multiply(f32[16,1024]{1,0} %multiply.807, f32[16,1024]{1,0} %bitcast.424), metadata={op_type="mul" op_name="pmap(_multi_device_update_fn)/scan/while/body/mul" source_file="/usr/local/lib/python3.8/dist-packages/trax/fastmath/ops.py" source_line=104}
  %multiply.805 = f32[16,1024]{1,0} multiply(f32[16,1024]{1,0} %multiply.806, f32[16,1024]{1,0} %bitcast.427), metadata={op_type="mul" op_name="pmap(_multi_device_update_fn)/scan/while/body/mul" source_file="/usr/local/lib/python3.8/dist-packages/trax/fastmath/ops.py" source_line=104}
  %pad.131 = f32[16,4096]{1,0} pad(f32[16,1024]{1,0} %multiply.805, f32[] %constant_10626), padding=0_0x0_3072, metadata={op_type="pad" op_name="pmap(_multi_device_update_fn)/scan/while/body/pad[ padding_config=((0, 0, 0), (0, 3072, 0)) ]" source_file="/usr/local/lib/python3.8/dist-packages/trax/layers/rnn.py" source_line=61}
  %add.1774 = f32[16,4096]{1,0} add(f32[16,4096]{1,0} %add.1775, f32[16,4096]{1,0} %pad.131), metadata={op_type="add_any" op_name="pmap(_multi_device_update_fn)/scan/while/body/add_any" source_file="/usr/local/lib/python3.8/dist-packages/trax/fastmath/ops.py" source_line=144}
  %param_2.1517 = f32[64,16,1024]{2,1,0} parameter(2)
  %dynamic-slice.299 = f32[1,16,1024]{2,1,0} dynamic-slice(f32[64,16,1024]{2,1,0} %param_2.1517, s32[] %select.1457, s32[] %constant_10629, s32[] %constant_10629), dynamic_slice_sizes={1,16,1024}, metadata={op_type="dynamic_slice" op_name="pmap(_multi_device_update_fn)/scan/while/body/dynamic_slice[ slice_sizes=(1, 16, 1024) ]" source_file="/usr/local/lib/python3.8/dist-packages/trax/optimizers/trainer.py" source_line=248}
  %bitcast.423 = f32[16,1024]{1,0} bitcast(f32[1,16,1024]{2,1,0} %dynamic-slice.299), metadata={op_type="squeeze" op_name="pmap(_multi_device_update_fn)/scan/while/body/squeeze[ dimensions=(0,) ]" source_file="/usr/local/lib/python3.8/dist-packages/trax/optimizers/trainer.py" source_line=248}
  %multiply.804 = f32[16,1024]{1,0} multiply(f32[16,1024]{1,0} %bitcast.423, f32[16,1024]{1,0} %param_1.1916), metadata={op_type="mul" op_name="pmap(_multi_device_update_fn)/scan/while/body/mul" source_file="/usr/local/lib/python3.8/dist-packages/trax/layers/rnn.py" source_line=63}
  %param_0.1566 = f32[64,16,1024]{2,1,0} parameter(0)
  %dynamic-slice.298 = f32[1,16,1024]{2,1,0} dynamic-slice(f32[64,16,1024]{2,1,0} %param_0.1566, s32[] %select.1457, s32[] %constant_10629, s32[] %constant_10629), dynamic_slice_sizes={1,16,1024}, metadata={op_type="dynamic_slice" op_name="pmap(_multi_device_update_fn)/scan/while/body/dynamic_slice[ slice_sizes=(1, 16, 1024) ]" source_file="/usr/local/lib/python3.8/dist-packages/trax/optimizers/trainer.py" source_line=248}
  %bitcast.422 = f32[16,1024]{1,0} bitcast(f32[1,16,1024]{2,1,0} %dynamic-slice.298), metadata={op_type="squeeze" op_name="pmap(_multi_device_update_fn)/scan/while/body/squeeze[ dimensions=(0,) ]" source_file="/usr/local/lib/python3.8/dist-packages/trax/optimizers/trainer.py" source_line=248}
  %multiply.803 = f32[16,1024]{1,0} multiply(f32[16,1024]{1,0} %multiply.804, f32[16,1024]{1,0} %bitcast.422), metadata={op_type="mul" op_name="pmap(_multi_device_update_fn)/scan/while/body/mul" source_file="/usr/local/lib/python3.8/dist-packages/trax/fastmath/ops.py" source_line=104}
  %param_9.101 = f32[64,16,1024]{2,1,0} parameter(9)
  %dynamic-slice.428 = f32[1,16,1024]{2,1,0} dynamic-slice(f32[64,16,1024]{2,1,0} %param_9.101, s32[] %select.1457, s32[] %constant_10629, s32[] %constant_10629), dynamic_slice_sizes={1,16,1024}, metadata={op_type="dynamic_slice" op_name="pmap(_multi_device_update_fn)/scan/while/body/dynamic_slice[ slice_sizes=(1, 16, 1024) ]" source_file="/usr/local/lib/python3.8/dist-packages/trax/optimizers/trainer.py" source_line=248}
  %bitcast.813 = f32[16,1024]{1,0} bitcast(f32[1,16,1024]{2,1,0} %dynamic-slice.428), metadata={op_type="squeeze" op_name="pmap(_multi_device_update_fn)/scan/while/body/squeeze[ dimensions=(0,) ]" source_file="/usr/local/lib/python3.8/dist-packages/trax/optimizers/trainer.py" source_line=248}
  %multiply.802 = f32[16,1024]{1,0} multiply(f32[16,1024]{1,0} %multiply.803, f32[16,1024]{1,0} %bitcast.813), metadata={op_type="mul" op_name="pmap(_multi_device_update_fn)/scan/while/body/mul" source_file="/usr/local/lib/python3.8/dist-packages/trax/fastmath/ops.py" source_line=104}
  %pad.130 = f32[16,4096]{1,0} pad(f32[16,1024]{1,0} %multiply.802, f32[] %constant_10626), padding=0_0x2048_1024, metadata={op_type="pad" op_name="pmap(_multi_device_update_fn)/scan/while/body/pad[ padding_config=((0, 0, 0), (2048, 1024, 0)) ]" source_file="/usr/local/lib/python3.8/dist-packages/trax/layers/rnn.py" source_line=61}
  ROOT %add.1773 = f32[16,4096]{1,0} add(f32[16,4096]{1,0} %add.1774, f32[16,4096]{1,0} %pad.130), metadata={op_type="add_any" op_name="pmap(_multi_device_update_fn)/scan/while/body/add_any" source_file="/usr/local/lib/python3.8/dist-packages/trax/fastmath/ops.py" source_line=144}
}

%fused_computation.16 (param_0.1570: f32[64,16,1024], param_1.1927: f32[16,2048], param_2.1524: s32[], param_3.1289: f32[64,16,1024], param_4.550: f32[64,16,1024], param_5.289: f32[64,16,1024]) -> f32[16,1024] {
  %param_1.1927 = f32[16,2048]{1,0} parameter(1)
  %slice.824 = f32[16,1024]{1,0} slice(f32[16,2048]{1,0} %param_1.1927), slice={[0:16], [0:1024]}, metadata={op_type="slice" op_name="pmap(_multi_device_update_fn)/scan/while/body/slice[ limit_indices=(16, 1024)\n                                                     start_indices=(0, 0)\n                                                     strides=None ]" source_file="/usr/local/lib/python3.8/dist-packages/trax/layers/rnn.py" source_line=65}
  %param_4.550 = f32[64,16,1024]{2,1,0} parameter(4)
  %constant_12065 = s32[] constant(64), metadata={op_type="sub" op_name="pmap(_multi_device_update_fn)/scan/while/body/sub" source_file="/usr/local/lib/python3.8/dist-packages/trax/optimizers/trainer.py" source_line=248}
  %param_2.1524 = s32[] parameter(2)
  %subtract.383 = s32[] subtract(s32[] %constant_12065, s32[] %param_2.1524), metadata={op_type="sub" op_name="pmap(_multi_device_update_fn)/scan/while/body/sub" source_file="/usr/local/lib/python3.8/dist-packages/trax/optimizers/trainer.py" source_line=248}
  %constant_12064 = s32[] constant(-1)
  %add.2240 = s32[] add(s32[] %subtract.383, s32[] %constant_12064), metadata={op_type="sub" op_name="pmap(_multi_device_update_fn)/scan/while/body/sub" source_file="/usr/local/lib/python3.8/dist-packages/trax/optimizers/trainer.py" source_line=248}
  %constant_10631 = s32[] constant(0), metadata={op_type="lt" op_name="pmap(_multi_device_update_fn)/scan/while/body/lt" source_file="/usr/local/lib/python3.8/dist-packages/trax/optimizers/trainer.py" source_line=248}
  %compare.1474 = pred[] compare(s32[] %add.2240, s32[] %constant_10631), direction=LT, metadata={op_type="lt" op_name="pmap(_multi_device_update_fn)/scan/while/body/lt" source_file="/usr/local/lib/python3.8/dist-packages/trax/optimizers/trainer.py" source_line=248}
  %constant_12060 = s32[] constant(63)
  %add.2238 = s32[] add(s32[] %subtract.383, s32[] %constant_12060), metadata={op_type="add" op_name="pmap(_multi_device_update_fn)/scan/while/body/add" source_file="/usr/local/lib/python3.8/dist-packages/trax/optimizers/trainer.py" source_line=248}
  %select.1464 = s32[] select(pred[] %compare.1474, s32[] %add.2238, s32[] %add.2240), metadata={op_type="select" op_name="pmap(_multi_device_update_fn)/scan/while/body/select" source_file="/usr/local/lib/python3.8/dist-packages/trax/optimizers/trainer.py" source_line=248}
  %dynamic-slice.438 = f32[1,16,1024]{2,1,0} dynamic-slice(f32[64,16,1024]{2,1,0} %param_4.550, s32[] %select.1464, s32[] %constant_10631, s32[] %constant_10631), dynamic_slice_sizes={1,16,1024}, metadata={op_type="dynamic_slice" op_name="pmap(_multi_device_update_fn)/scan/while/body/dynamic_slice[ slice_sizes=(1, 16, 1024) ]" source_file="/usr/local/lib/python3.8/dist-packages/trax/optimizers/trainer.py" source_line=248}
  %bitcast.823 = f32[16,1024]{1,0} bitcast(f32[1,16,1024]{2,1,0} %dynamic-slice.438), metadata={op_type="squeeze" op_name="pmap(_multi_device_update_fn)/scan/while/body/squeeze[ dimensions=(0,) ]" source_file="/usr/local/lib/python3.8/dist-packages/trax/optimizers/trainer.py" source_line=248}
  %slice.962 = f32[16,1024]{1,0} slice(f32[16,2048]{1,0} %param_1.1927), slice={[0:16], [1024:2048]}, metadata={op_type="slice" op_name="pmap(_multi_device_update_fn)/scan/while/body/slice[ limit_indices=(16, 2048)\n                                                     start_indices=(0, 1024)\n                                                     strides=None ]" source_file="/usr/local/lib/python3.8/dist-packages/trax/layers/rnn.py" source_line=65}
  %add.2237 = f32[16,1024]{1,0} add(f32[16,1024]{1,0} %bitcast.823, f32[16,1024]{1,0} %slice.962), metadata={op_type="add_any" op_name="pmap(_multi_device_update_fn)/scan/while/body/add_any" source_file="/usr/local/lib/python3.8/dist-packages/trax/fastmath/ops.py" source_line=144}
  %param_5.289 = f32[64,16,1024]{2,1,0} parameter(5)
  %dynamic-slice.442 = f32[1,16,1024]{2,1,0} dynamic-slice(f32[64,16,1024]{2,1,0} %param_5.289, s32[] %select.1464, s32[] %constant_10631, s32[] %constant_10631), dynamic_slice_sizes={1,16,1024}, metadata={op_type="dynamic_slice" op_name="pmap(_multi_device_update_fn)/scan/while/body/dynamic_slice[ slice_sizes=(1, 16, 1024) ]" source_file="/usr/local/lib/python3.8/dist-packages/trax/optimizers/trainer.py" source_line=248}
  %bitcast.827 = f32[16,1024]{1,0} bitcast(f32[1,16,1024]{2,1,0} %dynamic-slice.442), metadata={op_type="squeeze" op_name="pmap(_multi_device_update_fn)/scan/while/body/squeeze[ dimensions=(0,) ]" source_file="/usr/local/lib/python3.8/dist-packages/trax/optimizers/trainer.py" source_line=248}
  %multiply.816 = f32[16,1024]{1,0} multiply(f32[16,1024]{1,0} %add.2237, f32[16,1024]{1,0} %bitcast.827), metadata={op_type="mul" op_name="pmap(_multi_device_update_fn)/scan/while/body/mul" source_file="/usr/local/lib/python3.8/dist-packages/trax/layers/rnn.py" source_line=64}
  %param_0.1570 = f32[64,16,1024]{2,1,0} parameter(0)
  %dynamic-slice.306 = f32[1,16,1024]{2,1,0} dynamic-slice(f32[64,16,1024]{2,1,0} %param_0.1570, s32[] %select.1464, s32[] %constant_10631, s32[] %constant_10631), dynamic_slice_sizes={1,16,1024}, metadata={op_type="dynamic_slice" op_name="pmap(_multi_device_update_fn)/scan/while/body/dynamic_slice[ slice_sizes=(1, 16, 1024) ]" source_file="/usr/local/lib/python3.8/dist-packages/trax/optimizers/trainer.py" source_line=248}
  %bitcast.430 = f32[16,1024]{1,0} bitcast(f32[1,16,1024]{2,1,0} %dynamic-slice.306), metadata={op_type="squeeze" op_name="pmap(_multi_device_update_fn)/scan/while/body/squeeze[ dimensions=(0,) ]" source_file="/usr/local/lib/python3.8/dist-packages/trax/optimizers/trainer.py" source_line=248}
  %multiply.815 = f32[16,1024]{1,0} multiply(f32[16,1024]{1,0} %multiply.816, f32[16,1024]{1,0} %bitcast.430), metadata={op_type="mul" op_name="pmap(_multi_device_update_fn)/scan/while/body/mul" source_file="/usr/local/lib/python3.8/dist-packages/trax/layers/rnn.py" source_line=64}
  %add.1778 = f32[16,1024]{1,0} add(f32[16,1024]{1,0} %slice.824, f32[16,1024]{1,0} %multiply.815), metadata={op_type="add_any" op_name="pmap(_multi_device_update_fn)/scan/while/body/add_any" source_file="/usr/local/lib/python3.8/dist-packages/trax/fastmath/ops.py" source_line=144}
  %param_3.1289 = f32[64,16,1024]{2,1,0} parameter(3)
  %dynamic-slice.434 = f32[1,16,1024]{2,1,0} dynamic-slice(f32[64,16,1024]{2,1,0} %param_3.1289, s32[] %select.1464, s32[] %constant_10631, s32[] %constant_10631), dynamic_slice_sizes={1,16,1024}, metadata={op_type="dynamic_slice" op_name="pmap(_multi_device_update_fn)/scan/while/body/dynamic_slice[ slice_sizes=(1, 16, 1024) ]" source_file="/usr/local/lib/python3.8/dist-packages/trax/optimizers/trainer.py" source_line=248}
  %bitcast.819 = f32[16,1024]{1,0} bitcast(f32[1,16,1024]{2,1,0} %dynamic-slice.434), metadata={op_type="squeeze" op_name="pmap(_multi_device_update_fn)/scan/while/body/squeeze[ dimensions=(0,) ]" source_file="/usr/local/lib/python3.8/dist-packages/trax/optimizers/trainer.py" source_line=248}
  %multiply.814 = f32[16,1024]{1,0} multiply(f32[16,1024]{1,0} %multiply.815, f32[16,1024]{1,0} %bitcast.819), metadata={op_type="mul" op_name="pmap(_multi_device_update_fn)/scan/while/body/mul" source_file="/usr/local/lib/python3.8/dist-packages/trax/layers/rnn.py" source_line=64}
  ROOT %add.1777 = f32[16,1024]{1,0} add(f32[16,1024]{1,0} %add.1778, f32[16,1024]{1,0} %multiply.814), metadata={op_type="add_any" op_name="pmap(_multi_device_update_fn)/scan/while/body/add_any" source_file="/usr/local/lib/python3.8/dist-packages/trax/fastmath/ops.py" source_line=144}
}

%fused_computation.20 (param_0.41: f32[64,16,2048], param_1.1898: s32[], param_2.2318: f32[16,1024], param_3.2077: f32[64,16,1024], param_4.1067: f32[16,2048]) -> (f32[16,2048], f32[16,2048]) {
  %param_0.41 = f32[64,16,2048]{2,1,0} parameter(0)
  %constant_11984 = s32[] constant(64), metadata={op_type="sub" op_name="pmap(_multi_device_update_fn)/scan/while/body/sub" source_file="/usr/local/lib/python3.8/dist-packages/trax/optimizers/trainer.py" source_line=248}
  %param_1.1898 = s32[] parameter(1)
  %subtract.357 = s32[] subtract(s32[] %constant_11984, s32[] %param_1.1898), metadata={op_type="sub" op_name="pmap(_multi_device_update_fn)/scan/while/body/sub" source_file="/usr/local/lib/python3.8/dist-packages/trax/optimizers/trainer.py" source_line=248}
  %constant_11983 = s32[] constant(-1)
  %add.2175 = s32[] add(s32[] %subtract.357, s32[] %constant_11983), metadata={op_type="sub" op_name="pmap(_multi_device_update_fn)/scan/while/body/sub" source_file="/usr/local/lib/python3.8/dist-packages/trax/optimizers/trainer.py" source_line=248}
  %constant_10638 = s32[] constant(0), metadata={op_type="lt" op_name="pmap(_multi_device_update_fn)/scan/while/body/lt" source_file="/usr/local/lib/python3.8/dist-packages/trax/optimizers/trainer.py" source_line=248}
  %compare.1444 = pred[] compare(s32[] %add.2175, s32[] %constant_10638), direction=LT, metadata={op_type="lt" op_name="pmap(_multi_device_update_fn)/scan/while/body/lt" source_file="/usr/local/lib/python3.8/dist-packages/trax/optimizers/trainer.py" source_line=248}
  %constant_11981 = s32[] constant(63)
  %add.2174 = s32[] add(s32[] %subtract.357, s32[] %constant_11981), metadata={op_type="add" op_name="pmap(_multi_device_update_fn)/scan/while/body/add" source_file="/usr/local/lib/python3.8/dist-packages/trax/optimizers/trainer.py" source_line=248}
  %select.1434 = s32[] select(pred[] %compare.1444, s32[] %add.2174, s32[] %add.2175), metadata={op_type="select" op_name="pmap(_multi_device_update_fn)/scan/while/body/select" source_file="/usr/local/lib/python3.8/dist-packages/trax/optimizers/trainer.py" source_line=248}
  %dynamic-slice.310 = f32[1,16,2048]{2,1,0} dynamic-slice(f32[64,16,2048]{2,1,0} %param_0.41, s32[] %select.1434, s32[] %constant_10638, s32[] %constant_10638), dynamic_slice_sizes={1,16,2048}, metadata={op_type="dynamic_slice" op_name="pmap(_multi_device_update_fn)/scan/while/body/dynamic_slice[ slice_sizes=(1, 16, 2048) ]" source_file="/usr/local/lib/python3.8/dist-packages/trax/optimizers/trainer.py" source_line=248}
  %bitcast.434 = f32[16,2048]{1,0} bitcast(f32[1,16,2048]{2,1,0} %dynamic-slice.310), metadata={op_type="squeeze" op_name="pmap(_multi_device_update_fn)/scan/while/body/squeeze[ dimensions=(0,) ]" source_file="/usr/local/lib/python3.8/dist-packages/trax/optimizers/trainer.py" source_line=248}
  %param_4.1067 = f32[16,2048]{1,0} parameter(4)
  %slice.823.clone.1 = f32[16,1024]{1,0} slice(f32[16,2048]{1,0} %param_4.1067), slice={[0:16], [1024:2048]}, metadata={op_type="slice" op_name="pmap(_multi_device_update_fn)/scan/while/body/slice[ limit_indices=(16, 2048)\n                                                     start_indices=(0, 1024)\n                                                     strides=None ]" source_file="/usr/local/lib/python3.8/dist-packages/trax/layers/rnn.py" source_line=58}
  %constant_10621_clone_1 = f32[] constant(0), metadata={op_type="pad" op_name="pmap(_multi_device_update_fn)/scan/while/body/pad[ padding_config=((0, 0, 0), (3072, 0, 0)) ]" source_file="/usr/local/lib/python3.8/dist-packages/trax/layers/rnn.py" source_line=61}
  %pad.129.clone.1 = f32[16,2048]{1,0} pad(f32[16,1024]{1,0} %slice.823.clone.1, f32[] %constant_10621_clone_1), padding=0_0x1024_0, metadata={op_type="pad" op_name="pmap(_multi_device_update_fn)/scan/while/body/pad[ padding_config=((0, 0, 0), (1024, 0, 0)) ]" source_file="/usr/local/lib/python3.8/dist-packages/trax/layers/rnn.py" source_line=54}
  %param_2.2318 = f32[16,1024]{1,0} parameter(2)
  %param_3.2077 = f32[64,16,1024]{2,1,0} parameter(3)
  %dynamic-slice.430.clone.1 = f32[1,16,1024]{2,1,0} dynamic-slice(f32[64,16,1024]{2,1,0} %param_3.2077, s32[] %select.1434, s32[] %constant_10638, s32[] %constant_10638), dynamic_slice_sizes={1,16,1024}, metadata={op_type="dynamic_slice" op_name="pmap(_multi_device_update_fn)/scan/while/body/dynamic_slice[ slice_sizes=(1, 16, 1024) ]" source_file="/usr/local/lib/python3.8/dist-packages/trax/optimizers/trainer.py" source_line=248}
  %bitcast.815.clone.1 = f32[16,1024]{1,0} bitcast(f32[1,16,1024]{2,1,0} %dynamic-slice.430.clone.1), metadata={op_type="squeeze" op_name="pmap(_multi_device_update_fn)/scan/while/body/squeeze[ dimensions=(0,) ]" source_file="/usr/local/lib/python3.8/dist-packages/trax/optimizers/trainer.py" source_line=248}
  %multiply.801.clone.1 = f32[16,1024]{1,0} multiply(f32[16,1024]{1,0} %param_2.2318, f32[16,1024]{1,0} %bitcast.815.clone.1), metadata={op_type="mul" op_name="pmap(_multi_device_update_fn)/scan/while/body/mul" source_file="/usr/local/lib/python3.8/dist-packages/trax/layers/rnn.py" source_line=63}
  %pad.128.clone.1 = f32[16,2048]{1,0} pad(f32[16,1024]{1,0} %multiply.801.clone.1, f32[] %constant_10621_clone_1), padding=0_0x0_1024, metadata={op_type="pad" op_name="pmap(_multi_device_update_fn)/scan/while/body/pad[ padding_config=((0, 0, 0), (0, 1024, 0)) ]" source_file="/usr/local/lib/python3.8/dist-packages/trax/layers/rnn.py" source_line=54}
  %add.1771.clone.1 = f32[16,2048]{1,0} add(f32[16,2048]{1,0} %pad.129.clone.1, f32[16,2048]{1,0} %pad.128.clone.1), metadata={op_type="add_any" op_name="pmap(_multi_device_update_fn)/scan/while/body/add_any" source_file="/usr/local/lib/python3.8/dist-packages/trax/fastmath/ops.py" source_line=144}
  ROOT %tuple.466 = (f32[16,2048]{1,0}, f32[16,2048]{1,0}) tuple(f32[16,2048]{1,0} %bitcast.434, f32[16,2048]{1,0} %add.1771.clone.1)
}

%body_computation__46.8279.clone.clone (parameter.65: (f32[64,16,1024], f32[64,16,1024], f32[64,16,1024], f32[64,16,2048], f32[64,16,1024], /*index=5*/f32[64,16,1024], f32[64,16,1024], f32[64,16,1024], f32[64,16,1024], f32[64,16,1024], /*index=10*/f32[64,16,1024], f32[64,16,1024], f32[64,16,1024], f32[2048,4096], s32[], /*index=15*/f32[2048,4096], f32[4096], f32[16,2048], f32[64,16,1024])) -> (f32[64,16,1024], f32[64,16,1024], f32[64,16,1024], f32[64,16,2048], f32[64,16,1024], /*index=5*/f32[64,16,1024], f32[64,16,1024], f32[64,16,1024], f32[64,16,1024], f32[64,16,1024], /*index=10*/f32[64,16,1024], f32[64,16,1024], f32[64,16,1024], f32[2048,4096], s32[], /*index=15*/f32[2048,4096], f32[4096], f32[16,2048], f32[64,16,1024]) {
  %parameter.65 = (f32[64,16,1024]{2,1,0}, f32[64,16,1024]{2,1,0}, f32[64,16,1024]{2,1,0}, f32[64,16,2048]{2,1,0}, f32[64,16,1024]{2,1,0}, /*index=5*/f32[64,16,1024]{2,1,0}, f32[64,16,1024]{2,1,0}, f32[64,16,1024]{2,1,0}, f32[64,16,1024]{2,1,0}, f32[64,16,1024]{2,1,0}, /*index=10*/f32[64,16,1024]{2,1,0}, f32[64,16,1024]{2,1,0}, f32[64,16,1024]{2,1,0}, f32[2048,4096]{1,0}, s32[], /*index=15*/f32[2048,4096]{1,0}, f32[4096]{0}, f32[16,2048]{1,0}, f32[64,16,1024]{2,1,0}) parameter(0)
  %get-tuple-element.6395 = f32[64,16,1024]{2,1,0} get-tuple-element((f32[64,16,1024]{2,1,0}, f32[64,16,1024]{2,1,0}, f32[64,16,1024]{2,1,0}, f32[64,16,2048]{2,1,0}, f32[64,16,1024]{2,1,0}, /*index=5*/f32[64,16,1024]{2,1,0}, f32[64,16,1024]{2,1,0}, f32[64,16,1024]{2,1,0}, f32[64,16,1024]{2,1,0}, f32[64,16,1024]{2,1,0}, /*index=10*/f32[64,16,1024]{2,1,0}, f32[64,16,1024]{2,1,0}, f32[64,16,1024]{2,1,0}, f32[2048,4096]{1,0}, s32[], /*index=15*/f32[2048,4096]{1,0}, f32[4096]{0}, f32[16,2048]{1,0}, f32[64,16,1024]{2,1,0}) %parameter.65), index=0
  %get-tuple-element.6396 = f32[64,16,1024]{2,1,0} get-tuple-element((f32[64,16,1024]{2,1,0}, f32[64,16,1024]{2,1,0}, f32[64,16,1024]{2,1,0}, f32[64,16,2048]{2,1,0}, f32[64,16,1024]{2,1,0}, /*index=5*/f32[64,16,1024]{2,1,0}, f32[64,16,1024]{2,1,0}, f32[64,16,1024]{2,1,0}, f32[64,16,1024]{2,1,0}, f32[64,16,1024]{2,1,0}, /*index=10*/f32[64,16,1024]{2,1,0}, f32[64,16,1024]{2,1,0}, f32[64,16,1024]{2,1,0}, f32[2048,4096]{1,0}, s32[], /*index=15*/f32[2048,4096]{1,0}, f32[4096]{0}, f32[16,2048]{1,0}, f32[64,16,1024]{2,1,0}) %parameter.65), index=1
  %get-tuple-element.6397 = f32[64,16,1024]{2,1,0} get-tuple-element((f32[64,16,1024]{2,1,0}, f32[64,16,1024]{2,1,0}, f32[64,16,1024]{2,1,0}, f32[64,16,2048]{2,1,0}, f32[64,16,1024]{2,1,0}, /*index=5*/f32[64,16,1024]{2,1,0}, f32[64,16,1024]{2,1,0}, f32[64,16,1024]{2,1,0}, f32[64,16,1024]{2,1,0}, f32[64,16,1024]{2,1,0}, /*index=10*/f32[64,16,1024]{2,1,0}, f32[64,16,1024]{2,1,0}, f32[64,16,1024]{2,1,0}, f32[2048,4096]{1,0}, s32[], /*index=15*/f32[2048,4096]{1,0}, f32[4096]{0}, f32[16,2048]{1,0}, f32[64,16,1024]{2,1,0}) %parameter.65), index=2
  %get-tuple-element.6398 = f32[64,16,2048]{2,1,0} get-tuple-element((f32[64,16,1024]{2,1,0}, f32[64,16,1024]{2,1,0}, f32[64,16,1024]{2,1,0}, f32[64,16,2048]{2,1,0}, f32[64,16,1024]{2,1,0}, /*index=5*/f32[64,16,1024]{2,1,0}, f32[64,16,1024]{2,1,0}, f32[64,16,1024]{2,1,0}, f32[64,16,1024]{2,1,0}, f32[64,16,1024]{2,1,0}, /*index=10*/f32[64,16,1024]{2,1,0}, f32[64,16,1024]{2,1,0}, f32[64,16,1024]{2,1,0}, f32[2048,4096]{1,0}, s32[], /*index=15*/f32[2048,4096]{1,0}, f32[4096]{0}, f32[16,2048]{1,0}, f32[64,16,1024]{2,1,0}) %parameter.65), index=3
  %get-tuple-element.6399 = f32[64,16,1024]{2,1,0} get-tuple-element((f32[64,16,1024]{2,1,0}, f32[64,16,1024]{2,1,0}, f32[64,16,1024]{2,1,0}, f32[64,16,2048]{2,1,0}, f32[64,16,1024]{2,1,0}, /*index=5*/f32[64,16,1024]{2,1,0}, f32[64,16,1024]{2,1,0}, f32[64,16,1024]{2,1,0}, f32[64,16,1024]{2,1,0}, f32[64,16,1024]{2,1,0}, /*index=10*/f32[64,16,1024]{2,1,0}, f32[64,16,1024]{2,1,0}, f32[64,16,1024]{2,1,0}, f32[2048,4096]{1,0}, s32[], /*index=15*/f32[2048,4096]{1,0}, f32[4096]{0}, f32[16,2048]{1,0}, f32[64,16,1024]{2,1,0}) %parameter.65), index=4
  %get-tuple-element.6400 = f32[64,16,1024]{2,1,0} get-tuple-element((f32[64,16,1024]{2,1,0}, f32[64,16,1024]{2,1,0}, f32[64,16,1024]{2,1,0}, f32[64,16,2048]{2,1,0}, f32[64,16,1024]{2,1,0}, /*index=5*/f32[64,16,1024]{2,1,0}, f32[64,16,1024]{2,1,0}, f32[64,16,1024]{2,1,0}, f32[64,16,1024]{2,1,0}, f32[64,16,1024]{2,1,0}, /*index=10*/f32[64,16,1024]{2,1,0}, f32[64,16,1024]{2,1,0}, f32[64,16,1024]{2,1,0}, f32[2048,4096]{1,0}, s32[], /*index=15*/f32[2048,4096]{1,0}, f32[4096]{0}, f32[16,2048]{1,0}, f32[64,16,1024]{2,1,0}) %parameter.65), index=5
  %get-tuple-element.6401 = f32[64,16,1024]{2,1,0} get-tuple-element((f32[64,16,1024]{2,1,0}, f32[64,16,1024]{2,1,0}, f32[64,16,1024]{2,1,0}, f32[64,16,2048]{2,1,0}, f32[64,16,1024]{2,1,0}, /*index=5*/f32[64,16,1024]{2,1,0}, f32[64,16,1024]{2,1,0}, f32[64,16,1024]{2,1,0}, f32[64,16,1024]{2,1,0}, f32[64,16,1024]{2,1,0}, /*index=10*/f32[64,16,1024]{2,1,0}, f32[64,16,1024]{2,1,0}, f32[64,16,1024]{2,1,0}, f32[2048,4096]{1,0}, s32[], /*index=15*/f32[2048,4096]{1,0}, f32[4096]{0}, f32[16,2048]{1,0}, f32[64,16,1024]{2,1,0}) %parameter.65), index=6
  %get-tuple-element.6402 = f32[64,16,1024]{2,1,0} get-tuple-element((f32[64,16,1024]{2,1,0}, f32[64,16,1024]{2,1,0}, f32[64,16,1024]{2,1,0}, f32[64,16,2048]{2,1,0}, f32[64,16,1024]{2,1,0}, /*index=5*/f32[64,16,1024]{2,1,0}, f32[64,16,1024]{2,1,0}, f32[64,16,1024]{2,1,0}, f32[64,16,1024]{2,1,0}, f32[64,16,1024]{2,1,0}, /*index=10*/f32[64,16,1024]{2,1,0}, f32[64,16,1024]{2,1,0}, f32[64,16,1024]{2,1,0}, f32[2048,4096]{1,0}, s32[], /*index=15*/f32[2048,4096]{1,0}, f32[4096]{0}, f32[16,2048]{1,0}, f32[64,16,1024]{2,1,0}) %parameter.65), index=7
  %get-tuple-element.6403 = f32[64,16,1024]{2,1,0} get-tuple-element((f32[64,16,1024]{2,1,0}, f32[64,16,1024]{2,1,0}, f32[64,16,1024]{2,1,0}, f32[64,16,2048]{2,1,0}, f32[64,16,1024]{2,1,0}, /*index=5*/f32[64,16,1024]{2,1,0}, f32[64,16,1024]{2,1,0}, f32[64,16,1024]{2,1,0}, f32[64,16,1024]{2,1,0}, f32[64,16,1024]{2,1,0}, /*index=10*/f32[64,16,1024]{2,1,0}, f32[64,16,1024]{2,1,0}, f32[64,16,1024]{2,1,0}, f32[2048,4096]{1,0}, s32[], /*index=15*/f32[2048,4096]{1,0}, f32[4096]{0}, f32[16,2048]{1,0}, f32[64,16,1024]{2,1,0}) %parameter.65), index=8
  %get-tuple-element.6404 = f32[64,16,1024]{2,1,0} get-tuple-element((f32[64,16,1024]{2,1,0}, f32[64,16,1024]{2,1,0}, f32[64,16,1024]{2,1,0}, f32[64,16,2048]{2,1,0}, f32[64,16,1024]{2,1,0}, /*index=5*/f32[64,16,1024]{2,1,0}, f32[64,16,1024]{2,1,0}, f32[64,16,1024]{2,1,0}, f32[64,16,1024]{2,1,0}, f32[64,16,1024]{2,1,0}, /*index=10*/f32[64,16,1024]{2,1,0}, f32[64,16,1024]{2,1,0}, f32[64,16,1024]{2,1,0}, f32[2048,4096]{1,0}, s32[], /*index=15*/f32[2048,4096]{1,0}, f32[4096]{0}, f32[16,2048]{1,0}, f32[64,16,1024]{2,1,0}) %parameter.65), index=9
  %get-tuple-element.6405 = f32[64,16,1024]{2,1,0} get-tuple-element((f32[64,16,1024]{2,1,0}, f32[64,16,1024]{2,1,0}, f32[64,16,1024]{2,1,0}, f32[64,16,2048]{2,1,0}, f32[64,16,1024]{2,1,0}, /*index=5*/f32[64,16,1024]{2,1,0}, f32[64,16,1024]{2,1,0}, f32[64,16,1024]{2,1,0}, f32[64,16,1024]{2,1,0}, f32[64,16,1024]{2,1,0}, /*index=10*/f32[64,16,1024]{2,1,0}, f32[64,16,1024]{2,1,0}, f32[64,16,1024]{2,1,0}, f32[2048,4096]{1,0}, s32[], /*index=15*/f32[2048,4096]{1,0}, f32[4096]{0}, f32[16,2048]{1,0}, f32[64,16,1024]{2,1,0}) %parameter.65), index=10
  %get-tuple-element.6406 = f32[64,16,1024]{2,1,0} get-tuple-element((f32[64,16,1024]{2,1,0}, f32[64,16,1024]{2,1,0}, f32[64,16,1024]{2,1,0}, f32[64,16,2048]{2,1,0}, f32[64,16,1024]{2,1,0}, /*index=5*/f32[64,16,1024]{2,1,0}, f32[64,16,1024]{2,1,0}, f32[64,16,1024]{2,1,0}, f32[64,16,1024]{2,1,0}, f32[64,16,1024]{2,1,0}, /*index=10*/f32[64,16,1024]{2,1,0}, f32[64,16,1024]{2,1,0}, f32[64,16,1024]{2,1,0}, f32[2048,4096]{1,0}, s32[], /*index=15*/f32[2048,4096]{1,0}, f32[4096]{0}, f32[16,2048]{1,0}, f32[64,16,1024]{2,1,0}) %parameter.65), index=11
  %get-tuple-element.6407 = f32[64,16,1024]{2,1,0} get-tuple-element((f32[64,16,1024]{2,1,0}, f32[64,16,1024]{2,1,0}, f32[64,16,1024]{2,1,0}, f32[64,16,2048]{2,1,0}, f32[64,16,1024]{2,1,0}, /*index=5*/f32[64,16,1024]{2,1,0}, f32[64,16,1024]{2,1,0}, f32[64,16,1024]{2,1,0}, f32[64,16,1024]{2,1,0}, f32[64,16,1024]{2,1,0}, /*index=10*/f32[64,16,1024]{2,1,0}, f32[64,16,1024]{2,1,0}, f32[64,16,1024]{2,1,0}, f32[2048,4096]{1,0}, s32[], /*index=15*/f32[2048,4096]{1,0}, f32[4096]{0}, f32[16,2048]{1,0}, f32[64,16,1024]{2,1,0}) %parameter.65), index=12
  %get-tuple-element.6408 = f32[2048,4096]{1,0} get-tuple-element((f32[64,16,1024]{2,1,0}, f32[64,16,1024]{2,1,0}, f32[64,16,1024]{2,1,0}, f32[64,16,2048]{2,1,0}, f32[64,16,1024]{2,1,0}, /*index=5*/f32[64,16,1024]{2,1,0}, f32[64,16,1024]{2,1,0}, f32[64,16,1024]{2,1,0}, f32[64,16,1024]{2,1,0}, f32[64,16,1024]{2,1,0}, /*index=10*/f32[64,16,1024]{2,1,0}, f32[64,16,1024]{2,1,0}, f32[64,16,1024]{2,1,0}, f32[2048,4096]{1,0}, s32[], /*index=15*/f32[2048,4096]{1,0}, f32[4096]{0}, f32[16,2048]{1,0}, f32[64,16,1024]{2,1,0}) %parameter.65), index=13
  %get-tuple-element.6412 = f32[16,2048]{1,0} get-tuple-element((f32[64,16,1024]{2,1,0}, f32[64,16,1024]{2,1,0}, f32[64,16,1024]{2,1,0}, f32[64,16,2048]{2,1,0}, f32[64,16,1024]{2,1,0}, /*index=5*/f32[64,16,1024]{2,1,0}, f32[64,16,1024]{2,1,0}, f32[64,16,1024]{2,1,0}, f32[64,16,1024]{2,1,0}, f32[64,16,1024]{2,1,0}, /*index=10*/f32[64,16,1024]{2,1,0}, f32[64,16,1024]{2,1,0}, f32[64,16,1024]{2,1,0}, f32[2048,4096]{1,0}, s32[], /*index=15*/f32[2048,4096]{1,0}, f32[4096]{0}, f32[16,2048]{1,0}, f32[64,16,1024]{2,1,0}) %parameter.65), index=17
  %get-tuple-element.6409 = s32[] get-tuple-element((f32[64,16,1024]{2,1,0}, f32[64,16,1024]{2,1,0}, f32[64,16,1024]{2,1,0}, f32[64,16,2048]{2,1,0}, f32[64,16,1024]{2,1,0}, /*index=5*/f32[64,16,1024]{2,1,0}, f32[64,16,1024]{2,1,0}, f32[64,16,1024]{2,1,0}, f32[64,16,1024]{2,1,0}, f32[64,16,1024]{2,1,0}, /*index=10*/f32[64,16,1024]{2,1,0}, f32[64,16,1024]{2,1,0}, f32[64,16,1024]{2,1,0}, f32[2048,4096]{1,0}, s32[], /*index=15*/f32[2048,4096]{1,0}, f32[4096]{0}, f32[16,2048]{1,0}, f32[64,16,1024]{2,1,0}) %parameter.65), index=14
  %fusion.16 = f32[16,1024]{1,0} fusion(f32[64,16,1024]{2,1,0} %get-tuple-element.6405, f32[16,2048]{1,0} %get-tuple-element.6412, s32[] %get-tuple-element.6409, f32[64,16,1024]{2,1,0} %get-tuple-element.6404, f32[64,16,1024]{2,1,0} %get-tuple-element.6395, /*index=5*/f32[64,16,1024]{2,1,0} %get-tuple-element.6406), kind=kLoop, calls=%fused_computation.16, metadata={op_type="add_any" op_name="pmap(_multi_device_update_fn)/scan/while/body/add_any" source_file="/usr/local/lib/python3.8/dist-packages/trax/fastmath/ops.py" source_line=144}
  %fusion.14 = f32[16,4096]{1,0} fusion(f32[64,16,1024]{2,1,0} %get-tuple-element.6399, f32[16,1024]{1,0} %fusion.16, f32[64,16,1024]{2,1,0} %get-tuple-element.6397, f32[64,16,1024]{2,1,0} %get-tuple-element.6401, f32[64,16,1024]{2,1,0} %get-tuple-element.6402, /*index=5*/f32[64,16,1024]{2,1,0} %get-tuple-element.6403, f32[64,16,1024]{2,1,0} %get-tuple-element.6400, f32[64,16,1024]{2,1,0} %get-tuple-element.6407, s32[] %get-tuple-element.6409, f32[64,16,1024]{2,1,0} %get-tuple-element.6396, /*index=10*/f32[64,16,1024]{2,1,0} %get-tuple-element.6404, f32[16,2048]{1,0} %get-tuple-element.6412, f32[64,16,1024]{2,1,0} %get-tuple-element.6395, f32[64,16,1024]{2,1,0} %get-tuple-element.6406), kind=kLoop, calls=%fused_computation.14, metadata={op_type="add_any" op_name="pmap(_multi_device_update_fn)/scan/while/body/add_any" source_file="/usr/local/lib/python3.8/dist-packages/trax/fastmath/ops.py" source_line=144}
  %custom-call.97 = f32[16,2048]{1,0} custom-call(f32[16,4096]{1,0} %fusion.14, f32[2048,4096]{1,0} %get-tuple-element.6408), custom_call_target="__cublas$gemm", metadata={op_type="dot_general" op_name="pmap(_multi_device_update_fn)/scan/while/body/dot_general[ dimension_numbers=(((1,), (1,)), ((), ()))\n                                                           precision=None\n                                                           preferred_element_type=None ]" source_file="/usr/local/lib/python3.8/dist-packages/trax/layers/rnn.py" source_line=58}, backend_config="{\"alpha_real\":1,\"alpha_imag\":0,\"beta\":0,\"dot_dimension_numbers\":{\"lhs_contracting_dimensions\":[\"1\"],\"rhs_contracting_dimensions\":[\"1\"],\"lhs_batch_dimensions\":[],\"rhs_batch_dimensions\":[]},\"batch_size\":\"1\",\"selected_algorithm\":\"-1\"}"
  %fusion.20 = (f32[16,2048]{1,0}, f32[16,2048]{1,0}) fusion(f32[64,16,2048]{2,1,0} %get-tuple-element.6398, s32[] %get-tuple-element.6409, f32[16,1024]{1,0} %fusion.16, f32[64,16,1024]{2,1,0} %get-tuple-element.6396, f32[16,2048]{1,0} %custom-call.97), kind=kLoop, calls=%fused_computation.20, control-predecessors={%fusion.16, %fusion.14}, metadata={op_type="squeeze" op_name="pmap(_multi_device_update_fn)/scan/while/body/squeeze[ dimensions=(0,) ]" source_file="/usr/local/lib/python3.8/dist-packages/trax/optimizers/trainer.py" source_line=248}
  %get-tuple-element.6413 = f32[64,16,1024]{2,1,0} get-tuple-element((f32[64,16,1024]{2,1,0}, f32[64,16,1024]{2,1,0}, f32[64,16,1024]{2,1,0}, f32[64,16,2048]{2,1,0}, f32[64,16,1024]{2,1,0}, /*index=5*/f32[64,16,1024]{2,1,0}, f32[64,16,1024]{2,1,0}, f32[64,16,1024]{2,1,0}, f32[64,16,1024]{2,1,0}, f32[64,16,1024]{2,1,0}, /*index=10*/f32[64,16,1024]{2,1,0}, f32[64,16,1024]{2,1,0}, f32[64,16,1024]{2,1,0}, f32[2048,4096]{1,0}, s32[], /*index=15*/f32[2048,4096]{1,0}, f32[4096]{0}, f32[16,2048]{1,0}, f32[64,16,1024]{2,1,0}) %parameter.65), index=18
  %fusion.11 = f32[64,16,1024]{2,1,0} fusion(f32[64,16,1024]{2,1,0} %get-tuple-element.6413, f32[16,2048]{1,0} %custom-call.97, s32[] %get-tuple-element.6409), kind=kLoop, calls=%fused_computation.11, metadata={op_type="dynamic_update_slice" op_name="pmap(_multi_device_update_fn)/scan/while/body/dynamic_update_slice" source_file="/usr/local/lib/python3.8/dist-packages/trax/optimizers/trainer.py" source_line=248}
  %constant_8516 = s32[] constant(1), metadata={op_type="add" op_name="pmap(_multi_device_update_fn)/scan/while/body/add" source_file="/usr/local/lib/python3.8/dist-packages/trax/optimizers/trainer.py" source_line=248}
  %add.1255 = s32[] add(s32[] %get-tuple-element.6409, s32[] %constant_8516), control-predecessors={%fusion.11, %fusion.20, %fusion.16, %fusion.14}, metadata={op_type="add" op_name="pmap(_multi_device_update_fn)/scan/while/body/add" source_file="/usr/local/lib/python3.8/dist-packages/trax/optimizers/trainer.py" source_line=248}
  %get-tuple-element.5038 = f32[16,2048]{1,0} get-tuple-element((f32[16,2048]{1,0}, f32[16,2048]{1,0}) %fusion.20), index=0
  %get-tuple-element.6410 = f32[2048,4096]{1,0} get-tuple-element((f32[64,16,1024]{2,1,0}, f32[64,16,1024]{2,1,0}, f32[64,16,1024]{2,1,0}, f32[64,16,2048]{2,1,0}, f32[64,16,1024]{2,1,0}, /*index=5*/f32[64,16,1024]{2,1,0}, f32[64,16,1024]{2,1,0}, f32[64,16,1024]{2,1,0}, f32[64,16,1024]{2,1,0}, f32[64,16,1024]{2,1,0}, /*index=10*/f32[64,16,1024]{2,1,0}, f32[64,16,1024]{2,1,0}, f32[64,16,1024]{2,1,0}, f32[2048,4096]{1,0}, s32[], /*index=15*/f32[2048,4096]{1,0}, f32[4096]{0}, f32[16,2048]{1,0}, f32[64,16,1024]{2,1,0}) %parameter.65), index=15
  %custom-call.96 = f32[2048,4096]{1,0} custom-call(f32[16,2048]{1,0} %get-tuple-element.5038, f32[16,4096]{1,0} %fusion.14, f32[2048,4096]{1,0} %get-tuple-element.6410), custom_call_target="__cublas$gemm", metadata={op_type="add_any" op_name="pmap(_multi_device_update_fn)/scan/while/body/add_any" source_file="/usr/local/lib/python3.8/dist-packages/trax/fastmath/ops.py" source_line=144}, backend_config="{\"alpha_real\":1,\"alpha_imag\":0,\"beta\":1,\"dot_dimension_numbers\":{\"lhs_contracting_dimensions\":[\"0\"],\"rhs_contracting_dimensions\":[\"0\"],\"lhs_batch_dimensions\":[],\"rhs_batch_dimensions\":[]},\"batch_size\":\"1\",\"selected_algorithm\":\"4\"}"
  %get-tuple-element.6411 = f32[4096]{0} get-tuple-element((f32[64,16,1024]{2,1,0}, f32[64,16,1024]{2,1,0}, f32[64,16,1024]{2,1,0}, f32[64,16,2048]{2,1,0}, f32[64,16,1024]{2,1,0}, /*index=5*/f32[64,16,1024]{2,1,0}, f32[64,16,1024]{2,1,0}, f32[64,16,1024]{2,1,0}, f32[64,16,1024]{2,1,0}, f32[64,16,1024]{2,1,0}, /*index=10*/f32[64,16,1024]{2,1,0}, f32[64,16,1024]{2,1,0}, f32[64,16,1024]{2,1,0}, f32[2048,4096]{1,0}, s32[], /*index=15*/f32[2048,4096]{1,0}, f32[4096]{0}, f32[16,2048]{1,0}, f32[64,16,1024]{2,1,0}) %parameter.65), index=16
  %fusion.13 = f32[4096]{0} fusion(f32[4096]{0} %get-tuple-element.6411, f32[16,4096]{1,0} %fusion.14), kind=kLoop, calls=%fused_computation.13, metadata={op_type="add_any" op_name="pmap(_multi_device_update_fn)/scan/while/body/add_any" source_file="/usr/local/lib/python3.8/dist-packages/trax/fastmath/ops.py" source_line=144}
  %get-tuple-element.5039 = f32[16,2048]{1,0} get-tuple-element((f32[16,2048]{1,0}, f32[16,2048]{1,0}) %fusion.20), index=1
  ROOT %tuple.817 = (f32[64,16,1024]{2,1,0}, f32[64,16,1024]{2,1,0}, f32[64,16,1024]{2,1,0}, f32[64,16,2048]{2,1,0}, f32[64,16,1024]{2,1,0}, /*index=5*/f32[64,16,1024]{2,1,0}, f32[64,16,1024]{2,1,0}, f32[64,16,1024]{2,1,0}, f32[64,16,1024]{2,1,0}, f32[64,16,1024]{2,1,0}, /*index=10*/f32[64,16,1024]{2,1,0}, f32[64,16,1024]{2,1,0}, f32[64,16,1024]{2,1,0}, f32[2048,4096]{1,0}, s32[], /*index=15*/f32[2048,4096]{1,0}, f32[4096]{0}, f32[16,2048]{1,0}, f32[64,16,1024]{2,1,0}) tuple(f32[64,16,1024]{2,1,0} %get-tuple-element.6395, f32[64,16,1024]{2,1,0} %get-tuple-element.6396, f32[64,16,1024]{2,1,0} %get-tuple-element.6397, f32[64,16,2048]{2,1,0} %get-tuple-element.6398, f32[64,16,1024]{2,1,0} %get-tuple-element.6399, /*index=5*/f32[64,16,1024]{2,1,0} %get-tuple-element.6400, f32[64,16,1024]{2,1,0} %get-tuple-element.6401, f32[64,16,1024]{2,1,0} %get-tuple-element.6402, f32[64,16,1024]{2,1,0} %get-tuple-element.6403, f32[64,16,1024]{2,1,0} %get-tuple-element.6404, /*index=10*/f32[64,16,1024]{2,1,0} %get-tuple-element.6405, f32[64,16,1024]{2,1,0} %get-tuple-element.6406, f32[64,16,1024]{2,1,0} %get-tuple-element.6407, f32[2048,4096]{1,0} %get-tuple-element.6408, s32[] %add.1255, /*index=15*/f32[2048,4096]{1,0} %custom-call.96, f32[4096]{0} %fusion.13, f32[16,2048]{1,0} %get-tuple-element.5039, f32[64,16,1024]{2,1,0} %fusion.11)
}

%cond_computation__46.8690.clone.clone (parameter.66: (f32[64,16,1024], f32[64,16,1024], f32[64,16,1024], f32[64,16,2048], f32[64,16,1024], /*index=5*/f32[64,16,1024], f32[64,16,1024], f32[64,16,1024], f32[64,16,1024], f32[64,16,1024], /*index=10*/f32[64,16,1024], f32[64,16,1024], f32[64,16,1024], f32[2048,4096], s32[], /*index=15*/f32[2048,4096], f32[4096], f32[16,2048], f32[64,16,1024])) -> pred[] {
  %parameter.66 = (f32[64,16,1024]{2,1,0}, f32[64,16,1024]{2,1,0}, f32[64,16,1024]{2,1,0}, f32[64,16,2048]{2,1,0}, f32[64,16,1024]{2,1,0}, /*index=5*/f32[64,16,1024]{2,1,0}, f32[64,16,1024]{2,1,0}, f32[64,16,1024]{2,1,0}, f32[64,16,1024]{2,1,0}, f32[64,16,1024]{2,1,0}, /*index=10*/f32[64,16,1024]{2,1,0}, f32[64,16,1024]{2,1,0}, f32[64,16,1024]{2,1,0}, f32[2048,4096]{1,0}, s32[], /*index=15*/f32[2048,4096]{1,0}, f32[4096]{0}, f32[16,2048]{1,0}, f32[64,16,1024]{2,1,0}) parameter(0)
  %get-tuple-element.3375 = s32[] get-tuple-element((f32[64,16,1024]{2,1,0}, f32[64,16,1024]{2,1,0}, f32[64,16,1024]{2,1,0}, f32[64,16,2048]{2,1,0}, f32[64,16,1024]{2,1,0}, /*index=5*/f32[64,16,1024]{2,1,0}, f32[64,16,1024]{2,1,0}, f32[64,16,1024]{2,1,0}, f32[64,16,1024]{2,1,0}, f32[64,16,1024]{2,1,0}, /*index=10*/f32[64,16,1024]{2,1,0}, f32[64,16,1024]{2,1,0}, f32[64,16,1024]{2,1,0}, f32[2048,4096]{1,0}, s32[], /*index=15*/f32[2048,4096]{1,0}, f32[4096]{0}, f32[16,2048]{1,0}, f32[64,16,1024]{2,1,0}) %parameter.66), index=14
  %constant_8522 = s32[] constant(64), metadata={op_type="lt" op_name="pmap(_multi_device_update_fn)/scan/while/cond/lt" source_file="/usr/local/lib/python3.8/dist-packages/trax/optimizers/trainer.py" source_line=248}
  ROOT %compare.1122 = pred[] compare(s32[] %get-tuple-element.3375, s32[] %constant_8522), direction=LT, metadata={op_type="lt" op_name="pmap(_multi_device_update_fn)/scan/while/cond/lt" source_file="/usr/local/lib/python3.8/dist-packages/trax/optimizers/trainer.py" source_line=248}
}

%fused_computation.22 (param_0.46: f32[64,16,1024], param_1.1948: f32[16,2048], param_2.1556: s32[]) -> f32[64,16,1024] {
  %param_0.46 = f32[64,16,1024]{2,1,0} parameter(0)
  %param_1.1948 = f32[16,2048]{1,0} parameter(1)
  %slice.826 = f32[16,1024]{1,0} slice(f32[16,2048]{1,0} %param_1.1948), slice={[0:16], [0:1024]}, metadata={op_type="slice" op_name="pmap(_multi_device_update_fn)/scan/while/body/slice[ limit_indices=(16, 1024)\n                                                     start_indices=(0, 0)\n                                                     strides=None ]" source_file="/usr/local/lib/python3.8/dist-packages/trax/layers/rnn.py" source_line=58}
  %bitcast.435 = f32[1,16,1024]{2,1,0} bitcast(f32[16,1024]{1,0} %slice.826), metadata={op_type="broadcast_in_dim" op_name="pmap(_multi_device_update_fn)/scan/while/body/broadcast_in_dim[ broadcast_dimensions=(1, 2)\n                                                                shape=(1, 16, 1024) ]" source_file="/usr/local/lib/python3.8/dist-packages/trax/optimizers/trainer.py" source_line=248}
  %constant_12384 = s32[] constant(64), metadata={op_type="sub" op_name="pmap(_multi_device_update_fn)/scan/while/body/sub" source_file="/usr/local/lib/python3.8/dist-packages/trax/optimizers/trainer.py" source_line=248}
  %param_2.1556 = s32[] parameter(2)
  %subtract.403 = s32[] subtract(s32[] %constant_12384, s32[] %param_2.1556), metadata={op_type="sub" op_name="pmap(_multi_device_update_fn)/scan/while/body/sub" source_file="/usr/local/lib/python3.8/dist-packages/trax/optimizers/trainer.py" source_line=248}
  %constant_12382 = s32[] constant(-1)
  %add.2285 = s32[] add(s32[] %subtract.403, s32[] %constant_12382), metadata={op_type="sub" op_name="pmap(_multi_device_update_fn)/scan/while/body/sub" source_file="/usr/local/lib/python3.8/dist-packages/trax/optimizers/trainer.py" source_line=248}
  %constant_10644 = s32[] constant(0), metadata={op_type="lt" op_name="pmap(_multi_device_update_fn)/scan/while/body/lt" source_file="/usr/local/lib/python3.8/dist-packages/trax/optimizers/trainer.py" source_line=248}
  %compare.1497 = pred[] compare(s32[] %add.2285, s32[] %constant_10644), direction=LT, metadata={op_type="lt" op_name="pmap(_multi_device_update_fn)/scan/while/body/lt" source_file="/usr/local/lib/python3.8/dist-packages/trax/optimizers/trainer.py" source_line=248}
  %constant_12379 = s32[] constant(63)
  %add.2284 = s32[] add(s32[] %subtract.403, s32[] %constant_12379), metadata={op_type="add" op_name="pmap(_multi_device_update_fn)/scan/while/body/add" source_file="/usr/local/lib/python3.8/dist-packages/trax/optimizers/trainer.py" source_line=248}
  %select.1487 = s32[] select(pred[] %compare.1497, s32[] %add.2284, s32[] %add.2285), metadata={op_type="select" op_name="pmap(_multi_device_update_fn)/scan/while/body/select" source_file="/usr/local/lib/python3.8/dist-packages/trax/optimizers/trainer.py" source_line=248}
  ROOT %dynamic-update-slice.493 = f32[64,16,1024]{2,1,0} dynamic-update-slice(f32[64,16,1024]{2,1,0} %param_0.46, f32[1,16,1024]{2,1,0} %bitcast.435, s32[] %select.1487, s32[] %constant_10644, s32[] %constant_10644), metadata={op_type="dynamic_update_slice" op_name="pmap(_multi_device_update_fn)/scan/while/body/dynamic_update_slice" source_file="/usr/local/lib/python3.8/dist-packages/trax/optimizers/trainer.py" source_line=248}
}

%primitive_computation_add__1.8783 (parameter.8784: f32[], parameter.8785: f32[]) -> f32[] {
  %parameter.8784 = f32[] parameter(0), metadata={op_type="add" op_name="add"}
  %parameter.8785 = f32[] parameter(1), metadata={op_type="add" op_name="add"}
  ROOT %add.8786 = f32[] add(f32[] %parameter.8784, f32[] %parameter.8785), metadata={op_type="add" op_name="add"}
}

%fused_computation.24 (param_0.49: f32[4096], param_1.69: f32[16,4096]) -> f32[4096] {
  %param_0.49 = f32[4096]{0} parameter(0)
  %param_1.69 = f32[16,4096]{1,0} parameter(1)
  %constant_10649 = f32[] constant(0), metadata={op_type="pad" op_name="pmap(_multi_device_update_fn)/scan/while/body/pad[ padding_config=((0, 0, 0), (3072, 0, 0)) ]" source_file="/usr/local/lib/python3.8/dist-packages/trax/layers/rnn.py" source_line=61}
  %reduce.175 = f32[4096]{0} reduce(f32[16,4096]{1,0} %param_1.69, f32[] %constant_10649), dimensions={0}, to_apply=%primitive_computation_add__1.8783, metadata={op_type="reduce_sum" op_name="pmap(_multi_device_update_fn)/scan/while/body/reduce_sum[ axes=(0,) ]" source_file="/usr/local/lib/python3.8/dist-packages/trax/layers/rnn.py" source_line=58}
  ROOT %add.1783 = f32[4096]{0} add(f32[4096]{0} %param_0.49, f32[4096]{0} %reduce.175), metadata={op_type="add_any" op_name="pmap(_multi_device_update_fn)/scan/while/body/add_any" source_file="/usr/local/lib/python3.8/dist-packages/trax/fastmath/ops.py" source_line=144}
}

%fused_computation.25 (param_0.1584: f32[64,16,1024], param_1.1950: f32[16,1024], param_2.1557: f32[64,16,1024], param_3.1314: f32[64,16,1024], param_4.563: f32[64,16,1024], param_5.298: f32[64,16,1024], param_6.253: f32[64,16,1024], param_7.255: f32[64,16,1024], param_8.182: s32[], param_9.109: f32[64,16,1024], param_10.119: f32[64,16,1024], param_11.146: f32[16,2048], param_12.122: f32[64,16,1024], param_13.113: f32[64,16,1024]) -> f32[16,4096] {
  %param_10.119 = f32[64,16,1024]{2,1,0} parameter(10)
  %constant_12340 = s32[] constant(64), metadata={op_type="sub" op_name="pmap(_multi_device_update_fn)/scan/while/body/sub" source_file="/usr/local/lib/python3.8/dist-packages/trax/optimizers/trainer.py" source_line=248}
  %param_8.182 = s32[] parameter(8)
  %subtract.409 = s32[] subtract(s32[] %constant_12340, s32[] %param_8.182), metadata={op_type="sub" op_name="pmap(_multi_device_update_fn)/scan/while/body/sub" source_file="/usr/local/lib/python3.8/dist-packages/trax/optimizers/trainer.py" source_line=248}
  %constant_12339 = s32[] constant(-1)
  %add.2297 = s32[] add(s32[] %subtract.409, s32[] %constant_12339), metadata={op_type="sub" op_name="pmap(_multi_device_update_fn)/scan/while/body/sub" source_file="/usr/local/lib/python3.8/dist-packages/trax/optimizers/trainer.py" source_line=248}
  %constant_10654 = s32[] constant(0), metadata={op_type="lt" op_name="pmap(_multi_device_update_fn)/scan/while/body/lt" source_file="/usr/local/lib/python3.8/dist-packages/trax/optimizers/trainer.py" source_line=248}
  %compare.1503 = pred[] compare(s32[] %add.2297, s32[] %constant_10654), direction=LT, metadata={op_type="lt" op_name="pmap(_multi_device_update_fn)/scan/while/body/lt" source_file="/usr/local/lib/python3.8/dist-packages/trax/optimizers/trainer.py" source_line=248}
  %constant_12337 = s32[] constant(63)
  %add.2296 = s32[] add(s32[] %subtract.409, s32[] %constant_12337), metadata={op_type="add" op_name="pmap(_multi_device_update_fn)/scan/while/body/add" source_file="/usr/local/lib/python3.8/dist-packages/trax/optimizers/trainer.py" source_line=248}
  %select.1494 = s32[] select(pred[] %compare.1503, s32[] %add.2296, s32[] %add.2297), metadata={op_type="select" op_name="pmap(_multi_device_update_fn)/scan/while/body/select" source_file="/usr/local/lib/python3.8/dist-packages/trax/optimizers/trainer.py" source_line=248}
  %dynamic-slice.448 = f32[1,16,1024]{2,1,0} dynamic-slice(f32[64,16,1024]{2,1,0} %param_10.119, s32[] %select.1494, s32[] %constant_10654, s32[] %constant_10654), dynamic_slice_sizes={1,16,1024}, metadata={op_type="dynamic_slice" op_name="pmap(_multi_device_update_fn)/scan/while/body/dynamic_slice[ slice_sizes=(1, 16, 1024) ]" source_file="/usr/local/lib/python3.8/dist-packages/trax/optimizers/trainer.py" source_line=248}
  %bitcast.833 = f32[16,1024]{1,0} bitcast(f32[1,16,1024]{2,1,0} %dynamic-slice.448), metadata={op_type="squeeze" op_name="pmap(_multi_device_update_fn)/scan/while/body/squeeze[ dimensions=(0,) ]" source_file="/usr/local/lib/python3.8/dist-packages/trax/optimizers/trainer.py" source_line=248}
  %param_12.122 = f32[64,16,1024]{2,1,0} parameter(12)
  %dynamic-slice.452 = f32[1,16,1024]{2,1,0} dynamic-slice(f32[64,16,1024]{2,1,0} %param_12.122, s32[] %select.1494, s32[] %constant_10654, s32[] %constant_10654), dynamic_slice_sizes={1,16,1024}, metadata={op_type="dynamic_slice" op_name="pmap(_multi_device_update_fn)/scan/while/body/dynamic_slice[ slice_sizes=(1, 16, 1024) ]" source_file="/usr/local/lib/python3.8/dist-packages/trax/optimizers/trainer.py" source_line=248}
  %bitcast.837 = f32[16,1024]{1,0} bitcast(f32[1,16,1024]{2,1,0} %dynamic-slice.452), metadata={op_type="squeeze" op_name="pmap(_multi_device_update_fn)/scan/while/body/squeeze[ dimensions=(0,) ]" source_file="/usr/local/lib/python3.8/dist-packages/trax/optimizers/trainer.py" source_line=248}
  %param_11.146 = f32[16,2048]{1,0} parameter(11)
  %slice.964 = f32[16,1024]{1,0} slice(f32[16,2048]{1,0} %param_11.146), slice={[0:16], [1024:2048]}, metadata={op_type="slice" op_name="pmap(_multi_device_update_fn)/scan/while/body/slice[ limit_indices=(16, 2048)\n                                                     start_indices=(0, 1024)\n                                                     strides=None ]" source_file="/usr/local/lib/python3.8/dist-packages/trax/layers/rnn.py" source_line=65}
  %add.2305 = f32[16,1024]{1,0} add(f32[16,1024]{1,0} %bitcast.837, f32[16,1024]{1,0} %slice.964), metadata={op_type="add_any" op_name="pmap(_multi_device_update_fn)/scan/while/body/add_any" source_file="/usr/local/lib/python3.8/dist-packages/trax/fastmath/ops.py" source_line=144}
  %multiply.829 = f32[16,1024]{1,0} multiply(f32[16,1024]{1,0} %bitcast.833, f32[16,1024]{1,0} %add.2305), metadata={op_type="mul" op_name="pmap(_multi_device_update_fn)/scan/while/body/mul" source_file="/usr/local/lib/python3.8/dist-packages/trax/layers/rnn.py" source_line=64}
  %param_7.255 = f32[64,16,1024]{2,1,0} parameter(7)
  %dynamic-slice.317 = f32[1,16,1024]{2,1,0} dynamic-slice(f32[64,16,1024]{2,1,0} %param_7.255, s32[] %select.1494, s32[] %constant_10654, s32[] %constant_10654), dynamic_slice_sizes={1,16,1024}, metadata={op_type="dynamic_slice" op_name="pmap(_multi_device_update_fn)/scan/while/body/dynamic_slice[ slice_sizes=(1, 16, 1024) ]" source_file="/usr/local/lib/python3.8/dist-packages/trax/optimizers/trainer.py" source_line=248}
  %bitcast.442 = f32[16,1024]{1,0} bitcast(f32[1,16,1024]{2,1,0} %dynamic-slice.317), metadata={op_type="squeeze" op_name="pmap(_multi_device_update_fn)/scan/while/body/squeeze[ dimensions=(0,) ]" source_file="/usr/local/lib/python3.8/dist-packages/trax/optimizers/trainer.py" source_line=248}
  %multiply.828 = f32[16,1024]{1,0} multiply(f32[16,1024]{1,0} %multiply.829, f32[16,1024]{1,0} %bitcast.442), metadata={op_type="mul" op_name="pmap(_multi_device_update_fn)/scan/while/body/mul" source_file="/usr/local/lib/python3.8/dist-packages/trax/fastmath/ops.py" source_line=104}
  %param_13.113 = f32[64,16,1024]{2,1,0} parameter(13)
  %dynamic-slice.456 = f32[1,16,1024]{2,1,0} dynamic-slice(f32[64,16,1024]{2,1,0} %param_13.113, s32[] %select.1494, s32[] %constant_10654, s32[] %constant_10654), dynamic_slice_sizes={1,16,1024}, metadata={op_type="dynamic_slice" op_name="pmap(_multi_device_update_fn)/scan/while/body/dynamic_slice[ slice_sizes=(1, 16, 1024) ]" source_file="/usr/local/lib/python3.8/dist-packages/trax/optimizers/trainer.py" source_line=248}
  %bitcast.841 = f32[16,1024]{1,0} bitcast(f32[1,16,1024]{2,1,0} %dynamic-slice.456), metadata={op_type="squeeze" op_name="pmap(_multi_device_update_fn)/scan/while/body/squeeze[ dimensions=(0,) ]" source_file="/usr/local/lib/python3.8/dist-packages/trax/optimizers/trainer.py" source_line=248}
  %multiply.827 = f32[16,1024]{1,0} multiply(f32[16,1024]{1,0} %multiply.828, f32[16,1024]{1,0} %bitcast.841), metadata={op_type="mul" op_name="pmap(_multi_device_update_fn)/scan/while/body/mul" source_file="/usr/local/lib/python3.8/dist-packages/trax/fastmath/ops.py" source_line=104}
  %constant_10652 = f32[] constant(0), metadata={op_type="pad" op_name="pmap(_multi_device_update_fn)/scan/while/body/pad[ padding_config=((0, 0, 0), (3072, 0, 0)) ]" source_file="/usr/local/lib/python3.8/dist-packages/trax/layers/rnn.py" source_line=61}
  %pad.139 = f32[16,4096]{1,0} pad(f32[16,1024]{1,0} %multiply.827, f32[] %constant_10652), padding=0_0x3072_0, metadata={op_type="pad" op_name="pmap(_multi_device_update_fn)/scan/while/body/pad[ padding_config=((0, 0, 0), (3072, 0, 0)) ]" source_file="/usr/local/lib/python3.8/dist-packages/trax/layers/rnn.py" source_line=61}
  %param_6.253 = f32[64,16,1024]{2,1,0} parameter(6)
  %dynamic-slice.316 = f32[1,16,1024]{2,1,0} dynamic-slice(f32[64,16,1024]{2,1,0} %param_6.253, s32[] %select.1494, s32[] %constant_10654, s32[] %constant_10654), dynamic_slice_sizes={1,16,1024}, metadata={op_type="dynamic_slice" op_name="pmap(_multi_device_update_fn)/scan/while/body/dynamic_slice[ slice_sizes=(1, 16, 1024) ]" source_file="/usr/local/lib/python3.8/dist-packages/trax/optimizers/trainer.py" source_line=248}
  %bitcast.441 = f32[16,1024]{1,0} bitcast(f32[1,16,1024]{2,1,0} %dynamic-slice.316), metadata={op_type="squeeze" op_name="pmap(_multi_device_update_fn)/scan/while/body/squeeze[ dimensions=(0,) ]" source_file="/usr/local/lib/python3.8/dist-packages/trax/optimizers/trainer.py" source_line=248}
  %param_1.1950 = f32[16,1024]{1,0} parameter(1)
  %multiply.826 = f32[16,1024]{1,0} multiply(f32[16,1024]{1,0} %bitcast.441, f32[16,1024]{1,0} %param_1.1950), metadata={op_type="mul" op_name="pmap(_multi_device_update_fn)/scan/while/body/mul" source_file="/usr/local/lib/python3.8/dist-packages/trax/layers/rnn.py" source_line=63}
  %param_5.298 = f32[64,16,1024]{2,1,0} parameter(5)
  %dynamic-slice.315 = f32[1,16,1024]{2,1,0} dynamic-slice(f32[64,16,1024]{2,1,0} %param_5.298, s32[] %select.1494, s32[] %constant_10654, s32[] %constant_10654), dynamic_slice_sizes={1,16,1024}, metadata={op_type="dynamic_slice" op_name="pmap(_multi_device_update_fn)/scan/while/body/dynamic_slice[ slice_sizes=(1, 16, 1024) ]" source_file="/usr/local/lib/python3.8/dist-packages/trax/optimizers/trainer.py" source_line=248}
  %bitcast.440 = f32[16,1024]{1,0} bitcast(f32[1,16,1024]{2,1,0} %dynamic-slice.315), metadata={op_type="squeeze" op_name="pmap(_multi_device_update_fn)/scan/while/body/squeeze[ dimensions=(0,) ]" source_file="/usr/local/lib/python3.8/dist-packages/trax/optimizers/trainer.py" source_line=248}
  %multiply.825 = f32[16,1024]{1,0} multiply(f32[16,1024]{1,0} %multiply.826, f32[16,1024]{1,0} %bitcast.440), metadata={op_type="mul" op_name="pmap(_multi_device_update_fn)/scan/while/body/mul" source_file="/usr/local/lib/python3.8/dist-packages/trax/layers/rnn.py" source_line=63}
  %param_4.563 = f32[64,16,1024]{2,1,0} parameter(4)
  %dynamic-slice.314 = f32[1,16,1024]{2,1,0} dynamic-slice(f32[64,16,1024]{2,1,0} %param_4.563, s32[] %select.1494, s32[] %constant_10654, s32[] %constant_10654), dynamic_slice_sizes={1,16,1024}, metadata={op_type="dynamic_slice" op_name="pmap(_multi_device_update_fn)/scan/while/body/dynamic_slice[ slice_sizes=(1, 16, 1024) ]" source_file="/usr/local/lib/python3.8/dist-packages/trax/optimizers/trainer.py" source_line=248}
  %bitcast.439 = f32[16,1024]{1,0} bitcast(f32[1,16,1024]{2,1,0} %dynamic-slice.314), metadata={op_type="squeeze" op_name="pmap(_multi_device_update_fn)/scan/while/body/squeeze[ dimensions=(0,) ]" source_file="/usr/local/lib/python3.8/dist-packages/trax/optimizers/trainer.py" source_line=248}
  %multiply.824 = f32[16,1024]{1,0} multiply(f32[16,1024]{1,0} %multiply.825, f32[16,1024]{1,0} %bitcast.439), metadata={op_type="mul" op_name="pmap(_multi_device_update_fn)/scan/while/body/mul" source_file="/usr/local/lib/python3.8/dist-packages/trax/layers/rnn.py" source_line=63}
  %add.1787 = f32[16,1024]{1,0} add(f32[16,1024]{1,0} %multiply.825, f32[16,1024]{1,0} %multiply.824), metadata={op_type="add_any" op_name="pmap(_multi_device_update_fn)/scan/while/body/add_any" source_file="/usr/local/lib/python3.8/dist-packages/trax/fastmath/ops.py" source_line=144}
  %pad.138 = f32[16,4096]{1,0} pad(f32[16,1024]{1,0} %add.1787, f32[] %constant_10652), padding=0_0x1024_2048, metadata={op_type="pad" op_name="pmap(_multi_device_update_fn)/scan/while/body/pad[ padding_config=((0, 0, 0), (1024, 2048, 0)) ]" source_file="/usr/local/lib/python3.8/dist-packages/trax/layers/rnn.py" source_line=61}
  %add.1786 = f32[16,4096]{1,0} add(f32[16,4096]{1,0} %pad.139, f32[16,4096]{1,0} %pad.138), metadata={op_type="add_any" op_name="pmap(_multi_device_update_fn)/scan/while/body/add_any" source_file="/usr/local/lib/python3.8/dist-packages/trax/fastmath/ops.py" source_line=144}
  %multiply.823 = f32[16,1024]{1,0} multiply(f32[16,1024]{1,0} %param_1.1950, f32[16,1024]{1,0} %bitcast.439), metadata={op_type="mul" op_name="pmap(_multi_device_update_fn)/scan/while/body/mul" source_file="/usr/local/lib/python3.8/dist-packages/trax/layers/rnn.py" source_line=63}
  %param_3.1314 = f32[64,16,1024]{2,1,0} parameter(3)
  %dynamic-slice.313 = f32[1,16,1024]{2,1,0} dynamic-slice(f32[64,16,1024]{2,1,0} %param_3.1314, s32[] %select.1494, s32[] %constant_10654, s32[] %constant_10654), dynamic_slice_sizes={1,16,1024}, metadata={op_type="dynamic_slice" op_name="pmap(_multi_device_update_fn)/scan/while/body/dynamic_slice[ slice_sizes=(1, 16, 1024) ]" source_file="/usr/local/lib/python3.8/dist-packages/trax/optimizers/trainer.py" source_line=248}
  %bitcast.438 = f32[16,1024]{1,0} bitcast(f32[1,16,1024]{2,1,0} %dynamic-slice.313), metadata={op_type="squeeze" op_name="pmap(_multi_device_update_fn)/scan/while/body/squeeze[ dimensions=(0,) ]" source_file="/usr/local/lib/python3.8/dist-packages/trax/optimizers/trainer.py" source_line=248}
  %multiply.822 = f32[16,1024]{1,0} multiply(f32[16,1024]{1,0} %multiply.823, f32[16,1024]{1,0} %bitcast.438), metadata={op_type="mul" op_name="pmap(_multi_device_update_fn)/scan/while/body/mul" source_file="/usr/local/lib/python3.8/dist-packages/trax/fastmath/ops.py" source_line=104}
  %multiply.821 = f32[16,1024]{1,0} multiply(f32[16,1024]{1,0} %multiply.822, f32[16,1024]{1,0} %bitcast.441), metadata={op_type="mul" op_name="pmap(_multi_device_update_fn)/scan/while/body/mul" source_file="/usr/local/lib/python3.8/dist-packages/trax/fastmath/ops.py" source_line=104}
  %pad.137 = f32[16,4096]{1,0} pad(f32[16,1024]{1,0} %multiply.821, f32[] %constant_10652), padding=0_0x0_3072, metadata={op_type="pad" op_name="pmap(_multi_device_update_fn)/scan/while/body/pad[ padding_config=((0, 0, 0), (0, 3072, 0)) ]" source_file="/usr/local/lib/python3.8/dist-packages/trax/layers/rnn.py" source_line=61}
  %add.1785 = f32[16,4096]{1,0} add(f32[16,4096]{1,0} %add.1786, f32[16,4096]{1,0} %pad.137), metadata={op_type="add_any" op_name="pmap(_multi_device_update_fn)/scan/while/body/add_any" source_file="/usr/local/lib/python3.8/dist-packages/trax/fastmath/ops.py" source_line=144}
  %param_2.1557 = f32[64,16,1024]{2,1,0} parameter(2)
  %dynamic-slice.312 = f32[1,16,1024]{2,1,0} dynamic-slice(f32[64,16,1024]{2,1,0} %param_2.1557, s32[] %select.1494, s32[] %constant_10654, s32[] %constant_10654), dynamic_slice_sizes={1,16,1024}, metadata={op_type="dynamic_slice" op_name="pmap(_multi_device_update_fn)/scan/while/body/dynamic_slice[ slice_sizes=(1, 16, 1024) ]" source_file="/usr/local/lib/python3.8/dist-packages/trax/optimizers/trainer.py" source_line=248}
  %bitcast.437 = f32[16,1024]{1,0} bitcast(f32[1,16,1024]{2,1,0} %dynamic-slice.312), metadata={op_type="squeeze" op_name="pmap(_multi_device_update_fn)/scan/while/body/squeeze[ dimensions=(0,) ]" source_file="/usr/local/lib/python3.8/dist-packages/trax/optimizers/trainer.py" source_line=248}
  %multiply.820 = f32[16,1024]{1,0} multiply(f32[16,1024]{1,0} %bitcast.437, f32[16,1024]{1,0} %param_1.1950), metadata={op_type="mul" op_name="pmap(_multi_device_update_fn)/scan/while/body/mul" source_file="/usr/local/lib/python3.8/dist-packages/trax/layers/rnn.py" source_line=63}
  %param_0.1584 = f32[64,16,1024]{2,1,0} parameter(0)
  %dynamic-slice.311 = f32[1,16,1024]{2,1,0} dynamic-slice(f32[64,16,1024]{2,1,0} %param_0.1584, s32[] %select.1494, s32[] %constant_10654, s32[] %constant_10654), dynamic_slice_sizes={1,16,1024}, metadata={op_type="dynamic_slice" op_name="pmap(_multi_device_update_fn)/scan/while/body/dynamic_slice[ slice_sizes=(1, 16, 1024) ]" source_file="/usr/local/lib/python3.8/dist-packages/trax/optimizers/trainer.py" source_line=248}
  %bitcast.436 = f32[16,1024]{1,0} bitcast(f32[1,16,1024]{2,1,0} %dynamic-slice.311), metadata={op_type="squeeze" op_name="pmap(_multi_device_update_fn)/scan/while/body/squeeze[ dimensions=(0,) ]" source_file="/usr/local/lib/python3.8/dist-packages/trax/optimizers/trainer.py" source_line=248}
  %multiply.819 = f32[16,1024]{1,0} multiply(f32[16,1024]{1,0} %multiply.820, f32[16,1024]{1,0} %bitcast.436), metadata={op_type="mul" op_name="pmap(_multi_device_update_fn)/scan/while/body/mul" source_file="/usr/local/lib/python3.8/dist-packages/trax/fastmath/ops.py" source_line=104}
  %param_9.109 = f32[64,16,1024]{2,1,0} parameter(9)
  %dynamic-slice.444 = f32[1,16,1024]{2,1,0} dynamic-slice(f32[64,16,1024]{2,1,0} %param_9.109, s32[] %select.1494, s32[] %constant_10654, s32[] %constant_10654), dynamic_slice_sizes={1,16,1024}, metadata={op_type="dynamic_slice" op_name="pmap(_multi_device_update_fn)/scan/while/body/dynamic_slice[ slice_sizes=(1, 16, 1024) ]" source_file="/usr/local/lib/python3.8/dist-packages/trax/optimizers/trainer.py" source_line=248}
  %bitcast.829 = f32[16,1024]{1,0} bitcast(f32[1,16,1024]{2,1,0} %dynamic-slice.444), metadata={op_type="squeeze" op_name="pmap(_multi_device_update_fn)/scan/while/body/squeeze[ dimensions=(0,) ]" source_file="/usr/local/lib/python3.8/dist-packages/trax/optimizers/trainer.py" source_line=248}
  %multiply.818 = f32[16,1024]{1,0} multiply(f32[16,1024]{1,0} %multiply.819, f32[16,1024]{1,0} %bitcast.829), metadata={op_type="mul" op_name="pmap(_multi_device_update_fn)/scan/while/body/mul" source_file="/usr/local/lib/python3.8/dist-packages/trax/fastmath/ops.py" source_line=104}
  %pad.136 = f32[16,4096]{1,0} pad(f32[16,1024]{1,0} %multiply.818, f32[] %constant_10652), padding=0_0x2048_1024, metadata={op_type="pad" op_name="pmap(_multi_device_update_fn)/scan/while/body/pad[ padding_config=((0, 0, 0), (2048, 1024, 0)) ]" source_file="/usr/local/lib/python3.8/dist-packages/trax/layers/rnn.py" source_line=61}
  ROOT %add.1784 = f32[16,4096]{1,0} add(f32[16,4096]{1,0} %add.1785, f32[16,4096]{1,0} %pad.136), metadata={op_type="add_any" op_name="pmap(_multi_device_update_fn)/scan/while/body/add_any" source_file="/usr/local/lib/python3.8/dist-packages/trax/fastmath/ops.py" source_line=144}
}

%fused_computation.27 (param_0.1588: f32[64,16,1024], param_1.1961: f32[16,2048], param_2.1564: s32[], param_3.1323: f32[64,16,1024], param_4.572: f32[64,16,1024], param_5.308: f32[64,16,1024]) -> f32[16,1024] {
  %param_1.1961 = f32[16,2048]{1,0} parameter(1)
  %slice.828 = f32[16,1024]{1,0} slice(f32[16,2048]{1,0} %param_1.1961), slice={[0:16], [0:1024]}, metadata={op_type="slice" op_name="pmap(_multi_device_update_fn)/scan/while/body/slice[ limit_indices=(16, 1024)\n                                                     start_indices=(0, 0)\n                                                     strides=None ]" source_file="/usr/local/lib/python3.8/dist-packages/trax/layers/rnn.py" source_line=65}
  %param_4.572 = f32[64,16,1024]{2,1,0} parameter(4)
  %constant_12373 = s32[] constant(64), metadata={op_type="sub" op_name="pmap(_multi_device_update_fn)/scan/while/body/sub" source_file="/usr/local/lib/python3.8/dist-packages/trax/optimizers/trainer.py" source_line=248}
  %param_2.1564 = s32[] parameter(2)
  %subtract.415 = s32[] subtract(s32[] %constant_12373, s32[] %param_2.1564), metadata={op_type="sub" op_name="pmap(_multi_device_update_fn)/scan/while/body/sub" source_file="/usr/local/lib/python3.8/dist-packages/trax/optimizers/trainer.py" source_line=248}
  %constant_12371 = s32[] constant(-1)
  %add.2313 = s32[] add(s32[] %subtract.415, s32[] %constant_12371), metadata={op_type="sub" op_name="pmap(_multi_device_update_fn)/scan/while/body/sub" source_file="/usr/local/lib/python3.8/dist-packages/trax/optimizers/trainer.py" source_line=248}
  %constant_10655 = s32[] constant(0), metadata={op_type="lt" op_name="pmap(_multi_device_update_fn)/scan/while/body/lt" source_file="/usr/local/lib/python3.8/dist-packages/trax/optimizers/trainer.py" source_line=248}
  %compare.1511 = pred[] compare(s32[] %add.2313, s32[] %constant_10655), direction=LT, metadata={op_type="lt" op_name="pmap(_multi_device_update_fn)/scan/while/body/lt" source_file="/usr/local/lib/python3.8/dist-packages/trax/optimizers/trainer.py" source_line=248}
  %constant_12368 = s32[] constant(63)
  %add.2312 = s32[] add(s32[] %subtract.415, s32[] %constant_12368), metadata={op_type="add" op_name="pmap(_multi_device_update_fn)/scan/while/body/add" source_file="/usr/local/lib/python3.8/dist-packages/trax/optimizers/trainer.py" source_line=248}
  %select.1501 = s32[] select(pred[] %compare.1511, s32[] %add.2312, s32[] %add.2313), metadata={op_type="select" op_name="pmap(_multi_device_update_fn)/scan/while/body/select" source_file="/usr/local/lib/python3.8/dist-packages/trax/optimizers/trainer.py" source_line=248}
  %dynamic-slice.454 = f32[1,16,1024]{2,1,0} dynamic-slice(f32[64,16,1024]{2,1,0} %param_4.572, s32[] %select.1501, s32[] %constant_10655, s32[] %constant_10655), dynamic_slice_sizes={1,16,1024}, metadata={op_type="dynamic_slice" op_name="pmap(_multi_device_update_fn)/scan/while/body/dynamic_slice[ slice_sizes=(1, 16, 1024) ]" source_file="/usr/local/lib/python3.8/dist-packages/trax/optimizers/trainer.py" source_line=248}
  %bitcast.839 = f32[16,1024]{1,0} bitcast(f32[1,16,1024]{2,1,0} %dynamic-slice.454), metadata={op_type="squeeze" op_name="pmap(_multi_device_update_fn)/scan/while/body/squeeze[ dimensions=(0,) ]" source_file="/usr/local/lib/python3.8/dist-packages/trax/optimizers/trainer.py" source_line=248}
  %slice.966 = f32[16,1024]{1,0} slice(f32[16,2048]{1,0} %param_1.1961), slice={[0:16], [1024:2048]}, metadata={op_type="slice" op_name="pmap(_multi_device_update_fn)/scan/while/body/slice[ limit_indices=(16, 2048)\n                                                     start_indices=(0, 1024)\n                                                     strides=None ]" source_file="/usr/local/lib/python3.8/dist-packages/trax/layers/rnn.py" source_line=65}
  %add.2311 = f32[16,1024]{1,0} add(f32[16,1024]{1,0} %bitcast.839, f32[16,1024]{1,0} %slice.966), metadata={op_type="add_any" op_name="pmap(_multi_device_update_fn)/scan/while/body/add_any" source_file="/usr/local/lib/python3.8/dist-packages/trax/fastmath/ops.py" source_line=144}
  %param_5.308 = f32[64,16,1024]{2,1,0} parameter(5)
  %dynamic-slice.458 = f32[1,16,1024]{2,1,0} dynamic-slice(f32[64,16,1024]{2,1,0} %param_5.308, s32[] %select.1501, s32[] %constant_10655, s32[] %constant_10655), dynamic_slice_sizes={1,16,1024}, metadata={op_type="dynamic_slice" op_name="pmap(_multi_device_update_fn)/scan/while/body/dynamic_slice[ slice_sizes=(1, 16, 1024) ]" source_file="/usr/local/lib/python3.8/dist-packages/trax/optimizers/trainer.py" source_line=248}
  %bitcast.843 = f32[16,1024]{1,0} bitcast(f32[1,16,1024]{2,1,0} %dynamic-slice.458), metadata={op_type="squeeze" op_name="pmap(_multi_device_update_fn)/scan/while/body/squeeze[ dimensions=(0,) ]" source_file="/usr/local/lib/python3.8/dist-packages/trax/optimizers/trainer.py" source_line=248}
  %multiply.832 = f32[16,1024]{1,0} multiply(f32[16,1024]{1,0} %add.2311, f32[16,1024]{1,0} %bitcast.843), metadata={op_type="mul" op_name="pmap(_multi_device_update_fn)/scan/while/body/mul" source_file="/usr/local/lib/python3.8/dist-packages/trax/layers/rnn.py" source_line=64}
  %param_0.1588 = f32[64,16,1024]{2,1,0} parameter(0)
  %dynamic-slice.319 = f32[1,16,1024]{2,1,0} dynamic-slice(f32[64,16,1024]{2,1,0} %param_0.1588, s32[] %select.1501, s32[] %constant_10655, s32[] %constant_10655), dynamic_slice_sizes={1,16,1024}, metadata={op_type="dynamic_slice" op_name="pmap(_multi_device_update_fn)/scan/while/body/dynamic_slice[ slice_sizes=(1, 16, 1024) ]" source_file="/usr/local/lib/python3.8/dist-packages/trax/optimizers/trainer.py" source_line=248}
  %bitcast.444 = f32[16,1024]{1,0} bitcast(f32[1,16,1024]{2,1,0} %dynamic-slice.319), metadata={op_type="squeeze" op_name="pmap(_multi_device_update_fn)/scan/while/body/squeeze[ dimensions=(0,) ]" source_file="/usr/local/lib/python3.8/dist-packages/trax/optimizers/trainer.py" source_line=248}
  %multiply.831 = f32[16,1024]{1,0} multiply(f32[16,1024]{1,0} %multiply.832, f32[16,1024]{1,0} %bitcast.444), metadata={op_type="mul" op_name="pmap(_multi_device_update_fn)/scan/while/body/mul" source_file="/usr/local/lib/python3.8/dist-packages/trax/layers/rnn.py" source_line=64}
  %add.1789 = f32[16,1024]{1,0} add(f32[16,1024]{1,0} %slice.828, f32[16,1024]{1,0} %multiply.831), metadata={op_type="add_any" op_name="pmap(_multi_device_update_fn)/scan/while/body/add_any" source_file="/usr/local/lib/python3.8/dist-packages/trax/fastmath/ops.py" source_line=144}
  %param_3.1323 = f32[64,16,1024]{2,1,0} parameter(3)
  %dynamic-slice.450 = f32[1,16,1024]{2,1,0} dynamic-slice(f32[64,16,1024]{2,1,0} %param_3.1323, s32[] %select.1501, s32[] %constant_10655, s32[] %constant_10655), dynamic_slice_sizes={1,16,1024}, metadata={op_type="dynamic_slice" op_name="pmap(_multi_device_update_fn)/scan/while/body/dynamic_slice[ slice_sizes=(1, 16, 1024) ]" source_file="/usr/local/lib/python3.8/dist-packages/trax/optimizers/trainer.py" source_line=248}
  %bitcast.835 = f32[16,1024]{1,0} bitcast(f32[1,16,1024]{2,1,0} %dynamic-slice.450), metadata={op_type="squeeze" op_name="pmap(_multi_device_update_fn)/scan/while/body/squeeze[ dimensions=(0,) ]" source_file="/usr/local/lib/python3.8/dist-packages/trax/optimizers/trainer.py" source_line=248}
  %multiply.830 = f32[16,1024]{1,0} multiply(f32[16,1024]{1,0} %multiply.831, f32[16,1024]{1,0} %bitcast.835), metadata={op_type="mul" op_name="pmap(_multi_device_update_fn)/scan/while/body/mul" source_file="/usr/local/lib/python3.8/dist-packages/trax/layers/rnn.py" source_line=64}
  ROOT %add.1788 = f32[16,1024]{1,0} add(f32[16,1024]{1,0} %add.1789, f32[16,1024]{1,0} %multiply.830), metadata={op_type="add_any" op_name="pmap(_multi_device_update_fn)/scan/while/body/add_any" source_file="/usr/local/lib/python3.8/dist-packages/trax/fastmath/ops.py" source_line=144}
}

%fused_computation.31 (param_0.64: f32[64,16,2048], param_1.1932: s32[], param_2.2321: f32[16,1024], param_3.2082: f32[64,16,1024], param_4.1072: f32[16,2048]) -> (f32[16,2048], f32[16,2048]) {
  %param_0.64 = f32[64,16,2048]{2,1,0} parameter(0)
  %constant_12289 = s32[] constant(64), metadata={op_type="sub" op_name="pmap(_multi_device_update_fn)/scan/while/body/sub" source_file="/usr/local/lib/python3.8/dist-packages/trax/optimizers/trainer.py" source_line=248}
  %param_1.1932 = s32[] parameter(1)
  %subtract.389 = s32[] subtract(s32[] %constant_12289, s32[] %param_1.1932), metadata={op_type="sub" op_name="pmap(_multi_device_update_fn)/scan/while/body/sub" source_file="/usr/local/lib/python3.8/dist-packages/trax/optimizers/trainer.py" source_line=248}
  %constant_12288 = s32[] constant(-1)
  %add.2253 = s32[] add(s32[] %subtract.389, s32[] %constant_12288), metadata={op_type="sub" op_name="pmap(_multi_device_update_fn)/scan/while/body/sub" source_file="/usr/local/lib/python3.8/dist-packages/trax/optimizers/trainer.py" source_line=248}
…
  %get-tuple-element.5180 = f32[] get-tuple-element((f32[], f32[]) %fusion.297), index=1
  %get-tuple-element.5458 = f32[1024]{0} get-tuple-element((f32[1024]{0}, f32[1024]{0}, f32[1024]{0}, f32[1024]{0}, f32[1024]{0}, /*index=5*/f32[1024]{0}, f32[1024]{0}, f32[1024]{0}, f32[1024]{0}, f32[1024]{0}, /*index=10*/f32[1024]{0}, f32[1024]{0}, f32[1024]{0}, f32[1024]{0}, f32[1024]{0}, /*index=15*/f32[1024]{0}, f32[1024]{0}) %fusion.411), index=2
  %get-tuple-element.5469 = f32[1024]{0} get-tuple-element((f32[1024]{0}, f32[1024]{0}, f32[1024]{0}, f32[1024]{0}, f32[1024]{0}, /*index=5*/f32[1024]{0}, f32[1024]{0}, f32[1024]{0}, f32[1024]{0}, f32[1024]{0}, /*index=10*/f32[1024]{0}, f32[1024]{0}, f32[1024]{0}, f32[1024]{0}, f32[1024]{0}, /*index=15*/f32[1024]{0}, f32[1024]{0}) %fusion.411), index=13
  %fusion.298 = (f32[], f32[]) fusion(f32[1024,1024]{1,0} %get-tuple-element.5690, f32[1024]{0} %get-tuple-element.5458, f32[1024]{0} %get-tuple-element.5469), kind=kInput, calls=%fused_computation.298, metadata={op_type="dot_general" op_name="pmap(_multi_device_update_fn)/dot_general[ dimension_numbers=(((0,), (0,)), ((), ()))\n                                           precision=None\n                                           preferred_element_type=None ]" source_file="/usr/local/lib/python3.8/dist-packages/trax/optimizers/base.py" source_line=183}
  %get-tuple-element.5192 = f32[] get-tuple-element((f32[], f32[]) %fusion.298), index=1
  %get-tuple-element.5460 = f32[1024]{0} get-tuple-element((f32[1024]{0}, f32[1024]{0}, f32[1024]{0}, f32[1024]{0}, f32[1024]{0}, /*index=5*/f32[1024]{0}, f32[1024]{0}, f32[1024]{0}, f32[1024]{0}, f32[1024]{0}, /*index=10*/f32[1024]{0}, f32[1024]{0}, f32[1024]{0}, f32[1024]{0}, f32[1024]{0}, /*index=15*/f32[1024]{0}, f32[1024]{0}) %fusion.411), index=4
  %get-tuple-element.5472 = f32[1024]{0} get-tuple-element((f32[1024]{0}, f32[1024]{0}, f32[1024]{0}, f32[1024]{0}, f32[1024]{0}, /*index=5*/f32[1024]{0}, f32[1024]{0}, f32[1024]{0}, f32[1024]{0}, f32[1024]{0}, /*index=10*/f32[1024]{0}, f32[1024]{0}, f32[1024]{0}, f32[1024]{0}, f32[1024]{0}, /*index=15*/f32[1024]{0}, f32[1024]{0}) %fusion.411), index=14
  %fusion.299 = (f32[], f32[]) fusion(f32[1024,1024]{1,0} %get-tuple-element.5691, f32[1024]{0} %get-tuple-element.5460, f32[1024]{0} %get-tuple-element.5472), kind=kInput, calls=%fused_computation.299, metadata={op_type="dot_general" op_name="pmap(_multi_device_update_fn)/dot_general[ dimension_numbers=(((0,), (0,)), ((), ()))\n                                           precision=None\n                                           preferred_element_type=None ]" source_file="/usr/local/lib/python3.8/dist-packages/trax/optimizers/base.py" source_line=183}
  %get-tuple-element.5204 = f32[] get-tuple-element((f32[], f32[]) %fusion.299), index=1
  %fusion.768 = (f32[1]{0}, f32[1]{0}, f32[1]{0}, f32[1]{0}) fusion(f32[] %get-tuple-element.5216, f32[] %get-tuple-element.5180, f32[] %get-tuple-element.5192, f32[] %get-tuple-element.5204), kind=kInput, calls=%horizontally_fused_computation.1
  %get-tuple-element.5574 = f32[1]{0} get-tuple-element((f32[1]{0}, f32[1]{0}, f32[1]{0}, f32[1]{0}) %fusion.768), index=0
  %bitcast.1028 = f32[] bitcast(f32[1]{0} %get-tuple-element.5574), metadata={op_type="sqrt" op_name="pmap(_multi_device_update_fn)/sqrt" source_file="/usr/local/lib/python3.8/dist-packages/trax/optimizers/adafactor.py" source_line=149}
  %get-tuple-element.5210 = f32[] get-tuple-element((f32[], f32[], f32[], f32[], f32[], /*index=5*/f32[], f32[], f32[], f32[], f32[], /*index=10*/f32[], f32[], f32[], f32[], f32[], /*index=15*/f32[], f32[], f32[], f32[], f32[], /*index=20*/f32[], f32[], f32[], f32[], f32[], /*index=25*/f32[], f32[], f32[], f32[], f32[], /*index=30*/f32[]) %fusion.313), index=18
  %get-tuple-element.5575 = f32[1]{0} get-tuple-element((f32[1]{0}, f32[1]{0}, f32[1]{0}, f32[1]{0}) %fusion.768), index=1
  %bitcast.1029 = f32[] bitcast(f32[1]{0} %get-tuple-element.5575), metadata={op_type="sqrt" op_name="pmap(_multi_device_update_fn)/sqrt" source_file="/usr/local/lib/python3.8/dist-packages/trax/optimizers/adafactor.py" source_line=149}
  %get-tuple-element.5174 = f32[] get-tuple-element((f32[], f32[], f32[], f32[], f32[], /*index=5*/f32[], f32[], f32[], f32[], f32[], /*index=10*/f32[], f32[], f32[], f32[], f32[], /*index=15*/f32[], f32[], f32[], f32[], f32[], /*index=20*/f32[], f32[], f32[], f32[], f32[], /*index=25*/f32[], f32[], f32[], f32[], f32[], /*index=30*/f32[]) %fusion.313), index=12
  %get-tuple-element.5576 = f32[1]{0} get-tuple-element((f32[1]{0}, f32[1]{0}, f32[1]{0}, f32[1]{0}) %fusion.768), index=2
  %bitcast.1030 = f32[] bitcast(f32[1]{0} %get-tuple-element.5576), metadata={op_type="sqrt" op_name="pmap(_multi_device_update_fn)/sqrt" source_file="/usr/local/lib/python3.8/dist-packages/trax/optimizers/adafactor.py" source_line=149}
  %get-tuple-element.5186 = f32[] get-tuple-element((f32[], f32[], f32[], f32[], f32[], /*index=5*/f32[], f32[], f32[], f32[], f32[], /*index=10*/f32[], f32[], f32[], f32[], f32[], /*index=15*/f32[], f32[], f32[], f32[], f32[], /*index=20*/f32[], f32[], f32[], f32[], f32[], /*index=25*/f32[], f32[], f32[], f32[], f32[], /*index=30*/f32[]) %fusion.313), index=14
  %get-tuple-element.5577 = f32[1]{0} get-tuple-element((f32[1]{0}, f32[1]{0}, f32[1]{0}, f32[1]{0}) %fusion.768), index=3
  %bitcast.1031 = f32[] bitcast(f32[1]{0} %get-tuple-element.5577), metadata={op_type="sqrt" op_name="pmap(_multi_device_update_fn)/sqrt" source_file="/usr/local/lib/python3.8/dist-packages/trax/optimizers/adafactor.py" source_line=149}
  %get-tuple-element.5198 = f32[] get-tuple-element((f32[], f32[], f32[], f32[], f32[], /*index=5*/f32[], f32[], f32[], f32[], f32[], /*index=10*/f32[], f32[], f32[], f32[], f32[], /*index=15*/f32[], f32[], f32[], f32[], f32[], /*index=20*/f32[], f32[], f32[], f32[], f32[], /*index=25*/f32[], f32[], f32[], f32[], f32[], /*index=30*/f32[]) %fusion.313), index=16
  %fusion.464 = (f32[1024,1024]{1,0}, f32[1024,1024]{1,0}, f32[1024,1024]{1,0}, f32[1024,1024]{1,0}) fusion(f32[] %bitcast.1028, f32[] %parameter.160, f32[] %parameter.164, f32[] %get-tuple-element.5210, f32[] %parameter.163, /*index=5*/f32[1024,1024]{1,0} %parameter.94, f32[] %get-tuple-element.5535, f32[1024]{0} %get-tuple-element.5462, f32[1024,1024]{1,0} %get-tuple-element.5692, f32[1024]{0} %get-tuple-element.5473, /*index=10*/f32[] %bitcast.1029, f32[1024]{0} %get-tuple-element.5177, f32[1024,1024]{1,0} %get-tuple-element.5689, f32[1024]{0} %get-tuple-element.5468, f32[] %get-tuple-element.5174, /*index=15*/f32[1024,1024]{1,0} %parameter.100, f32[] %bitcast.1030, f32[1024]{0} %get-tuple-element.5458, f32[1024,1024]{1,0} %get-tuple-element.5690, f32[1024]{0} %get-tuple-element.5469, /*index=20*/f32[] %get-tuple-element.5186, f32[1024,1024]{1,0} %parameter.98, f32[] %bitcast.1031, f32[1024]{0} %get-tuple-element.5460, f32[1024,1024]{1,0} %get-tuple-element.5691, /*index=25*/f32[1024]{0} %get-tuple-element.5472, f32[] %get-tuple-element.5198, f32[1024,1024]{1,0} %parameter.96), kind=kLoop, calls=%fused_computation.464, metadata={op_type="sub" op_name="pmap(_multi_device_update_fn)/sub" source_file="/usr/local/lib/python3.8/dist-packages/trax/optimizers/adafactor.py" source_line=160}
  %get-tuple-element.5301 = f32[1024,1024]{1,0} get-tuple-element((f32[1024,1024]{1,0}, f32[1024,1024]{1,0}, f32[1024,1024]{1,0}, f32[1024,1024]{1,0}) %fusion.464), index=0
  %get-tuple-element.5509 = f32[1024]{0} get-tuple-element((f32[], f32[1024]{0}, f32[], f32[1024]{0}, f32[], /*index=5*/f32[1024]{0}, f32[], f32[1024]{0}, f32[], f32[1024]{0}, /*index=10*/f32[], f32[1024]{0}, f32[1024]{0}, f32[], f32[], /*index=15*/f32[1024]{0}, f32[1024]{0}, f32[], f32[], f32[1024]{0}, /*index=20*/f32[1024]{0}, f32[], f32[], f32[1024]{0}, f32[1024]{0}, /*index=25*/f32[]) %fusion.756), index=23
  %get-tuple-element.5508 = f32[] get-tuple-element((f32[], f32[1024]{0}, f32[], f32[1024]{0}, f32[], /*index=5*/f32[1024]{0}, f32[], f32[1024]{0}, f32[], f32[1024]{0}, /*index=10*/f32[], f32[1024]{0}, f32[1024]{0}, f32[], f32[], /*index=15*/f32[1024]{0}, f32[1024]{0}, f32[], f32[], f32[1024]{0}, /*index=20*/f32[1024]{0}, f32[], f32[], f32[1024]{0}, f32[1024]{0}, /*index=25*/f32[]) %fusion.756), index=22
  %get-tuple-element.5494 = f32[] get-tuple-element((f32[], f32[1024]{0}, f32[], f32[1024]{0}, f32[], /*index=5*/f32[1024]{0}, f32[], f32[1024]{0}, f32[], f32[1024]{0}, /*index=10*/f32[], f32[1024]{0}, f32[1024]{0}, f32[], f32[], /*index=15*/f32[1024]{0}, f32[1024]{0}, f32[], f32[], f32[1024]{0}, /*index=20*/f32[1024]{0}, f32[], f32[], f32[1024]{0}, f32[1024]{0}, /*index=25*/f32[]) %fusion.756), index=10
  %get-tuple-element.5498 = f32[] get-tuple-element((f32[], f32[1024]{0}, f32[], f32[1024]{0}, f32[], /*index=5*/f32[1024]{0}, f32[], f32[1024]{0}, f32[], f32[1024]{0}, /*index=10*/f32[], f32[1024]{0}, f32[1024]{0}, f32[], f32[], /*index=15*/f32[1024]{0}, f32[1024]{0}, f32[], f32[], f32[1024]{0}, /*index=20*/f32[1024]{0}, f32[], f32[], f32[1024]{0}, f32[1024]{0}, /*index=25*/f32[]) %fusion.756), index=14
  %get-tuple-element.5502 = f32[] get-tuple-element((f32[], f32[1024]{0}, f32[], f32[1024]{0}, f32[], /*index=5*/f32[1024]{0}, f32[], f32[1024]{0}, f32[], f32[1024]{0}, /*index=10*/f32[], f32[1024]{0}, f32[1024]{0}, f32[], f32[], /*index=15*/f32[1024]{0}, f32[1024]{0}, f32[], f32[], f32[1024]{0}, /*index=20*/f32[1024]{0}, f32[], f32[], f32[1024]{0}, f32[1024]{0}, /*index=25*/f32[]) %fusion.756), index=18
  %fusion.767 = (f32[1]{0}, f32[1]{0}, f32[1]{0}, f32[1]{0}) fusion(f32[] %get-tuple-element.5508, f32[] %get-tuple-element.5494, f32[] %get-tuple-element.5498, f32[] %get-tuple-element.5502), kind=kInput, calls=%horizontally_fused_computation
  %get-tuple-element.5570 = f32[1]{0} get-tuple-element((f32[1]{0}, f32[1]{0}, f32[1]{0}, f32[1]{0}) %fusion.767), index=0
  %bitcast.1024 = f32[] bitcast(f32[1]{0} %get-tuple-element.5570), metadata={op_type="sqrt" op_name="pmap(_multi_device_update_fn)/sqrt" source_file="/usr/local/lib/python3.8/dist-packages/trax/optimizers/adafactor.py" source_line=149}
  %get-tuple-element.5205 = f32[] get-tuple-element((f32[], f32[], f32[], f32[], f32[], /*index=5*/f32[], f32[], f32[], f32[], f32[], /*index=10*/f32[], f32[], f32[], f32[], f32[], /*index=15*/f32[], f32[], f32[], f32[], f32[], /*index=20*/f32[], f32[], f32[], f32[], f32[], /*index=25*/f32[], f32[], f32[], f32[], f32[], /*index=30*/f32[]) %fusion.313), index=17
  %get-tuple-element.5495 = f32[1024]{0} get-tuple-element((f32[], f32[1024]{0}, f32[], f32[1024]{0}, f32[], /*index=5*/f32[1024]{0}, f32[], f32[1024]{0}, f32[], f32[1024]{0}, /*index=10*/f32[], f32[1024]{0}, f32[1024]{0}, f32[], f32[], /*index=15*/f32[1024]{0}, f32[1024]{0}, f32[], f32[], f32[1024]{0}, /*index=20*/f32[1024]{0}, f32[], f32[], f32[1024]{0}, f32[1024]{0}, /*index=25*/f32[]) %fusion.756), index=11
  %get-tuple-element.5571 = f32[1]{0} get-tuple-element((f32[1]{0}, f32[1]{0}, f32[1]{0}, f32[1]{0}) %fusion.767), index=1
  %bitcast.1025 = f32[] bitcast(f32[1]{0} %get-tuple-element.5571), metadata={op_type="sqrt" op_name="pmap(_multi_device_update_fn)/sqrt" source_file="/usr/local/lib/python3.8/dist-packages/trax/optimizers/adafactor.py" source_line=149}
  %get-tuple-element.5169 = f32[] get-tuple-element((f32[], f32[], f32[], f32[], f32[], /*index=5*/f32[], f32[], f32[], f32[], f32[], /*index=10*/f32[], f32[], f32[], f32[], f32[], /*index=15*/f32[], f32[], f32[], f32[], f32[], /*index=20*/f32[], f32[], f32[], f32[], f32[], /*index=25*/f32[], f32[], f32[], f32[], f32[], /*index=30*/f32[]) %fusion.313), index=11
  %get-tuple-element.5499 = f32[1024]{0} get-tuple-element((f32[], f32[1024]{0}, f32[], f32[1024]{0}, f32[], /*index=5*/f32[1024]{0}, f32[], f32[1024]{0}, f32[], f32[1024]{0}, /*index=10*/f32[], f32[1024]{0}, f32[1024]{0}, f32[], f32[], /*index=15*/f32[1024]{0}, f32[1024]{0}, f32[], f32[], f32[1024]{0}, /*index=20*/f32[1024]{0}, f32[], f32[], f32[1024]{0}, f32[1024]{0}, /*index=25*/f32[]) %fusion.756), index=15
  %get-tuple-element.5572 = f32[1]{0} get-tuple-element((f32[1]{0}, f32[1]{0}, f32[1]{0}, f32[1]{0}) %fusion.767), index=2
  %bitcast.1026 = f32[] bitcast(f32[1]{0} %get-tuple-element.5572), metadata={op_type="sqrt" op_name="pmap(_multi_device_update_fn)/sqrt" source_file="/usr/local/lib/python3.8/dist-packages/trax/optimizers/adafactor.py" source_line=149}
  %get-tuple-element.5181 = f32[] get-tuple-element((f32[], f32[], f32[], f32[], f32[], /*index=5*/f32[], f32[], f32[], f32[], f32[], /*index=10*/f32[], f32[], f32[], f32[], f32[], /*index=15*/f32[], f32[], f32[], f32[], f32[], /*index=20*/f32[], f32[], f32[], f32[], f32[], /*index=25*/f32[], f32[], f32[], f32[], f32[], /*index=30*/f32[]) %fusion.313), index=13
  %get-tuple-element.5505 = f32[1024]{0} get-tuple-element((f32[], f32[1024]{0}, f32[], f32[1024]{0}, f32[], /*index=5*/f32[1024]{0}, f32[], f32[1024]{0}, f32[], f32[1024]{0}, /*index=10*/f32[], f32[1024]{0}, f32[1024]{0}, f32[], f32[], /*index=15*/f32[1024]{0}, f32[1024]{0}, f32[], f32[], f32[1024]{0}, /*index=20*/f32[1024]{0}, f32[], f32[], f32[1024]{0}, f32[1024]{0}, /*index=25*/f32[]) %fusion.756), index=19
  %get-tuple-element.5573 = f32[1]{0} get-tuple-element((f32[1]{0}, f32[1]{0}, f32[1]{0}, f32[1]{0}) %fusion.767), index=3
  %bitcast.1027 = f32[] bitcast(f32[1]{0} %get-tuple-element.5573), metadata={op_type="sqrt" op_name="pmap(_multi_device_update_fn)/sqrt" source_file="/usr/local/lib/python3.8/dist-packages/trax/optimizers/adafactor.py" source_line=149}
  %get-tuple-element.5193 = f32[] get-tuple-element((f32[], f32[], f32[], f32[], f32[], /*index=5*/f32[], f32[], f32[], f32[], f32[], /*index=10*/f32[], f32[], f32[], f32[], f32[], /*index=15*/f32[], f32[], f32[], f32[], f32[], /*index=20*/f32[], f32[], f32[], f32[], f32[], /*index=25*/f32[], f32[], f32[], f32[], f32[], /*index=30*/f32[]) %fusion.313), index=15
  %fusion.457 = (f32[1024]{0}, f32[1024]{0}, f32[1024]{0}, f32[1024]{0}) fusion(f32[1024]{0} %get-tuple-element.5509, f32[] %bitcast.1024, f32[] %parameter.160, f32[] %parameter.164, f32[] %get-tuple-element.5205, /*index=5*/f32[] %parameter.163, f32[1024]{0} %parameter.95, f32[] %get-tuple-element.5535, f32[1024]{0} %get-tuple-element.5495, f32[] %bitcast.1025, /*index=10*/f32[] %get-tuple-element.5169, f32[1024]{0} %parameter.101, f32[1024]{0} %get-tuple-element.5499, f32[] %bitcast.1026, f32[] %get-tuple-element.5181, /*index=15*/f32[1024]{0} %parameter.99, f32[1024]{0} %get-tuple-element.5505, f32[] %bitcast.1027, f32[] %get-tuple-element.5193, f32[1024]{0} %parameter.97), kind=kLoop, calls=%fused_computation.457, metadata={op_type="sub" op_name="pmap(_multi_device_update_fn)/sub" source_file="/usr/local/lib/python3.8/dist-packages/trax/optimizers/adafactor.py" source_line=160}
  %get-tuple-element.5305 = f32[1024]{0} get-tuple-element((f32[1024]{0}, f32[1024]{0}, f32[1024]{0}, f32[1024]{0}) %fusion.457), index=0
  %get-tuple-element.5304 = f32[1024,1024]{1,0} get-tuple-element((f32[1024,1024]{1,0}, f32[1024,1024]{1,0}, f32[1024,1024]{1,0}, f32[1024,1024]{1,0}) %fusion.464), index=3
  %get-tuple-element.5308 = f32[1024]{0} get-tuple-element((f32[1024]{0}, f32[1024]{0}, f32[1024]{0}, f32[1024]{0}) %fusion.457), index=3
  %get-tuple-element.5303 = f32[1024,1024]{1,0} get-tuple-element((f32[1024,1024]{1,0}, f32[1024,1024]{1,0}, f32[1024,1024]{1,0}, f32[1024,1024]{1,0}) %fusion.464), index=2
  %get-tuple-element.5307 = f32[1024]{0} get-tuple-element((f32[1024]{0}, f32[1024]{0}, f32[1024]{0}, f32[1024]{0}) %fusion.457), index=2
  %get-tuple-element.5302 = f32[1024,1024]{1,0} get-tuple-element((f32[1024,1024]{1,0}, f32[1024,1024]{1,0}, f32[1024,1024]{1,0}, f32[1024,1024]{1,0}) %fusion.464), index=1
  %get-tuple-element.5306 = f32[1024]{0} get-tuple-element((f32[1024]{0}, f32[1024]{0}, f32[1024]{0}, f32[1024]{0}) %fusion.457), index=1
  %get-tuple-element.5288 = f32[2048,4096]{1,0} get-tuple-element((f32[2048,4096]{1,0}, f32[2048,4096]{1,0}, f32[2048,4096]{1,0}, f32[2048,4096]{1,0}, f32[2048,4096]{1,0}, /*index=5*/f32[2048,4096]{1,0}, f32[2048,4096]{1,0}, f32[2048,4096]{1,0}) %fusion.569), index=4
  %get-tuple-element.5296 = f32[4096]{0} get-tuple-element((f32[4096]{0}, f32[4096]{0}, f32[4096]{0}, f32[4096]{0}, f32[4096]{0}, /*index=5*/f32[4096]{0}, f32[4096]{0}, f32[4096]{0}, f32[4096]{0}) %fusion.562), index=4
  %get-tuple-element.5287 = f32[2048,4096]{1,0} get-tuple-element((f32[2048,4096]{1,0}, f32[2048,4096]{1,0}, f32[2048,4096]{1,0}, f32[2048,4096]{1,0}, f32[2048,4096]{1,0}, /*index=5*/f32[2048,4096]{1,0}, f32[2048,4096]{1,0}, f32[2048,4096]{1,0}) %fusion.569), index=3
  %get-tuple-element.5295 = f32[4096]{0} get-tuple-element((f32[4096]{0}, f32[4096]{0}, f32[4096]{0}, f32[4096]{0}, f32[4096]{0}, /*index=5*/f32[4096]{0}, f32[4096]{0}, f32[4096]{0}, f32[4096]{0}) %fusion.562), index=3
  %get-tuple-element.5286 = f32[2048,4096]{1,0} get-tuple-element((f32[2048,4096]{1,0}, f32[2048,4096]{1,0}, f32[2048,4096]{1,0}, f32[2048,4096]{1,0}, f32[2048,4096]{1,0}, /*index=5*/f32[2048,4096]{1,0}, f32[2048,4096]{1,0}, f32[2048,4096]{1,0}) %fusion.569), index=2
  %get-tuple-element.5294 = f32[4096]{0} get-tuple-element((f32[4096]{0}, f32[4096]{0}, f32[4096]{0}, f32[4096]{0}, f32[4096]{0}, /*index=5*/f32[4096]{0}, f32[4096]{0}, f32[4096]{0}, f32[4096]{0}) %fusion.562), index=2
  %get-tuple-element.5285 = f32[2048,4096]{1,0} get-tuple-element((f32[2048,4096]{1,0}, f32[2048,4096]{1,0}, f32[2048,4096]{1,0}, f32[2048,4096]{1,0}, f32[2048,4096]{1,0}, /*index=5*/f32[2048,4096]{1,0}, f32[2048,4096]{1,0}, f32[2048,4096]{1,0}) %fusion.569), index=1
  %get-tuple-element.5293 = f32[4096]{0} get-tuple-element((f32[4096]{0}, f32[4096]{0}, f32[4096]{0}, f32[4096]{0}, f32[4096]{0}, /*index=5*/f32[4096]{0}, f32[4096]{0}, f32[4096]{0}, f32[4096]{0}) %fusion.562), index=1
  %get-tuple-element.5117 = f32[256]{0} get-tuple-element((f32[256]{0}, f32[256]{0}, f32[256]{0}) %fusion.319), index=0
  %get-tuple-element.5467 = f32[1024]{0} get-tuple-element((f32[1024]{0}, f32[1024]{0}, f32[1024]{0}, f32[1024]{0}, f32[1024]{0}, /*index=5*/f32[1024]{0}, f32[1024]{0}, f32[1024]{0}, f32[1024]{0}, f32[1024]{0}, /*index=10*/f32[1024]{0}, f32[1024]{0}, f32[1024]{0}, f32[1024]{0}, f32[1024]{0}, /*index=15*/f32[1024]{0}, f32[1024]{0}) %fusion.411), index=11
  %fusion.292 = (f32[], f32[]) fusion(f32[1024,256]{1,0} %get-tuple-element.5694, f32[256]{0} %get-tuple-element.5117, f32[1024]{0} %get-tuple-element.5467), kind=kInput, calls=%fused_computation.292, metadata={op_type="dot_general" op_name="pmap(_multi_device_update_fn)/dot_general[ dimension_numbers=(((0,), (0,)), ((), ()))\n                                           precision=None\n                                           preferred_element_type=None ]" source_file="/usr/local/lib/python3.8/dist-packages/trax/optimizers/base.py" source_line=183}
  %get-tuple-element.5120 = f32[] get-tuple-element((f32[], f32[]) %fusion.292), index=1
  %fusion.316 = f32[] fusion(f32[] %get-tuple-element.5120), kind=kLoop, calls=%fused_computation.316, metadata={op_type="sqrt" op_name="pmap(_multi_device_update_fn)/sqrt" source_file="/usr/local/lib/python3.8/dist-packages/trax/optimizers/adafactor.py" source_line=149}
  %get-tuple-element.5114 = f32[] get-tuple-element((f32[], f32[], f32[], f32[], f32[], /*index=5*/f32[], f32[], f32[], f32[], f32[], /*index=10*/f32[], f32[], f32[], f32[], f32[], /*index=15*/f32[], f32[], f32[], f32[], f32[], /*index=20*/f32[], f32[], f32[], f32[], f32[], /*index=25*/f32[], f32[], f32[], f32[], f32[], /*index=30*/f32[]) %fusion.313), index=2
  %fusion.315 = f32[1024,256]{1,0} fusion(f32[] %fusion.316, f32[] %parameter.160, f32[] %parameter.164, f32[] %get-tuple-element.5114, f32[] %parameter.163, /*index=5*/f32[1024,256]{1,0} %parameter.110, f32[] %get-tuple-element.5535, f32[256]{0} %get-tuple-element.5117, f32[1024,256]{1,0} %get-tuple-element.5694, f32[1024]{0} %get-tuple-element.5467), kind=kLoop, calls=%fused_computation.315, metadata={op_type="sub" op_name="pmap(_multi_device_update_fn)/sub" source_file="/usr/local/lib/python3.8/dist-packages/trax/optimizers/adafactor.py" source_line=160}
  %get-tuple-element.5531 = f32[256]{0} get-tuple-element((f32[], f32[256]{0}, f32[], f32[256]{0}, f32[256]{0}, /*index=5*/f32[]) %fusion.759), index=3
  %get-tuple-element.5530 = f32[] get-tuple-element((f32[], f32[256]{0}, f32[], f32[256]{0}, f32[256]{0}, /*index=5*/f32[]) %fusion.759), index=2
  %fusion.309 = f32[] fusion(f32[] %get-tuple-element.5530), kind=kLoop, calls=%fused_computation.309, metadata={op_type="sqrt" op_name="pmap(_multi_device_update_fn)/sqrt" source_file="/usr/local/lib/python3.8/dist-packages/trax/optimizers/adafactor.py" source_line=149}
  %get-tuple-element.5108 = f32[] get-tuple-element((f32[], f32[], f32[], f32[], f32[], /*index=5*/f32[], f32[], f32[], f32[], f32[], /*index=10*/f32[], f32[], f32[], f32[], f32[], /*index=15*/f32[], f32[], f32[], f32[], f32[], /*index=20*/f32[], f32[], f32[], f32[], f32[], /*index=25*/f32[], f32[], f32[], f32[], f32[], /*index=30*/f32[]) %fusion.313), index=0
  %fusion.308 = f32[256]{0} fusion(f32[256]{0} %get-tuple-element.5531, f32[] %fusion.309, f32[] %parameter.160, f32[] %parameter.164, f32[] %get-tuple-element.5108, /*index=5*/f32[] %parameter.163, f32[256]{0} %parameter.111, f32[] %get-tuple-element.5535), kind=kLoop, calls=%fused_computation.308, metadata={op_type="sub" op_name="pmap(_multi_device_update_fn)/sub" source_file="/usr/local/lib/python3.8/dist-packages/trax/optimizers/adafactor.py" source_line=160}
  %copy.818 = f32[32000]{0} copy(f32[32000]{0} %get-tuple-element.5311)
  %get-tuple-element.5485 = f32[1024]{0} get-tuple-element((f32[1024]{0}, f32[1024]{0}, f32[1024]{0}, f32[1024]{0}, f32[1024]{0}, /*index=5*/f32[1024]{0}, f32[1024]{0}, f32[1024]{0}, f32[1024]{0}, f32[1024]{0}, /*index=10*/f32[1024]{0}, f32[1024]{0}, f32[1024]{0}, f32[1024]{0}, f32[1024]{0}, /*index=15*/f32[1024]{0}, f32[1024]{0}) %fusion.411), index=16
  %copy.820 = f32[2048]{0} copy(f32[2048]{0} %get-tuple-element.5279)
  %get-tuple-element.5281 = f32[4096]{0} get-tuple-element((f32[4096]{0}, f32[4096]{0}, f32[4096]{0}, f32[4096]{0}, f32[4096]{0}, /*index=5*/f32[4096]{0}, f32[4096]{0}, f32[4096]{0}, f32[4096]{0}, f32[4096]{0}, /*index=10*/f32[4096]{0}, f32[4096]{0}, f32[4096]{0}, f32[4096]{0}, f32[4096]{0}, /*index=15*/f32[4096]{0}, f32[4096]{0}, f32[4096]{0}) %fusion.573), index=1
  %get-tuple-element.5442 = f32[4096]{0} get-tuple-element((f32[], f32[4096]{0}, f32[4096]{0}, f32[], f32[], /*index=5*/f32[4096]{0}, f32[4096]{0}, f32[], f32[], f32[4096]{0}, /*index=10*/f32[4096]{0}, f32[], f32[], f32[4096]{0}, f32[4096]{0}, /*index=15*/f32[], f32[], f32[4096]{0}, f32[4096]{0}, f32[], /*index=20*/f32[], f32[4096]{0}, f32[4096]{0}, f32[], f32[], /*index=25*/f32[4096]{0}, f32[4096]{0}, f32[], f32[], f32[4096]{0}, /*index=30*/f32[4096]{0}, f32[], f32[], f32[4096]{0}, f32[4096]{0}, /*index=35*/f32[]) %fusion.329), index=34
  %copy.822 = f32[4096]{0} copy(f32[4096]{0} %get-tuple-element.5442)
  %copy.823 = f32[2048]{0} copy(f32[2048]{0} %get-tuple-element.5517)
  %get-tuple-element.5327 = f32[4096]{0} get-tuple-element((f32[4096]{0}, f32[4096]{0}, f32[4096]{0}, f32[4096]{0}, f32[4096]{0}, /*index=5*/f32[4096]{0}, f32[4096]{0}, f32[4096]{0}, f32[4096]{0}, f32[4096]{0}, /*index=10*/f32[4096]{0}, f32[4096]{0}, f32[4096]{0}, f32[4096]{0}, f32[4096]{0}, /*index=15*/f32[4096]{0}, f32[4096]{0}, f32[4096]{0}) %fusion.573), index=17
  %get-tuple-element.5438 = f32[4096]{0} get-tuple-element((f32[], f32[4096]{0}, f32[4096]{0}, f32[], f32[], /*index=5*/f32[4096]{0}, f32[4096]{0}, f32[], f32[], f32[4096]{0}, /*index=10*/f32[4096]{0}, f32[], f32[], f32[4096]{0}, f32[4096]{0}, /*index=15*/f32[], f32[], f32[4096]{0}, f32[4096]{0}, f32[], /*index=20*/f32[], f32[4096]{0}, f32[4096]{0}, f32[], f32[], /*index=25*/f32[4096]{0}, f32[4096]{0}, f32[], f32[], f32[4096]{0}, /*index=30*/f32[4096]{0}, f32[], f32[], f32[4096]{0}, f32[4096]{0}, /*index=35*/f32[]) %fusion.329), index=30
  %copy.825 = f32[4096]{0} copy(f32[4096]{0} %get-tuple-element.5438)
  %copy.826 = f32[2048]{0} copy(f32[2048]{0} %get-tuple-element.5529)
  %get-tuple-element.5325 = f32[4096]{0} get-tuple-element((f32[4096]{0}, f32[4096]{0}, f32[4096]{0}, f32[4096]{0}, f32[4096]{0}, /*index=5*/f32[4096]{0}, f32[4096]{0}, f32[4096]{0}, f32[4096]{0}, f32[4096]{0}, /*index=10*/f32[4096]{0}, f32[4096]{0}, f32[4096]{0}, f32[4096]{0}, f32[4096]{0}, /*index=15*/f32[4096]{0}, f32[4096]{0}, f32[4096]{0}) %fusion.573), index=15
  %get-tuple-element.5432 = f32[4096]{0} get-tuple-element((f32[], f32[4096]{0}, f32[4096]{0}, f32[], f32[], /*index=5*/f32[4096]{0}, f32[4096]{0}, f32[], f32[], f32[4096]{0}, /*index=10*/f32[4096]{0}, f32[], f32[], f32[4096]{0}, f32[4096]{0}, /*index=15*/f32[], f32[], f32[4096]{0}, f32[4096]{0}, f32[], /*index=20*/f32[], f32[4096]{0}, f32[4096]{0}, f32[], f32[], /*index=25*/f32[4096]{0}, f32[4096]{0}, f32[], f32[], f32[4096]{0}, /*index=30*/f32[4096]{0}, f32[], f32[], f32[4096]{0}, f32[4096]{0}, /*index=35*/f32[]) %fusion.329), index=26
  %copy.828 = f32[4096]{0} copy(f32[4096]{0} %get-tuple-element.5432)
  %copy.829 = f32[2048]{0} copy(f32[2048]{0} %get-tuple-element.5525)
  %get-tuple-element.5323 = f32[4096]{0} get-tuple-element((f32[4096]{0}, f32[4096]{0}, f32[4096]{0}, f32[4096]{0}, f32[4096]{0}, /*index=5*/f32[4096]{0}, f32[4096]{0}, f32[4096]{0}, f32[4096]{0}, f32[4096]{0}, /*index=10*/f32[4096]{0}, f32[4096]{0}, f32[4096]{0}, f32[4096]{0}, f32[4096]{0}, /*index=15*/f32[4096]{0}, f32[4096]{0}, f32[4096]{0}) %fusion.573), index=13
  %get-tuple-element.5428 = f32[4096]{0} get-tuple-element((f32[], f32[4096]{0}, f32[4096]{0}, f32[], f32[], /*index=5*/f32[4096]{0}, f32[4096]{0}, f32[], f32[], f32[4096]{0}, /*index=10*/f32[4096]{0}, f32[], f32[], f32[4096]{0}, f32[4096]{0}, /*index=15*/f32[], f32[], f32[4096]{0}, f32[4096]{0}, f32[], /*index=20*/f32[], f32[4096]{0}, f32[4096]{0}, f32[], f32[], /*index=25*/f32[4096]{0}, f32[4096]{0}, f32[], f32[], f32[4096]{0}, /*index=30*/f32[4096]{0}, f32[], f32[], f32[4096]{0}, f32[4096]{0}, /*index=35*/f32[]) %fusion.329), index=22
  %copy.831 = f32[4096]{0} copy(f32[4096]{0} %get-tuple-element.5428)
  %copy.832 = f32[256]{0} copy(f32[256]{0} %get-tuple-element.5231)
  %get-tuple-element.5465 = f32[1024]{0} get-tuple-element((f32[1024]{0}, f32[1024]{0}, f32[1024]{0}, f32[1024]{0}, f32[1024]{0}, /*index=5*/f32[1024]{0}, f32[1024]{0}, f32[1024]{0}, f32[1024]{0}, f32[1024]{0}, /*index=10*/f32[1024]{0}, f32[1024]{0}, f32[1024]{0}, f32[1024]{0}, f32[1024]{0}, /*index=15*/f32[1024]{0}, f32[1024]{0}) %fusion.411), index=9
  %copy.834 = f32[2048]{0} copy(f32[2048]{0} %get-tuple-element.5519)
  %get-tuple-element.5321 = f32[4096]{0} get-tuple-element((f32[4096]{0}, f32[4096]{0}, f32[4096]{0}, f32[4096]{0}, f32[4096]{0}, /*index=5*/f32[4096]{0}, f32[4096]{0}, f32[4096]{0}, f32[4096]{0}, f32[4096]{0}, /*index=10*/f32[4096]{0}, f32[4096]{0}, f32[4096]{0}, f32[4096]{0}, f32[4096]{0}, /*index=15*/f32[4096]{0}, f32[4096]{0}, f32[4096]{0}) %fusion.573), index=11
  %get-tuple-element.5424 = f32[4096]{0} get-tuple-element((f32[], f32[4096]{0}, f32[4096]{0}, f32[], f32[], /*index=5*/f32[4096]{0}, f32[4096]{0}, f32[], f32[], f32[4096]{0}, /*index=10*/f32[4096]{0}, f32[], f32[], f32[4096]{0}, f32[4096]{0}, /*index=15*/f32[], f32[], f32[4096]{0}, f32[4096]{0}, f32[], /*index=20*/f32[], f32[4096]{0}, f32[4096]{0}, f32[], f32[], /*index=25*/f32[4096]{0}, f32[4096]{0}, f32[], f32[], f32[4096]{0}, /*index=30*/f32[4096]{0}, f32[], f32[], f32[4096]{0}, f32[4096]{0}, /*index=35*/f32[]) %fusion.329), index=18
  %copy.836 = f32[4096]{0} copy(f32[4096]{0} %get-tuple-element.5424)
  %copy.837 = f32[1024]{0} copy(f32[1024]{0} %get-tuple-element.5491)
  %get-tuple-element.5463 = f32[1024]{0} get-tuple-element((f32[1024]{0}, f32[1024]{0}, f32[1024]{0}, f32[1024]{0}, f32[1024]{0}, /*index=5*/f32[1024]{0}, f32[1024]{0}, f32[1024]{0}, f32[1024]{0}, f32[1024]{0}, /*index=10*/f32[1024]{0}, f32[1024]{0}, f32[1024]{0}, f32[1024]{0}, f32[1024]{0}, /*index=15*/f32[1024]{0}, f32[1024]{0}) %fusion.411), index=7
  %get-tuple-element.5510 = f32[1024]{0} get-tuple-element((f32[], f32[1024]{0}, f32[], f32[1024]{0}, f32[], /*index=5*/f32[1024]{0}, f32[], f32[1024]{0}, f32[], f32[1024]{0}, /*index=10*/f32[], f32[1024]{0}, f32[1024]{0}, f32[], f32[], /*index=15*/f32[1024]{0}, f32[1024]{0}, f32[], f32[], f32[1024]{0}, /*index=20*/f32[1024]{0}, f32[], f32[], f32[1024]{0}, f32[1024]{0}, /*index=25*/f32[]) %fusion.756), index=24
  %copy.839 = f32[1024]{0} copy(f32[1024]{0} %get-tuple-element.5510)
  %copy.840 = f32[1024]{0} copy(f32[1024]{0} %get-tuple-element.5200)
  %get-tuple-element.5461 = f32[1024]{0} get-tuple-element((f32[1024]{0}, f32[1024]{0}, f32[1024]{0}, f32[1024]{0}, f32[1024]{0}, /*index=5*/f32[1024]{0}, f32[1024]{0}, f32[1024]{0}, f32[1024]{0}, f32[1024]{0}, /*index=10*/f32[1024]{0}, f32[1024]{0}, f32[1024]{0}, f32[1024]{0}, f32[1024]{0}, /*index=15*/f32[1024]{0}, f32[1024]{0}) %fusion.411), index=5
  %get-tuple-element.5506 = f32[1024]{0} get-tuple-element((f32[], f32[1024]{0}, f32[], f32[1024]{0}, f32[], /*index=5*/f32[1024]{0}, f32[], f32[1024]{0}, f32[], f32[1024]{0}, /*index=10*/f32[], f32[1024]{0}, f32[1024]{0}, f32[], f32[], /*index=15*/f32[1024]{0}, f32[1024]{0}, f32[], f32[], f32[1024]{0}, /*index=20*/f32[1024]{0}, f32[], f32[], f32[1024]{0}, f32[1024]{0}, /*index=25*/f32[]) %fusion.756), index=20
  %copy.842 = f32[1024]{0} copy(f32[1024]{0} %get-tuple-element.5506)
  %copy.843 = f32[1024]{0} copy(f32[1024]{0} %get-tuple-element.5493)
  %get-tuple-element.5459 = f32[1024]{0} get-tuple-element((f32[1024]{0}, f32[1024]{0}, f32[1024]{0}, f32[1024]{0}, f32[1024]{0}, /*index=5*/f32[1024]{0}, f32[1024]{0}, f32[1024]{0}, f32[1024]{0}, f32[1024]{0}, /*index=10*/f32[1024]{0}, f32[1024]{0}, f32[1024]{0}, f32[1024]{0}, f32[1024]{0}, /*index=15*/f32[1024]{0}, f32[1024]{0}) %fusion.411), index=3
  %get-tuple-element.5500 = f32[1024]{0} get-tuple-element((f32[], f32[1024]{0}, f32[], f32[1024]{0}, f32[], /*index=5*/f32[1024]{0}, f32[], f32[1024]{0}, f32[], f32[1024]{0}, /*index=10*/f32[], f32[1024]{0}, f32[1024]{0}, f32[], f32[], /*index=15*/f32[1024]{0}, f32[1024]{0}, f32[], f32[], f32[1024]{0}, /*index=20*/f32[1024]{0}, f32[], f32[], f32[1024]{0}, f32[1024]{0}, /*index=25*/f32[]) %fusion.756), index=16
  %copy.845 = f32[1024]{0} copy(f32[1024]{0} %get-tuple-element.5500)
  %copy.846 = f32[1024]{0} copy(f32[1024]{0} %get-tuple-element.5487)
  %get-tuple-element.5178 = f32[1024]{0} get-tuple-element((f32[1024]{0}, f32[1024]{0}, f32[1024]{0}, f32[1024]{0}, f32[1024]{0}, /*index=5*/f32[1024]{0}, f32[1024]{0}, f32[1024]{0}, f32[1024]{0}, f32[1024]{0}, /*index=10*/f32[1024]{0}, f32[1024]{0}, f32[1024]{0}, f32[1024]{0}, f32[1024]{0}, /*index=15*/f32[1024]{0}, f32[1024]{0}) %fusion.411), index=1
  %get-tuple-element.5496 = f32[1024]{0} get-tuple-element((f32[], f32[1024]{0}, f32[], f32[1024]{0}, f32[], /*index=5*/f32[1024]{0}, f32[], f32[1024]{0}, f32[], f32[1024]{0}, /*index=10*/f32[], f32[1024]{0}, f32[1024]{0}, f32[], f32[], /*index=15*/f32[1024]{0}, f32[1024]{0}, f32[], f32[], f32[1024]{0}, /*index=20*/f32[1024]{0}, f32[], f32[], f32[1024]{0}, f32[1024]{0}, /*index=25*/f32[]) %fusion.756), index=12
  %copy.848 = f32[1024]{0} copy(f32[1024]{0} %get-tuple-element.5496)
  %copy.849 = f32[2048]{0} copy(f32[2048]{0} %get-tuple-element.5527)
  %get-tuple-element.5319 = f32[4096]{0} get-tuple-element((f32[4096]{0}, f32[4096]{0}, f32[4096]{0}, f32[4096]{0}, f32[4096]{0}, /*index=5*/f32[4096]{0}, f32[4096]{0}, f32[4096]{0}, f32[4096]{0}, f32[4096]{0}, /*index=10*/f32[4096]{0}, f32[4096]{0}, f32[4096]{0}, f32[4096]{0}, f32[4096]{0}, /*index=15*/f32[4096]{0}, f32[4096]{0}, f32[4096]{0}) %fusion.573), index=9
  %get-tuple-element.5420 = f32[4096]{0} get-tuple-element((f32[], f32[4096]{0}, f32[4096]{0}, f32[], f32[], /*index=5*/f32[4096]{0}, f32[4096]{0}, f32[], f32[], f32[4096]{0}, /*index=10*/f32[4096]{0}, f32[], f32[], f32[4096]{0}, f32[4096]{0}, /*index=15*/f32[], f32[], f32[4096]{0}, f32[4096]{0}, f32[], /*index=20*/f32[], f32[4096]{0}, f32[4096]{0}, f32[], f32[], /*index=25*/f32[4096]{0}, f32[4096]{0}, f32[], f32[], f32[4096]{0}, /*index=30*/f32[4096]{0}, f32[], f32[], f32[4096]{0}, f32[4096]{0}, /*index=35*/f32[]) %fusion.329), index=14
  %copy.851 = f32[4096]{0} copy(f32[4096]{0} %get-tuple-element.5420)
  %copy.852 = f32[2048]{0} copy(f32[2048]{0} %get-tuple-element.5523)
  %get-tuple-element.5317 = f32[4096]{0} get-tuple-element((f32[4096]{0}, f32[4096]{0}, f32[4096]{0}, f32[4096]{0}, f32[4096]{0}, /*index=5*/f32[4096]{0}, f32[4096]{0}, f32[4096]{0}, f32[4096]{0}, f32[4096]{0}, /*index=10*/f32[4096]{0}, f32[4096]{0}, f32[4096]{0}, f32[4096]{0}, f32[4096]{0}, /*index=15*/f32[4096]{0}, f32[4096]{0}, f32[4096]{0}) %fusion.573), index=7
  %get-tuple-element.5357 = f32[4096]{0} get-tuple-element((f32[], f32[4096]{0}, f32[4096]{0}, f32[], f32[], /*index=5*/f32[4096]{0}, f32[4096]{0}, f32[], f32[], f32[4096]{0}, /*index=10*/f32[4096]{0}, f32[], f32[], f32[4096]{0}, f32[4096]{0}, /*index=15*/f32[], f32[], f32[4096]{0}, f32[4096]{0}, f32[], /*index=20*/f32[], f32[4096]{0}, f32[4096]{0}, f32[], f32[], /*index=25*/f32[4096]{0}, f32[4096]{0}, f32[], f32[], f32[4096]{0}, /*index=30*/f32[4096]{0}, f32[], f32[], f32[4096]{0}, f32[4096]{0}, /*index=35*/f32[]) %fusion.329), index=10
  %copy.854 = f32[4096]{0} copy(f32[4096]{0} %get-tuple-element.5357)
  %copy.855 = f32[2048]{0} copy(f32[2048]{0} %get-tuple-element.5521)
  %get-tuple-element.5315 = f32[4096]{0} get-tuple-element((f32[4096]{0}, f32[4096]{0}, f32[4096]{0}, f32[4096]{0}, f32[4096]{0}, /*index=5*/f32[4096]{0}, f32[4096]{0}, f32[4096]{0}, f32[4096]{0}, f32[4096]{0}, /*index=10*/f32[4096]{0}, f32[4096]{0}, f32[4096]{0}, f32[4096]{0}, f32[4096]{0}, /*index=15*/f32[4096]{0}, f32[4096]{0}, f32[4096]{0}) %fusion.573), index=5
  %get-tuple-element.5331 = f32[4096]{0} get-tuple-element((f32[], f32[4096]{0}, f32[4096]{0}, f32[], f32[], /*index=5*/f32[4096]{0}, f32[4096]{0}, f32[], f32[], f32[4096]{0}, /*index=10*/f32[4096]{0}, f32[], f32[], f32[4096]{0}, f32[4096]{0}, /*index=15*/f32[], f32[], f32[4096]{0}, f32[4096]{0}, f32[], /*index=20*/f32[], f32[4096]{0}, f32[4096]{0}, f32[], f32[], /*index=25*/f32[4096]{0}, f32[4096]{0}, f32[], f32[], f32[4096]{0}, /*index=30*/f32[4096]{0}, f32[], f32[], f32[4096]{0}, f32[4096]{0}, /*index=35*/f32[]) %fusion.329), index=6
  %copy.857 = f32[4096]{0} copy(f32[4096]{0} %get-tuple-element.5331)
  %copy.858 = f32[2048]{0} copy(f32[2048]{0} %get-tuple-element.5514)
  %get-tuple-element.5313 = f32[4096]{0} get-tuple-element((f32[4096]{0}, f32[4096]{0}, f32[4096]{0}, f32[4096]{0}, f32[4096]{0}, /*index=5*/f32[4096]{0}, f32[4096]{0}, f32[4096]{0}, f32[4096]{0}, f32[4096]{0}, /*index=10*/f32[4096]{0}, f32[4096]{0}, f32[4096]{0}, f32[4096]{0}, f32[4096]{0}, /*index=15*/f32[4096]{0}, f32[4096]{0}, f32[4096]{0}) %fusion.573), index=3
  %get-tuple-element.5124 = f32[4096]{0} get-tuple-element((f32[], f32[4096]{0}, f32[4096]{0}, f32[], f32[], /*index=5*/f32[4096]{0}, f32[4096]{0}, f32[], f32[], f32[4096]{0}, /*index=10*/f32[4096]{0}, f32[], f32[], f32[4096]{0}, f32[4096]{0}, /*index=15*/f32[], f32[], f32[4096]{0}, f32[4096]{0}, f32[], /*index=20*/f32[], f32[4096]{0}, f32[4096]{0}, f32[], f32[], /*index=25*/f32[4096]{0}, f32[4096]{0}, f32[], f32[], f32[4096]{0}, /*index=30*/f32[4096]{0}, f32[], f32[], f32[4096]{0}, f32[4096]{0}, /*index=35*/f32[]) %fusion.329), index=2
  %copy.860 = f32[4096]{0} copy(f32[4096]{0} %get-tuple-element.5124)
  %copy.861 = f32[1024]{0} copy(f32[1024]{0} %get-tuple-element.5489)
  %get-tuple-element.5118 = f32[256]{0} get-tuple-element((f32[256]{0}, f32[256]{0}, f32[256]{0}) %fusion.319), index=1
  %get-tuple-element.5532 = f32[256]{0} get-tuple-element((f32[], f32[256]{0}, f32[], f32[256]{0}, f32[256]{0}, /*index=5*/f32[]) %fusion.759), index=4
  %copy.863 = f32[256]{0} copy(f32[256]{0} %get-tuple-element.5532)
  %get-tuple-element.5533 = f32[] get-tuple-element((f32[], f32[256]{0}, f32[], f32[256]{0}, f32[256]{0}, /*index=5*/f32[]) %fusion.759), index=5
  %get-tuple-element.5119 = f32[] get-tuple-element((f32[], f32[]) %fusion.292), index=0
  %get-tuple-element.5125 = f32[] get-tuple-element((f32[], f32[4096]{0}, f32[4096]{0}, f32[], f32[], /*index=5*/f32[4096]{0}, f32[4096]{0}, f32[], f32[], f32[4096]{0}, /*index=10*/f32[4096]{0}, f32[], f32[], f32[4096]{0}, f32[4096]{0}, /*index=15*/f32[], f32[], f32[4096]{0}, f32[4096]{0}, f32[], /*index=20*/f32[], f32[4096]{0}, f32[4096]{0}, f32[], f32[], /*index=25*/f32[4096]{0}, f32[4096]{0}, f32[], f32[], f32[4096]{0}, /*index=30*/f32[4096]{0}, f32[], f32[], f32[4096]{0}, f32[4096]{0}, /*index=35*/f32[]) %fusion.329), index=3
  %get-tuple-element.5131 = f32[] get-tuple-element((f32[], f32[]) %fusion.293), index=0
  %get-tuple-element.5354 = f32[] get-tuple-element((f32[], f32[4096]{0}, f32[4096]{0}, f32[], f32[], /*index=5*/f32[4096]{0}, f32[4096]{0}, f32[], f32[], f32[4096]{0}, /*index=10*/f32[4096]{0}, f32[], f32[], f32[4096]{0}, f32[4096]{0}, /*index=15*/f32[], f32[], f32[4096]{0}, f32[4096]{0}, f32[], /*index=20*/f32[], f32[4096]{0}, f32[4096]{0}, f32[], f32[], /*index=25*/f32[4096]{0}, f32[4096]{0}, f32[], f32[], f32[4096]{0}, /*index=30*/f32[4096]{0}, f32[], f32[], f32[4096]{0}, f32[4096]{0}, /*index=35*/f32[]) %fusion.329), index=7
  %get-tuple-element.5143 = f32[] get-tuple-element((f32[], f32[]) %fusion.294), index=0
  %get-tuple-element.5380 = f32[] get-tuple-element((f32[], f32[4096]{0}, f32[4096]{0}, f32[], f32[], /*index=5*/f32[4096]{0}, f32[4096]{0}, f32[], f32[], f32[4096]{0}, /*index=10*/f32[4096]{0}, f32[], f32[], f32[4096]{0}, f32[4096]{0}, /*index=15*/f32[], f32[], f32[4096]{0}, f32[4096]{0}, f32[], /*index=20*/f32[], f32[4096]{0}, f32[4096]{0}, f32[], f32[], /*index=25*/f32[4096]{0}, f32[4096]{0}, f32[], f32[], f32[4096]{0}, /*index=30*/f32[4096]{0}, f32[], f32[], f32[4096]{0}, f32[4096]{0}, /*index=35*/f32[]) %fusion.329), index=11
  %get-tuple-element.5155 = f32[] get-tuple-element((f32[], f32[]) %fusion.295), index=0
  %get-tuple-element.5421 = f32[] get-tuple-element((f32[], f32[4096]{0}, f32[4096]{0}, f32[], f32[], /*index=5*/f32[4096]{0}, f32[4096]{0}, f32[], f32[], f32[4096]{0}, /*index=10*/f32[4096]{0}, f32[], f32[], f32[4096]{0}, f32[4096]{0}, /*index=15*/f32[], f32[], f32[4096]{0}, f32[4096]{0}, f32[], /*index=20*/f32[], f32[4096]{0}, f32[4096]{0}, f32[], f32[], /*index=25*/f32[4096]{0}, f32[4096]{0}, f32[], f32[], f32[4096]{0}, /*index=30*/f32[4096]{0}, f32[], f32[], f32[4096]{0}, f32[4096]{0}, /*index=35*/f32[]) %fusion.329), index=15
  %get-tuple-element.5167 = f32[] get-tuple-element((f32[], f32[]) %fusion.296), index=0
  %get-tuple-element.5497 = f32[] get-tuple-element((f32[], f32[1024]{0}, f32[], f32[1024]{0}, f32[], /*index=5*/f32[1024]{0}, f32[], f32[1024]{0}, f32[], f32[1024]{0}, /*index=10*/f32[], f32[1024]{0}, f32[1024]{0}, f32[], f32[], /*index=15*/f32[1024]{0}, f32[1024]{0}, f32[], f32[], f32[1024]{0}, /*index=20*/f32[1024]{0}, f32[], f32[], f32[1024]{0}, f32[1024]{0}, /*index=25*/f32[]) %fusion.756), index=13
  %get-tuple-element.5179 = f32[] get-tuple-element((f32[], f32[]) %fusion.297), index=0
  %get-tuple-element.5501 = f32[] get-tuple-element((f32[], f32[1024]{0}, f32[], f32[1024]{0}, f32[], /*index=5*/f32[1024]{0}, f32[], f32[1024]{0}, f32[], f32[1024]{0}, /*index=10*/f32[], f32[1024]{0}, f32[1024]{0}, f32[], f32[], /*index=15*/f32[1024]{0}, f32[1024]{0}, f32[], f32[], f32[1024]{0}, /*index=20*/f32[1024]{0}, f32[], f32[], f32[1024]{0}, f32[1024]{0}, /*index=25*/f32[]) %fusion.756), index=17
  %get-tuple-element.5191 = f32[] get-tuple-element((f32[], f32[]) %fusion.298), index=0
  %get-tuple-element.5507 = f32[] get-tuple-element((f32[], f32[1024]{0}, f32[], f32[1024]{0}, f32[], /*index=5*/f32[1024]{0}, f32[], f32[1024]{0}, f32[], f32[1024]{0}, /*index=10*/f32[], f32[1024]{0}, f32[1024]{0}, f32[], f32[], /*index=15*/f32[1024]{0}, f32[1024]{0}, f32[], f32[], f32[1024]{0}, /*index=20*/f32[1024]{0}, f32[], f32[], f32[1024]{0}, f32[1024]{0}, /*index=25*/f32[]) %fusion.756), index=21
  %get-tuple-element.5203 = f32[] get-tuple-element((f32[], f32[]) %fusion.299), index=0
  %get-tuple-element.5511 = f32[] get-tuple-element((f32[], f32[1024]{0}, f32[], f32[1024]{0}, f32[], /*index=5*/f32[1024]{0}, f32[], f32[1024]{0}, f32[], f32[1024]{0}, /*index=10*/f32[], f32[1024]{0}, f32[1024]{0}, f32[], f32[], /*index=15*/f32[1024]{0}, f32[1024]{0}, f32[], f32[], f32[1024]{0}, /*index=20*/f32[1024]{0}, f32[], f32[], f32[1024]{0}, f32[1024]{0}, /*index=25*/f32[]) %fusion.756), index=25
  %get-tuple-element.5215 = f32[] get-tuple-element((f32[], f32[]) %fusion.300), index=0
  %get-tuple-element.5425 = f32[] get-tuple-element((f32[], f32[4096]{0}, f32[4096]{0}, f32[], f32[], /*index=5*/f32[4096]{0}, f32[4096]{0}, f32[], f32[], f32[4096]{0}, /*index=10*/f32[4096]{0}, f32[], f32[], f32[4096]{0}, f32[4096]{0}, /*index=15*/f32[], f32[], f32[4096]{0}, f32[4096]{0}, f32[], /*index=20*/f32[], f32[4096]{0}, f32[4096]{0}, f32[], f32[], /*index=25*/f32[4096]{0}, f32[4096]{0}, f32[], f32[], f32[4096]{0}, /*index=30*/f32[4096]{0}, f32[], f32[], f32[4096]{0}, f32[4096]{0}, /*index=35*/f32[]) %fusion.329), index=19
  %get-tuple-element.5227 = f32[] get-tuple-element((f32[], f32[]) %fusion.301), index=0
  %get-tuple-element.5234 = f32[] get-tuple-element((f32[], f32[]) %fusion.302), index=0
  %get-tuple-element.5429 = f32[] get-tuple-element((f32[], f32[4096]{0}, f32[4096]{0}, f32[], f32[], /*index=5*/f32[4096]{0}, f32[4096]{0}, f32[], f32[], f32[4096]{0}, /*index=10*/f32[4096]{0}, f32[], f32[], f32[4096]{0}, f32[4096]{0}, /*index=15*/f32[], f32[], f32[4096]{0}, f32[4096]{0}, f32[], /*index=20*/f32[], f32[4096]{0}, f32[4096]{0}, f32[], f32[], /*index=25*/f32[4096]{0}, f32[4096]{0}, f32[], f32[], f32[4096]{0}, /*index=30*/f32[4096]{0}, f32[], f32[], f32[4096]{0}, f32[4096]{0}, /*index=35*/f32[]) %fusion.329), index=23
  %get-tuple-element.5246 = f32[] get-tuple-element((f32[], f32[]) %fusion.303), index=0
  %get-tuple-element.5433 = f32[] get-tuple-element((f32[], f32[4096]{0}, f32[4096]{0}, f32[], f32[], /*index=5*/f32[4096]{0}, f32[4096]{0}, f32[], f32[], f32[4096]{0}, /*index=10*/f32[4096]{0}, f32[], f32[], f32[4096]{0}, f32[4096]{0}, /*index=15*/f32[], f32[], f32[4096]{0}, f32[4096]{0}, f32[], /*index=20*/f32[], f32[4096]{0}, f32[4096]{0}, f32[], f32[], /*index=25*/f32[4096]{0}, f32[4096]{0}, f32[], f32[], f32[4096]{0}, /*index=30*/f32[4096]{0}, f32[], f32[], f32[4096]{0}, f32[4096]{0}, /*index=35*/f32[]) %fusion.329), index=27
  %get-tuple-element.5258 = f32[] get-tuple-element((f32[], f32[]) %fusion.304), index=0
  %get-tuple-element.5439 = f32[] get-tuple-element((f32[], f32[4096]{0}, f32[4096]{0}, f32[], f32[], /*index=5*/f32[4096]{0}, f32[4096]{0}, f32[], f32[], f32[4096]{0}, /*index=10*/f32[4096]{0}, f32[], f32[], f32[4096]{0}, f32[4096]{0}, /*index=15*/f32[], f32[], f32[4096]{0}, f32[4096]{0}, f32[], /*index=20*/f32[], f32[4096]{0}, f32[4096]{0}, f32[], f32[], /*index=25*/f32[4096]{0}, f32[4096]{0}, f32[], f32[], f32[4096]{0}, /*index=30*/f32[4096]{0}, f32[], f32[], f32[4096]{0}, f32[4096]{0}, /*index=35*/f32[]) %fusion.329), index=31
  %get-tuple-element.5270 = f32[] get-tuple-element((f32[], f32[]) %fusion.305), index=0
  %get-tuple-element.5443 = f32[] get-tuple-element((f32[], f32[4096]{0}, f32[4096]{0}, f32[], f32[], /*index=5*/f32[4096]{0}, f32[4096]{0}, f32[], f32[], f32[4096]{0}, /*index=10*/f32[4096]{0}, f32[], f32[], f32[4096]{0}, f32[4096]{0}, /*index=15*/f32[], f32[], f32[4096]{0}, f32[4096]{0}, f32[], /*index=20*/f32[], f32[4096]{0}, f32[4096]{0}, f32[], f32[], /*index=25*/f32[4096]{0}, f32[4096]{0}, f32[], f32[], f32[4096]{0}, /*index=30*/f32[4096]{0}, f32[], f32[], f32[4096]{0}, f32[4096]{0}, /*index=35*/f32[]) %fusion.329), index=35
  %get-tuple-element.5536 = f32[] get-tuple-element((f32[], f32[]) %fusion.307), index=0
  %get-tuple-element.5282 = f32[] get-tuple-element((f32[], f32[]) %fusion.306), index=0
  %fusion.291 = f32[] fusion(f32[] %get-tuple-element.5533, f32[] %get-tuple-element.5119, f32[] %get-tuple-element.5125, f32[] %get-tuple-element.5131, f32[] %get-tuple-element.5354, /*index=5*/f32[] %get-tuple-element.5143, f32[] %get-tuple-element.5380, f32[] %get-tuple-element.5155, f32[] %get-tuple-element.5421, f32[] %get-tuple-element.5167, /*index=10*/f32[] %get-tuple-element.5497, f32[] %get-tuple-element.5179, f32[] %get-tuple-element.5501, f32[] %get-tuple-element.5191, f32[] %get-tuple-element.5507, /*index=15*/f32[] %get-tuple-element.5203, f32[] %get-tuple-element.5511, f32[] %get-tuple-element.5215, f32[] %get-tuple-element.5425, f32[] %get-tuple-element.5227, /*index=20*/f32[] %get-tuple-element.5234, f32[] %get-tuple-element.5429, f32[] %get-tuple-element.5246, f32[] %get-tuple-element.5433, f32[] %get-tuple-element.5258, /*index=25*/f32[] %get-tuple-element.5439, f32[] %get-tuple-element.5270, f32[] %get-tuple-element.5443, f32[] %get-tuple-element.5536, f32[] %get-tuple-element.5282), kind=kLoop, calls=%fused_computation.291, metadata={op_type="sqrt" op_name="pmap(_multi_device_update_fn)/sqrt" source_file="/usr/local/lib/python3.8/dist-packages/trax/optimizers/base.py" source_line=183}
  %get-tuple-element.5549 = f32[] get-tuple-element((f32[], f32[]) %fusion.656), index=1
  %fusion.671 = f32[] fusion(f32[] %get-tuple-element.5549, f32[] %all-reduce.7676), kind=kLoop, calls=%fused_computation.671, metadata={op_type="div" op_name="pmap(_multi_device_update_fn)/div" source_file="/usr/local/lib/python3.8/dist-packages/trax/layers/metrics.py" source_line=617}
  %get-tuple-element.5109 = f32[] get-tuple-element((f32[], f32[], f32[], f32[], f32[], /*index=5*/f32[], f32[], f32[], f32[], f32[], /*index=10*/f32[], f32[], f32[], f32[], f32[], /*index=15*/f32[], f32[], f32[], f32[], f32[], /*index=20*/f32[], f32[], f32[], f32[], f32[], /*index=25*/f32[], f32[], f32[], f32[], f32[], /*index=30*/f32[]) %fusion.313), index=1
  ROOT %tuple.839 = (f32[32000,1024]{1,0}, f32[2048,4096]{1,0}, f32[4096]{0}, f32[2048,4096]{1,0}, f32[4096]{0}, /*index=5*/f32[2048,4096]{1,0}, f32[4096]{0}, f32[2048,4096]{1,0}, f32[4096]{0}, f32[256,1024]{1,0}, /*index=10*/f32[2048,4096]{1,0}, f32[4096]{0}, f32[1024,1024]{1,0}, f32[1024]{0}, f32[1024,1024]{1,0}, /*index=15*/f32[1024]{0}, f32[1024,1024]{1,0}, f32[1024]{0}, f32[1024,1024]{1,0}, f32[1024]{0}, /*index=20*/f32[2048,4096]{1,0}, f32[4096]{0}, f32[2048,4096]{1,0}, f32[4096]{0}, f32[2048,4096]{1,0}, /*index=25*/f32[4096]{0}, f32[2048,4096]{1,0}, f32[4096]{0}, f32[1024,256]{1,0}, f32[256]{0}, /*index=30*/f32[32000]{0}, f32[1024]{0}, f32[2048]{0}, f32[4096]{0}, f32[4096]{0}, /*index=35*/f32[2048]{0}, f32[4096]{0}, f32[4096]{0}, f32[2048]{0}, f32[4096]{0}, /*index=40*/f32[4096]{0}, f32[2048]{0}, f32[4096]{0}, f32[4096]{0}, f32[256]{0}, /*index=45*/f32[1024]{0}, f32[2048]{0}, f32[4096]{0}, f32[4096]{0}, f32[1024]{0}, /*index=50*/f32[1024]{0}, f32[1024]{0}, f32[1024]{0}, f32[1024]{0}, f32[1024]{0}, /*index=55*/f32[1024]{0}, f32[1024]{0}, f32[1024]{0}, f32[1024]{0}, f32[1024]{0}, /*index=60*/f32[1024]{0}, f32[2048]{0}, f32[4096]{0}, f32[4096]{0}, f32[2048]{0}, /*index=65*/f32[4096]{0}, f32[4096]{0}, f32[2048]{0}, f32[4096]{0}, f32[4096]{0}, /*index=70*/f32[2048]{0}, f32[4096]{0}, f32[4096]{0}, f32[1024]{0}, f32[256]{0}, /*index=75*/f32[256]{0}, f32[], f32[], f32[]) tuple(f32[32000,1024]{1,0} %fusion.582, f32[2048,4096]{1,0} %get-tuple-element.5284, f32[4096]{0} %get-tuple-element.5292, f32[2048,4096]{1,0} %fusion.551, f32[4096]{0} %get-tuple-element.5300, /*index=5*/f32[2048,4096]{1,0} %get-tuple-element.5291, f32[4096]{0} %get-tuple-element.5299, f32[2048,4096]{1,0} %get-tuple-element.5290, f32[4096]{0} %get-tuple-element.5298, f32[256,1024]{1,0} %fusion.494, /*index=10*/f32[2048,4096]{1,0} %get-tuple-element.5289, f32[4096]{0} %get-tuple-element.5297, f32[1024,1024]{1,0} %get-tuple-element.5301, f32[1024]{0} %get-tuple-element.5305, f32[1024,1024]{1,0} %get-tuple-element.5304, /*index=15*/f32[1024]{0} %get-tuple-element.5308, f32[1024,1024]{1,0} %get-tuple-element.5303, f32[1024]{0} %get-tuple-element.5307, f32[1024,1024]{1,0} %get-tuple-element.5302, f32[1024]{0} %get-tuple-element.5306, /*index=20*/f32[2048,4096]{1,0} %get-tuple-element.5288, f32[4096]{0} %get-tuple-element.5296, f32[2048,4096]{1,0} %get-tuple-element.5287, f32[4096]{0} %get-tuple-element.5295, f32[2048,4096]{1,0} %get-tuple-element.5286, /*index=25*/f32[4096]{0} %get-tuple-element.5294, f32[2048,4096]{1,0} %get-tuple-element.5285, f32[4096]{0} %get-tuple-element.5293, f32[1024,256]{1,0} %fusion.315, f32[256]{0} %fusion.308, /*index=30*/f32[32000]{0} %copy.818, f32[1024]{0} %get-tuple-element.5485, f32[2048]{0} %copy.820, f32[4096]{0} %get-tuple-element.5281, f32[4096]{0} %copy.822, /*index=35*/f32[2048]{0} %copy.823, f32[4096]{0} %get-tuple-element.5327, f32[4096]{0} %copy.825, f32[2048]{0} %copy.826, f32[4096]{0} %get-tuple-element.5325, /*index=40*/f32[4096]{0} %copy.828, f32[2048]{0} %copy.829, f32[4096]{0} %get-tuple-element.5323, f32[4096]{0} %copy.831, f32[256]{0} %copy.832, /*index=45*/f32[1024]{0} %get-tuple-element.5465, f32[2048]{0} %copy.834, f32[4096]{0} %get-tuple-element.5321, f32[4096]{0} %copy.836, f32[1024]{0} %copy.837, /*index=50*/f32[1024]{0} %get-tuple-element.5463, f32[1024]{0} %copy.839, f32[1024]{0} %copy.840, f32[1024]{0} %get-tuple-element.5461, f32[1024]{0} %copy.842, /*index=55*/f32[1024]{0} %copy.843, f32[1024]{0} %get-tuple-element.5459, f32[1024]{0} %copy.845, f32[1024]{0} %copy.846, f32[1024]{0} %get-tuple-element.5178, /*index=60*/f32[1024]{0} %copy.848, f32[2048]{0} %copy.849, f32[4096]{0} %get-tuple-element.5319, f32[4096]{0} %copy.851, f32[2048]{0} %copy.852, /*index=65*/f32[4096]{0} %get-tuple-element.5317, f32[4096]{0} %copy.854, f32[2048]{0} %copy.855, f32[4096]{0} %get-tuple-element.5315, f32[4096]{0} %copy.857, /*index=70*/f32[2048]{0} %copy.858, f32[4096]{0} %get-tuple-element.5313, f32[4096]{0} %copy.860, f32[1024]{0} %copy.861, f32[256]{0} %get-tuple-element.5118, /*index=75*/f32[256]{0} %copy.863, f32[] %fusion.291, f32[] %fusion.671, f32[] %get-tuple-element.5109)
}

