HloModule pmap_eval_step.3589

%primitive_computation_add__2.3550 (parameter.3551: f32[], parameter.3552: f32[]) -> f32[] {
  %parameter.3551 = f32[] parameter(0), metadata={op_type="add" op_name="add"}
  %parameter.3552 = f32[] parameter(1), metadata={op_type="add" op_name="add"}
  ROOT %add.3553 = f32[] add(f32[] %parameter.3551, f32[] %parameter.3552), metadata={op_type="add" op_name="add"}
}

%primitive_computation_add__2.3557 (parameter.3558: f32[], parameter.3559: f32[]) -> f32[] {
  %parameter.3558 = f32[] parameter(0), metadata={op_type="add" op_name="add"}
  %parameter.3559 = f32[] parameter(1), metadata={op_type="add" op_name="add"}
  ROOT %add.3560 = f32[] add(f32[] %parameter.3558, f32[] %parameter.3559), metadata={op_type="add" op_name="add"}
}

%primitive_computation_add__2.3564 (parameter.3565: f32[], parameter.3566: f32[]) -> f32[] {
  %parameter.3565 = f32[] parameter(0), metadata={op_type="add" op_name="add"}
  %parameter.3566 = f32[] parameter(1), metadata={op_type="add" op_name="add"}
  ROOT %add.3567 = f32[] add(f32[] %parameter.3565, f32[] %parameter.3566), metadata={op_type="add" op_name="add"}
}

%fused_computation.1 (param_0.528: f32[64,128], param_1.555: s32[64,128], param_2.778: s32[64,128]) -> (f32[], f32[], f32[]) {
  %param_0.528 = f32[64,128]{1,0} parameter(0)
  %negate.0 = f32[64,128]{1,0} negate(f32[64,128]{1,0} %param_0.528), metadata={op_type="neg" op_name="pmap(eval_step)/neg" source_file="/usr/local/lib/python3.8/dist-packages/optax/_src/loss.py" source_line=164}
  %param_1.555 = s32[64,128]{1,0} parameter(1)
  %constant_588 = s32[] constant(0), metadata={op_type="lt" op_name="pmap(eval_step)/lt" source_file="/usr/local/lib/python3.8/dist-packages/flax/linen/linear.py" source_line=411}
  %broadcast.1314 = s32[64,128]{1,0} broadcast(s32[] %constant_588), dimensions={}, metadata={op_type="lt" op_name="pmap(eval_step)/lt" source_file="/usr/local/lib/python3.8/dist-packages/flax/linen/linear.py" source_line=411}
  %compare.27 = pred[64,128]{1,0} compare(s32[64,128]{1,0} %param_1.555, s32[64,128]{1,0} %broadcast.1314), direction=GT, metadata={op_type="gt" op_name="pmap(eval_step)/gt" source_file="roberta.py" source_line=183}
  %constant_587 = f32[] constant(1), metadata={op_type="add" op_name="pmap(eval_step)/add" source_file="/usr/local/lib/python3.8/dist-packages/transformers/models/roberta/modeling_flax_roberta.py" source_line=313}
  %broadcast.1313 = f32[64,128]{1,0} broadcast(f32[] %constant_587), dimensions={}, metadata={op_type="broadcast_in_dim" op_name="pmap(eval_step)/jit(_where)/broadcast_in_dim[ broadcast_dimensions=(  )\n                                              shape=(64, 128) ]" source_file="roberta.py" source_line=183}
  %constant_170 = f32[] constant(0), metadata={op_type="reduce_sum" op_name="pmap(eval_step)/reduce_sum[ axes=(2,) ]" source_file="/usr/local/lib/python3.8/dist-packages/flax/linen/normalization.py" source_line=185}
  %broadcast.1311 = f32[64,128]{1,0} broadcast(f32[] %constant_170), dimensions={}, metadata={op_type="broadcast_in_dim" op_name="pmap(eval_step)/broadcast_in_dim[ broadcast_dimensions=(  )\n                                  shape=(64, 1, 1, 128) ]" source_file="/usr/local/lib/python3.8/dist-packages/transformers/models/roberta/modeling_flax_roberta.py" source_line=221}
  %select.30 = f32[64,128]{1,0} select(pred[64,128]{1,0} %compare.27, f32[64,128]{1,0} %broadcast.1313, f32[64,128]{1,0} %broadcast.1311), metadata={op_type="select" op_name="pmap(eval_step)/jit(_where)/select" source_file="roberta.py" source_line=183}
  %multiply.168 = f32[64,128]{1,0} multiply(f32[64,128]{1,0} %negate.0, f32[64,128]{1,0} %select.30), metadata={op_type="mul" op_name="pmap(eval_step)/mul" source_file="roberta.py" source_line=184}
  %bitcast.130 = f32[8192]{0} bitcast(f32[64,128]{1,0} %multiply.168)
  %reduce.4 = f32[] reduce(f32[8192]{0} %bitcast.130, f32[] %constant_170), dimensions={0}, to_apply=%primitive_computation_add__2.3550, metadata={op_type="reduce_sum" op_name="pmap(eval_step)/reduce_sum[ axes=(0, 1) ]" source_file="roberta.py" source_line=190}
  %param_2.778 = s32[64,128]{1,0} parameter(2)
  %compare.15.clone.1 = pred[64,128]{1,0} compare(s32[64,128]{1,0} %param_2.778, s32[64,128]{1,0} %param_1.555), direction=EQ, metadata={op_type="eq" op_name="pmap(eval_step)/eq" source_file="roberta.py" source_line=187}
  %select.20.clone.1 = f32[64,128]{1,0} select(pred[64,128]{1,0} %compare.15.clone.1, f32[64,128]{1,0} %select.30, f32[64,128]{1,0} %broadcast.1311), metadata={op_type="mul" op_name="pmap(eval_step)/mul" source_file="roberta.py" source_line=187}
  %bitcast.131.clone.1 = f32[8192]{0} bitcast(f32[64,128]{1,0} %select.20.clone.1)
  %reduce.7.clone.1 = f32[] reduce(f32[8192]{0} %bitcast.131.clone.1, f32[] %constant_170), dimensions={0}, to_apply=%primitive_computation_add__2.3557, metadata={op_type="reduce_sum" op_name="pmap(eval_step)/reduce_sum[ axes=(0, 1) ]" source_file="roberta.py" source_line=190}
  %bitcast.129.clone.1 = f32[8192]{0} bitcast(f32[64,128]{1,0} %select.30)
  %reduce.3.clone.1 = f32[] reduce(f32[8192]{0} %bitcast.129.clone.1, f32[] %constant_170), dimensions={0}, to_apply=%primitive_computation_add__2.3564, metadata={op_type="reduce_sum" op_name="pmap(eval_step)/reduce_sum[ axes=(0, 1) ]" source_file="roberta.py" source_line=190}
  ROOT %tuple.30 = (f32[], f32[], f32[]) tuple(f32[] %reduce.4, f32[] %reduce.7.clone.1, f32[] %reduce.3.clone.1)
}

%primitive_computation_add__2.3515 (parameter.3516: f32[], parameter.3517: f32[]) -> f32[] {
  %parameter.3516 = f32[] parameter(0), metadata={op_type="add" op_name="add"}
  %parameter.3517 = f32[] parameter(1), metadata={op_type="add" op_name="add"}
  ROOT %add.3518 = f32[] add(f32[] %parameter.3516, f32[] %parameter.3517), metadata={op_type="add" op_name="add"}
}

%fused_computation.2 (param_0.459: f32[64,128], param_1.493: s32[64,128], param_2.774: f32[64,128], param_3.730: f32[50265], param_4.633: f32[8192,50265]) -> f32[64,128] {
  %param_1.493 = s32[64,128]{1,0} parameter(1)
  %broadcast.598 = s32[64,128,50265]{2,1,0} broadcast(s32[64,128]{1,0} %param_1.493), dimensions={0,1}, metadata={op_type="eq" op_name="pmap(eval_step)/eq" source_file="/usr/local/lib/python3.8/dist-packages/flax/training/common_utils.py" source_line=38}
  %iota.3 = s32[64,128,50265]{2,1,0} iota(), iota_dimension=2, metadata={op_type="eq" op_name="pmap(eval_step)/eq" source_file="/usr/local/lib/python3.8/dist-packages/flax/training/common_utils.py" source_line=38}
  %compare.14 = pred[64,128,50265]{2,1,0} compare(s32[64,128,50265]{2,1,0} %broadcast.598, s32[64,128,50265]{2,1,0} %iota.3), direction=EQ, metadata={op_type="eq" op_name="pmap(eval_step)/eq" source_file="/usr/local/lib/python3.8/dist-packages/flax/training/common_utils.py" source_line=38}
  %constant_171 = f32[] constant(1), metadata={op_type="add" op_name="pmap(eval_step)/add" source_file="/usr/local/lib/python3.8/dist-packages/transformers/models/roberta/modeling_flax_roberta.py" source_line=313}
  %broadcast.597 = f32[64,128,50265]{2,1,0} broadcast(f32[] %constant_171), dimensions={}, metadata={op_type="broadcast_in_dim" op_name="pmap(eval_step)/broadcast_in_dim[ broadcast_dimensions=(  )\n                                  shape=(64, 128, 50265) ]" source_file="/usr/local/lib/python3.8/dist-packages/flax/training/common_utils.py" source_line=39}
  %constant_172 = f32[] constant(0), metadata={op_type="reduce_sum" op_name="pmap(eval_step)/reduce_sum[ axes=(2,) ]" source_file="/usr/local/lib/python3.8/dist-packages/flax/linen/normalization.py" source_line=185}
  %broadcast.595 = f32[64,128,50265]{2,1,0} broadcast(f32[] %constant_172), dimensions={}, metadata={op_type="broadcast_in_dim" op_name="pmap(eval_step)/broadcast_in_dim[ broadcast_dimensions=(  )\n                                  shape=(64, 128, 50265) ]" source_file="/usr/local/lib/python3.8/dist-packages/flax/training/common_utils.py" source_line=39}
  %select.19 = f32[64,128,50265]{2,1,0} select(pred[64,128,50265]{2,1,0} %compare.14, f32[64,128,50265]{2,1,0} %broadcast.597, f32[64,128,50265]{2,1,0} %broadcast.595), metadata={op_type="select" op_name="pmap(eval_step)/select" source_file="/usr/local/lib/python3.8/dist-packages/flax/training/common_utils.py" source_line=39}
  %param_4.633 = f32[8192,50265]{1,0} parameter(4)
  %bitcast.391 = f32[64,128,50265]{2,1,0} bitcast(f32[8192,50265]{1,0} %param_4.633), metadata={op_type="dot_general" op_name="pmap(eval_step)/dot_general[ dimension_numbers=(((2,), (0,)), ((), ()))\n                             precision=None\n                             preferred_element_type=None ]" source_file="/usr/local/lib/python3.8/dist-packages/flax/linen/linear.py" source_line=175}
  %param_3.730 = f32[50265]{0} parameter(3)
  %broadcast.1815 = f32[64,128,50265]{2,1,0} broadcast(f32[50265]{0} %param_3.730), dimensions={2}, metadata={op_type="add" op_name="pmap(eval_step)/add" source_file="/usr/local/lib/python3.8/dist-packages/transformers/models/roberta/modeling_flax_roberta.py" source_line=487}
  %add.916 = f32[64,128,50265]{2,1,0} add(f32[64,128,50265]{2,1,0} %bitcast.391, f32[64,128,50265]{2,1,0} %broadcast.1815), metadata={op_type="add" op_name="pmap(eval_step)/add" source_file="/usr/local/lib/python3.8/dist-packages/transformers/models/roberta/modeling_flax_roberta.py" source_line=487}
  %param_2.774 = f32[64,128]{1,0} parameter(2)
  %broadcast.909 = f32[64,128,50265]{2,1,0} broadcast(f32[64,128]{1,0} %param_2.774), dimensions={0,1}, metadata={op_type="eq" op_name="eq" source_file="roberta.py" source_line=233}
  %subtract.92 = f32[64,128,50265]{2,1,0} subtract(f32[64,128,50265]{2,1,0} %add.916, f32[64,128,50265]{2,1,0} %broadcast.909), metadata={op_type="sub" op_name="pmap(eval_step)/sub" source_file="/usr/local/lib/python3.8/dist-packages/optax/_src/loss.py" source_line=164}
  %param_0.459 = f32[64,128]{1,0} parameter(0)
  %broadcast.594 = f32[64,128,50265]{2,1,0} broadcast(f32[64,128]{1,0} %param_0.459), dimensions={0,1}, metadata={op_type="sub" op_name="pmap(eval_step)/sub" source_file="/usr/local/lib/python3.8/dist-packages/optax/_src/loss.py" source_line=164}
  %subtract.27 = f32[64,128,50265]{2,1,0} subtract(f32[64,128,50265]{2,1,0} %subtract.92, f32[64,128,50265]{2,1,0} %broadcast.594), metadata={op_type="sub" op_name="pmap(eval_step)/sub" source_file="/usr/local/lib/python3.8/dist-packages/optax/_src/loss.py" source_line=164}
  %multiply.169 = f32[64,128,50265]{2,1,0} multiply(f32[64,128,50265]{2,1,0} %select.19, f32[64,128,50265]{2,1,0} %subtract.27), metadata={op_type="mul" op_name="pmap(eval_step)/mul" source_file="/usr/local/lib/python3.8/dist-packages/optax/_src/loss.py" source_line=164}
  ROOT %reduce.5 = f32[64,128]{1,0} reduce(f32[64,128,50265]{2,1,0} %multiply.169, f32[] %constant_172), dimensions={2}, to_apply=%primitive_computation_add__2.3515, metadata={op_type="reduce_sum" op_name="pmap(eval_step)/reduce_sum[ axes=(2,) ]" source_file="/usr/local/lib/python3.8/dist-packages/optax/_src/loss.py" source_line=164}
}

%primitive_computation_add__2.3503 (parameter.3504: f32[], parameter.3505: f32[]) -> f32[] {
  %parameter.3504 = f32[] parameter(0), metadata={op_type="add" op_name="add"}
  %parameter.3505 = f32[] parameter(1), metadata={op_type="add" op_name="add"}
  ROOT %add.3506 = f32[] add(f32[] %parameter.3504, f32[] %parameter.3505), metadata={op_type="add" op_name="add"}
}

%fused_computation.3 (param_0.762: f32[64,128], param_1.884: f32[50265], param_2.770: f32[8192,50265]) -> f32[64,128] {
  %param_2.770 = f32[8192,50265]{1,0} parameter(2)
  %bitcast.387 = f32[64,128,50265]{2,1,0} bitcast(f32[8192,50265]{1,0} %param_2.770), metadata={op_type="dot_general" op_name="pmap(eval_step)/dot_general[ dimension_numbers=(((2,), (0,)), ((), ()))\n                             precision=None\n                             preferred_element_type=None ]" source_file="/usr/local/lib/python3.8/dist-packages/flax/linen/linear.py" source_line=175}
  %param_1.884 = f32[50265]{0} parameter(1)
  %broadcast.1810 = f32[64,128,50265]{2,1,0} broadcast(f32[50265]{0} %param_1.884), dimensions={2}, metadata={op_type="add" op_name="pmap(eval_step)/add" source_file="/usr/local/lib/python3.8/dist-packages/transformers/models/roberta/modeling_flax_roberta.py" source_line=487}
  %add.911 = f32[64,128,50265]{2,1,0} add(f32[64,128,50265]{2,1,0} %bitcast.387, f32[64,128,50265]{2,1,0} %broadcast.1810), metadata={op_type="add" op_name="pmap(eval_step)/add" source_file="/usr/local/lib/python3.8/dist-packages/transformers/models/roberta/modeling_flax_roberta.py" source_line=487}
  %param_0.762 = f32[64,128]{1,0} parameter(0)
  %broadcast.910 = f32[64,128,50265]{2,1,0} broadcast(f32[64,128]{1,0} %param_0.762), dimensions={0,1}, metadata={op_type="eq" op_name="eq" source_file="roberta.py" source_line=233}
  %subtract.93 = f32[64,128,50265]{2,1,0} subtract(f32[64,128,50265]{2,1,0} %add.911, f32[64,128,50265]{2,1,0} %broadcast.910), metadata={op_type="sub" op_name="pmap(eval_step)/sub" source_file="/usr/local/lib/python3.8/dist-packages/optax/_src/loss.py" source_line=164}
  %exponential.0 = f32[64,128,50265]{2,1,0} exponential(f32[64,128,50265]{2,1,0} %subtract.93), metadata={op_type="exp" op_name="pmap(eval_step)/exp" source_file="/usr/local/lib/python3.8/dist-packages/optax/_src/loss.py" source_line=164}
  %constant_173 = f32[] constant(0), metadata={op_type="reduce_sum" op_name="pmap(eval_step)/reduce_sum[ axes=(2,) ]" source_file="/usr/local/lib/python3.8/dist-packages/flax/linen/normalization.py" source_line=185}
  ROOT %reduce.6 = f32[64,128]{1,0} reduce(f32[64,128,50265]{2,1,0} %exponential.0, f32[] %constant_173), dimensions={2}, to_apply=%primitive_computation_add__2.3503, metadata={op_type="reduce_sum" op_name="pmap(eval_step)/reduce_sum[ axes=(2,) ]" source_file="/usr/local/lib/python3.8/dist-packages/optax/_src/loss.py" source_line=164}
}

%primitive_computation_min.3541 (parameter.3542: s32[], parameter.3543: s32[]) -> s32[] {
  %parameter.3542 = s32[] parameter(0), metadata={op_type="min" op_name="min"}
  %parameter.3543 = s32[] parameter(1), metadata={op_type="min" op_name="min"}
  ROOT %minimum.3544 = s32[] minimum(s32[] %parameter.3542, s32[] %parameter.3543), metadata={op_type="min" op_name="min"}
}

%fused_computation.6 (param_0.760: f32[64,128], param_1.881: f32[50265], param_2.767: f32[8192,50265]) -> s32[64,128] {
  %param_2.767 = f32[8192,50265]{1,0} parameter(2)
  %bitcast.385 = f32[64,128,50265]{2,1,0} bitcast(f32[8192,50265]{1,0} %param_2.767), metadata={op_type="dot_general" op_name="pmap(eval_step)/dot_general[ dimension_numbers=(((2,), (0,)), ((), ()))\n                             precision=None\n                             preferred_element_type=None ]" source_file="/usr/local/lib/python3.8/dist-packages/flax/linen/linear.py" source_line=175}
  %param_1.881 = f32[50265]{0} parameter(1)
  %broadcast.1807 = f32[64,128,50265]{2,1,0} broadcast(f32[50265]{0} %param_1.881), dimensions={2}, metadata={op_type="add" op_name="pmap(eval_step)/add" source_file="/usr/local/lib/python3.8/dist-packages/transformers/models/roberta/modeling_flax_roberta.py" source_line=487}
  %add.909 = f32[64,128,50265]{2,1,0} add(f32[64,128,50265]{2,1,0} %bitcast.385, f32[64,128,50265]{2,1,0} %broadcast.1807), metadata={op_type="add" op_name="pmap(eval_step)/add" source_file="/usr/local/lib/python3.8/dist-packages/transformers/models/roberta/modeling_flax_roberta.py" source_line=487}
  %param_0.760 = f32[64,128]{1,0} parameter(0)
  %broadcast.914 = f32[64,128,50265]{2,1,0} broadcast(f32[64,128]{1,0} %param_0.760), dimensions={0,1}, metadata={op_type="eq" op_name="eq" source_file="roberta.py" source_line=233}
  %compare.18 = pred[64,128,50265]{2,1,0} compare(f32[64,128,50265]{2,1,0} %add.909, f32[64,128,50265]{2,1,0} %broadcast.914), direction=EQ, metadata={op_type="eq" op_name="eq" source_file="roberta.py" source_line=233}
  %compare.17 = pred[64,128,50265]{2,1,0} compare(f32[64,128,50265]{2,1,0} %add.909, f32[64,128,50265]{2,1,0} %add.909), direction=NE, metadata={op_type="ne" op_name="ne" source_file="roberta.py" source_line=233}
  %or.0 = pred[64,128,50265]{2,1,0} or(pred[64,128,50265]{2,1,0} %compare.18, pred[64,128,50265]{2,1,0} %compare.17), metadata={op_type="or" op_name="or" source_file="roberta.py" source_line=233}
  %iota.4 = s32[64,128,50265]{2,1,0} iota(), iota_dimension=2, metadata={op_type="iota" op_name="iota[ dimension=2\n      dtype=int32\n      shape=(64, 128, 50265) ]" source_file="roberta.py" source_line=233}
  %constant_164 = s32[] constant(2147483647), metadata={op_type="broadcast_in_dim" op_name="broadcast_in_dim[ broadcast_dimensions=(  )\n                  shape=(64, 128, 50265) ]" source_file="roberta.py" source_line=233}
  %broadcast.600 = s32[64,128,50265]{2,1,0} broadcast(s32[] %constant_164), dimensions={}, metadata={op_type="broadcast_in_dim" op_name="broadcast_in_dim[ broadcast_dimensions=(  )\n                  shape=(64, 128, 50265) ]" source_file="roberta.py" source_line=233}
  %select.22 = s32[64,128,50265]{2,1,0} select(pred[64,128,50265]{2,1,0} %or.0, s32[64,128,50265]{2,1,0} %iota.4, s32[64,128,50265]{2,1,0} %broadcast.600), metadata={op_type="select" op_name="select" source_file="roberta.py" source_line=233}
  ROOT %reduce.8 = s32[64,128]{1,0} reduce(s32[64,128,50265]{2,1,0} %select.22, s32[] %constant_164), dimensions={2}, to_apply=%primitive_computation_min.3541, metadata={op_type="reduce_min" op_name="reduce_min[ axes=(2,) ]" source_file="roberta.py" source_line=233}
}

%fused_computation.8 (param_0.21: f32[768], param_1.30: f32[768], param_2.319: f32[64,128], param_3.728: f32[64,128], param_4.630: f32[768], param_5.638: f32[8192,768]) -> f32[8192,768] {
  %param_5.638 = f32[8192,768]{1,0} parameter(5)
  %bitcast.383 = f32[64,128,768]{2,1,0} bitcast(f32[8192,768]{1,0} %param_5.638), metadata={op_type="dot_general" op_name="pmap(eval_step)/dot_general[ dimension_numbers=(((2,), (0,)), ((), ()))\n                             precision=None\n                             preferred_element_type=None ]" source_file="/usr/local/lib/python3.8/dist-packages/flax/linen/linear.py" source_line=175}
  %param_4.630 = f32[768]{0} parameter(4)
  %broadcast.1805 = f32[64,128,768]{2,1,0} broadcast(f32[768]{0} %param_4.630), dimensions={2}, metadata={op_type="add" op_name="pmap(eval_step)/add" source_file="/usr/local/lib/python3.8/dist-packages/flax/linen/linear.py" source_line=181}
  %add.906 = f32[64,128,768]{2,1,0} add(f32[64,128,768]{2,1,0} %bitcast.383, f32[64,128,768]{2,1,0} %broadcast.1805), metadata={op_type="add" op_name="pmap(eval_step)/add" source_file="/usr/local/lib/python3.8/dist-packages/flax/linen/linear.py" source_line=181}
  %constant_935 = f32[] constant(-4), metadata={op_type="erf" op_name="pmap(eval_step)/erf" source_file="/usr/local/lib/python3.8/dist-packages/transformers/models/roberta/modeling_flax_roberta.py" source_line=313}
  %broadcast.1803 = f32[64,128,768]{2,1,0} broadcast(f32[] %constant_935), dimensions={}, metadata={op_type="erf" op_name="pmap(eval_step)/erf" source_file="/usr/local/lib/python3.8/dist-packages/transformers/models/roberta/modeling_flax_roberta.py" source_line=479}
  %constant_933 = f32[] constant(0.707106769)
  %broadcast.1802 = f32[64,128,768]{2,1,0} broadcast(f32[] %constant_933), dimensions={}
  %multiply.669 = f32[64,128,768]{2,1,0} multiply(f32[64,128,768]{2,1,0} %add.906, f32[64,128,768]{2,1,0} %broadcast.1802), metadata={op_type="div" op_name="pmap(eval_step)/div" source_file="/usr/local/lib/python3.8/dist-packages/transformers/models/roberta/modeling_flax_roberta.py" source_line=479}
  %constant_932 = f32[] constant(4), metadata={op_type="erf" op_name="pmap(eval_step)/erf" source_file="/usr/local/lib/python3.8/dist-packages/transformers/models/roberta/modeling_flax_roberta.py" source_line=313}
  %broadcast.1801 = f32[64,128,768]{2,1,0} broadcast(f32[] %constant_932), dimensions={}, metadata={op_type="erf" op_name="pmap(eval_step)/erf" source_file="/usr/local/lib/python3.8/dist-packages/transformers/models/roberta/modeling_flax_roberta.py" source_line=479}
  %clamp.18 = f32[64,128,768]{2,1,0} clamp(f32[64,128,768]{2,1,0} %broadcast.1803, f32[64,128,768]{2,1,0} %multiply.669, f32[64,128,768]{2,1,0} %broadcast.1801), metadata={op_type="erf" op_name="pmap(eval_step)/erf" source_file="/usr/local/lib/python3.8/dist-packages/transformers/models/roberta/modeling_flax_roberta.py" source_line=479}
  %constant_931 = f32[] constant(0), metadata={op_type="reduce_sum" op_name="pmap(eval_step)/reduce_sum[ axes=(2,) ]" source_file="/usr/local/lib/python3.8/dist-packages/flax/linen/normalization.py" source_line=185}
  %broadcast.1799 = f32[64,128,768]{2,1,0} broadcast(f32[] %constant_931), dimensions={}, metadata={op_type="erf" op_name="pmap(eval_step)/erf" source_file="/usr/local/lib/python3.8/dist-packages/transformers/models/roberta/modeling_flax_roberta.py" source_line=479}
  %multiply.668 = f32[64,128,768]{2,1,0} multiply(f32[64,128,768]{2,1,0} %clamp.18, f32[64,128,768]{2,1,0} %clamp.18), metadata={op_type="erf" op_name="pmap(eval_step)/erf" source_file="/usr/local/lib/python3.8/dist-packages/transformers/models/roberta/modeling_flax_roberta.py" source_line=479}
  %multiply.667 = f32[64,128,768]{2,1,0} multiply(f32[64,128,768]{2,1,0} %broadcast.1799, f32[64,128,768]{2,1,0} %multiply.668), metadata={op_type="erf" op_name="pmap(eval_step)/erf" source_file="/usr/local/lib/python3.8/dist-packages/transformers/models/roberta/modeling_flax_roberta.py" source_line=479}
  %constant_930 = f32[] constant(-2.72614237e-10), metadata={op_type="erf" op_name="pmap(eval_step)/erf" source_file="/usr/local/lib/python3.8/dist-packages/transformers/models/roberta/modeling_flax_roberta.py" source_line=313}
  %broadcast.1798 = f32[64,128,768]{2,1,0} broadcast(f32[] %constant_930), dimensions={}, metadata={op_type="erf" op_name="pmap(eval_step)/erf" source_file="/usr/local/lib/python3.8/dist-packages/transformers/models/roberta/modeling_flax_roberta.py" source_line=479}
  %add.905 = f32[64,128,768]{2,1,0} add(f32[64,128,768]{2,1,0} %multiply.667, f32[64,128,768]{2,1,0} %broadcast.1798), metadata={op_type="erf" op_name="pmap(eval_step)/erf" source_file="/usr/local/lib/python3.8/dist-packages/transformers/models/roberta/modeling_flax_roberta.py" source_line=479}
  %multiply.666 = f32[64,128,768]{2,1,0} multiply(f32[64,128,768]{2,1,0} %add.905, f32[64,128,768]{2,1,0} %multiply.668), metadata={op_type="erf" op_name="pmap(eval_step)/erf" source_file="/usr/local/lib/python3.8/dist-packages/transformers/models/roberta/modeling_flax_roberta.py" source_line=479}
  %constant_929 = f32[] constant(2.77068146e-08), metadata={op_type="erf" op_name="pmap(eval_step)/erf" source_file="/usr/local/lib/python3.8/dist-packages/transformers/models/roberta/modeling_flax_roberta.py" source_line=313}
  %broadcast.1797 = f32[64,128,768]{2,1,0} broadcast(f32[] %constant_929), dimensions={}, metadata={op_type="erf" op_name="pmap(eval_step)/erf" source_file="/usr/local/lib/python3.8/dist-packages/transformers/models/roberta/modeling_flax_roberta.py" source_line=479}
  %add.904 = f32[64,128,768]{2,1,0} add(f32[64,128,768]{2,1,0} %multiply.666, f32[64,128,768]{2,1,0} %broadcast.1797), metadata={op_type="erf" op_name="pmap(eval_step)/erf" source_file="/usr/local/lib/python3.8/dist-packages/transformers/models/roberta/modeling_flax_roberta.py" source_line=479}
  %multiply.665 = f32[64,128,768]{2,1,0} multiply(f32[64,128,768]{2,1,0} %add.904, f32[64,128,768]{2,1,0} %multiply.668), metadata={op_type="erf" op_name="pmap(eval_step)/erf" source_file="/usr/local/lib/python3.8/dist-packages/transformers/models/roberta/modeling_flax_roberta.py" source_line=479}
  %constant_928 = f32[] constant(-2.10102394e-06), metadata={op_type="erf" op_name="pmap(eval_step)/erf" source_file="/usr/local/lib/python3.8/dist-packages/transformers/models/roberta/modeling_flax_roberta.py" source_line=313}
  %broadcast.1795 = f32[64,128,768]{2,1,0} broadcast(f32[] %constant_928), dimensions={}, metadata={op_type="erf" op_name="pmap(eval_step)/erf" source_file="/usr/local/lib/python3.8/dist-packages/transformers/models/roberta/modeling_flax_roberta.py" source_line=479}
  %add.903 = f32[64,128,768]{2,1,0} add(f32[64,128,768]{2,1,0} %multiply.665, f32[64,128,768]{2,1,0} %broadcast.1795), metadata={op_type="erf" op_name="pmap(eval_step)/erf" source_file="/usr/local/lib/python3.8/dist-packages/transformers/models/roberta/modeling_flax_roberta.py" source_line=479}
  %multiply.664 = f32[64,128,768]{2,1,0} multiply(f32[64,128,768]{2,1,0} %add.903, f32[64,128,768]{2,1,0} %multiply.668), metadata={op_type="erf" op_name="pmap(eval_step)/erf" source_file="/usr/local/lib/python3.8/dist-packages/transformers/models/roberta/modeling_flax_roberta.py" source_line=479}
  %constant_926 = f32[] constant(-5.69250624e-05), metadata={op_type="erf" op_name="pmap(eval_step)/erf" source_file="/usr/local/lib/python3.8/dist-packages/transformers/models/roberta/modeling_flax_roberta.py" source_line=313}
  %broadcast.1794 = f32[64,128,768]{2,1,0} broadcast(f32[] %constant_926), dimensions={}, metadata={op_type="erf" op_name="pmap(eval_step)/erf" source_file="/usr/local/lib/python3.8/dist-packages/transformers/models/roberta/modeling_flax_roberta.py" source_line=479}
  %add.901 = f32[64,128,768]{2,1,0} add(f32[64,128,768]{2,1,0} %multiply.664, f32[64,128,768]{2,1,0} %broadcast.1794), metadata={op_type="erf" op_name="pmap(eval_step)/erf" source_file="/usr/local/lib/python3.8/dist-packages/transformers/models/roberta/modeling_flax_roberta.py" source_line=479}
  %multiply.663 = f32[64,128,768]{2,1,0} multiply(f32[64,128,768]{2,1,0} %add.901, f32[64,128,768]{2,1,0} %multiply.668), metadata={op_type="erf" op_name="pmap(eval_step)/erf" source_file="/usr/local/lib/python3.8/dist-packages/transformers/models/roberta/modeling_flax_roberta.py" source_line=479}
  %constant_925 = f32[] constant(-0.000734990637), metadata={op_type="erf" op_name="pmap(eval_step)/erf" source_file="/usr/local/lib/python3.8/dist-packages/transformers/models/roberta/modeling_flax_roberta.py" source_line=313}
  %broadcast.1793 = f32[64,128,768]{2,1,0} broadcast(f32[] %constant_925), dimensions={}, metadata={op_type="erf" op_name="pmap(eval_step)/erf" source_file="/usr/local/lib/python3.8/dist-packages/transformers/models/roberta/modeling_flax_roberta.py" source_line=479}
  %add.900 = f32[64,128,768]{2,1,0} add(f32[64,128,768]{2,1,0} %multiply.663, f32[64,128,768]{2,1,0} %broadcast.1793), metadata={op_type="erf" op_name="pmap(eval_step)/erf" source_file="/usr/local/lib/python3.8/dist-packages/transformers/models/roberta/modeling_flax_roberta.py" source_line=479}
  %multiply.662 = f32[64,128,768]{2,1,0} multiply(f32[64,128,768]{2,1,0} %add.900, f32[64,128,768]{2,1,0} %multiply.668), metadata={op_type="erf" op_name="pmap(eval_step)/erf" source_file="/usr/local/lib/python3.8/dist-packages/transformers/models/roberta/modeling_flax_roberta.py" source_line=479}
  %constant_924 = f32[] constant(-0.0029546), metadata={op_type="erf" op_name="pmap(eval_step)/erf" source_file="/usr/local/lib/python3.8/dist-packages/transformers/models/roberta/modeling_flax_roberta.py" source_line=313}
  %broadcast.1791 = f32[64,128,768]{2,1,0} broadcast(f32[] %constant_924), dimensions={}, metadata={op_type="erf" op_name="pmap(eval_step)/erf" source_file="/usr/local/lib/python3.8/dist-packages/transformers/models/roberta/modeling_flax_roberta.py" source_line=479}
  %add.899 = f32[64,128,768]{2,1,0} add(f32[64,128,768]{2,1,0} %multiply.662, f32[64,128,768]{2,1,0} %broadcast.1791), metadata={op_type="erf" op_name="pmap(eval_step)/erf" source_file="/usr/local/lib/python3.8/dist-packages/transformers/models/roberta/modeling_flax_roberta.py" source_line=479}
  %multiply.661 = f32[64,128,768]{2,1,0} multiply(f32[64,128,768]{2,1,0} %add.899, f32[64,128,768]{2,1,0} %multiply.668), metadata={op_type="erf" op_name="pmap(eval_step)/erf" source_file="/usr/local/lib/python3.8/dist-packages/transformers/models/roberta/modeling_flax_roberta.py" source_line=479}
  %constant_922 = f32[] constant(-0.0160960332), metadata={op_type="erf" op_name="pmap(eval_step)/erf" source_file="/usr/local/lib/python3.8/dist-packages/transformers/models/roberta/modeling_flax_roberta.py" source_line=313}
  %broadcast.1789 = f32[64,128,768]{2,1,0} broadcast(f32[] %constant_922), dimensions={}, metadata={op_type="erf" op_name="pmap(eval_step)/erf" source_file="/usr/local/lib/python3.8/dist-packages/transformers/models/roberta/modeling_flax_roberta.py" source_line=479}
  %add.898 = f32[64,128,768]{2,1,0} add(f32[64,128,768]{2,1,0} %multiply.661, f32[64,128,768]{2,1,0} %broadcast.1789), metadata={op_type="erf" op_name="pmap(eval_step)/erf" source_file="/usr/local/lib/python3.8/dist-packages/transformers/models/roberta/modeling_flax_roberta.py" source_line=479}
  %multiply.660 = f32[64,128,768]{2,1,0} multiply(f32[64,128,768]{2,1,0} %clamp.18, f32[64,128,768]{2,1,0} %add.898), metadata={op_type="erf" op_name="pmap(eval_step)/erf" source_file="/usr/local/lib/python3.8/dist-packages/transformers/models/roberta/modeling_flax_roberta.py" source_line=479}
  %constant_921 = f32[] constant(-1.45660715e-05), metadata={op_type="erf" op_name="pmap(eval_step)/erf" source_file="/usr/local/lib/python3.8/dist-packages/transformers/models/roberta/modeling_flax_roberta.py" source_line=313}
  %broadcast.1788 = f32[64,128,768]{2,1,0} broadcast(f32[] %constant_921), dimensions={}, metadata={op_type="erf" op_name="pmap(eval_step)/erf" source_file="/usr/local/lib/python3.8/dist-packages/transformers/models/roberta/modeling_flax_roberta.py" source_line=479}
  %add.896 = f32[64,128,768]{2,1,0} add(f32[64,128,768]{2,1,0} %multiply.667, f32[64,128,768]{2,1,0} %broadcast.1788), metadata={op_type="erf" op_name="pmap(eval_step)/erf" source_file="/usr/local/lib/python3.8/dist-packages/transformers/models/roberta/modeling_flax_roberta.py" source_line=479}
  %multiply.659 = f32[64,128,768]{2,1,0} multiply(f32[64,128,768]{2,1,0} %add.896, f32[64,128,768]{2,1,0} %multiply.668), metadata={op_type="erf" op_name="pmap(eval_step)/erf" source_file="/usr/local/lib/python3.8/dist-packages/transformers/models/roberta/modeling_flax_roberta.py" source_line=479}
  %constant_919 = f32[] constant(-0.000213374049), metadata={op_type="erf" op_name="pmap(eval_step)/erf" source_file="/usr/local/lib/python3.8/dist-packages/transformers/models/roberta/modeling_flax_roberta.py" source_line=313}
  %broadcast.1787 = f32[64,128,768]{2,1,0} broadcast(f32[] %constant_919), dimensions={}, metadata={op_type="erf" op_name="pmap(eval_step)/erf" source_file="/usr/local/lib/python3.8/dist-packages/transformers/models/roberta/modeling_flax_roberta.py" source_line=479}
  %add.895 = f32[64,128,768]{2,1,0} add(f32[64,128,768]{2,1,0} %multiply.659, f32[64,128,768]{2,1,0} %broadcast.1787), metadata={op_type="erf" op_name="pmap(eval_step)/erf" source_file="/usr/local/lib/python3.8/dist-packages/transformers/models/roberta/modeling_flax_roberta.py" source_line=479}
  %multiply.658 = f32[64,128,768]{2,1,0} multiply(f32[64,128,768]{2,1,0} %add.895, f32[64,128,768]{2,1,0} %multiply.668), metadata={op_type="erf" op_name="pmap(eval_step)/erf" source_file="/usr/local/lib/python3.8/dist-packages/transformers/models/roberta/modeling_flax_roberta.py" source_line=479}
  %constant_918 = f32[] constant(-0.00168282702), metadata={op_type="erf" op_name="pmap(eval_step)/erf" source_file="/usr/local/lib/python3.8/dist-packages/transformers/models/roberta/modeling_flax_roberta.py" source_line=313}
  %broadcast.1785 = f32[64,128,768]{2,1,0} broadcast(f32[] %constant_918), dimensions={}, metadata={op_type="erf" op_name="pmap(eval_step)/erf" source_file="/usr/local/lib/python3.8/dist-packages/transformers/models/roberta/modeling_flax_roberta.py" source_line=479}
  %add.894 = f32[64,128,768]{2,1,0} add(f32[64,128,768]{2,1,0} %multiply.658, f32[64,128,768]{2,1,0} %broadcast.1785), metadata={op_type="erf" op_name="pmap(eval_step)/erf" source_file="/usr/local/lib/python3.8/dist-packages/transformers/models/roberta/modeling_flax_roberta.py" source_line=479}
  %multiply.657 = f32[64,128,768]{2,1,0} multiply(f32[64,128,768]{2,1,0} %add.894, f32[64,128,768]{2,1,0} %multiply.668), metadata={op_type="erf" op_name="pmap(eval_step)/erf" source_file="/usr/local/lib/python3.8/dist-packages/transformers/models/roberta/modeling_flax_roberta.py" source_line=479}
  %constant_916 = f32[] constant(-0.00737332925), metadata={op_type="erf" op_name="pmap(eval_step)/erf" source_file="/usr/local/lib/python3.8/dist-packages/transformers/models/roberta/modeling_flax_roberta.py" source_line=313}
  %broadcast.1784 = f32[64,128,768]{2,1,0} broadcast(f32[] %constant_916), dimensions={}, metadata={op_type="erf" op_name="pmap(eval_step)/erf" source_file="/usr/local/lib/python3.8/dist-packages/transformers/models/roberta/modeling_flax_roberta.py" source_line=479}
  %add.893 = f32[64,128,768]{2,1,0} add(f32[64,128,768]{2,1,0} %multiply.657, f32[64,128,768]{2,1,0} %broadcast.1784), metadata={op_type="erf" op_name="pmap(eval_step)/erf" source_file="/usr/local/lib/python3.8/dist-packages/transformers/models/roberta/modeling_flax_roberta.py" source_line=479}
  %multiply.656 = f32[64,128,768]{2,1,0} multiply(f32[64,128,768]{2,1,0} %add.893, f32[64,128,768]{2,1,0} %multiply.668), metadata={op_type="erf" op_name="pmap(eval_step)/erf" source_file="/usr/local/lib/python3.8/dist-packages/transformers/models/roberta/modeling_flax_roberta.py" source_line=479}
  %constant_915 = f32[] constant(-0.0142647391), metadata={op_type="erf" op_name="pmap(eval_step)/erf" source_file="/usr/local/lib/python3.8/dist-packages/transformers/models/roberta/modeling_flax_roberta.py" source_line=313}
  %broadcast.1783 = f32[64,128,768]{2,1,0} broadcast(f32[] %constant_915), dimensions={}, metadata={op_type="erf" op_name="pmap(eval_step)/erf" source_file="/usr/local/lib/python3.8/dist-packages/transformers/models/roberta/modeling_flax_roberta.py" source_line=479}
  %add.892 = f32[64,128,768]{2,1,0} add(f32[64,128,768]{2,1,0} %multiply.656, f32[64,128,768]{2,1,0} %broadcast.1783), metadata={op_type="erf" op_name="pmap(eval_step)/erf" source_file="/usr/local/lib/python3.8/dist-packages/transformers/models/roberta/modeling_flax_roberta.py" source_line=479}
  %divide.42 = f32[64,128,768]{2,1,0} divide(f32[64,128,768]{2,1,0} %multiply.660, f32[64,128,768]{2,1,0} %add.892), metadata={op_type="erf" op_name="pmap(eval_step)/erf" source_file="/usr/local/lib/python3.8/dist-packages/transformers/models/roberta/modeling_flax_roberta.py" source_line=479}
  %constant_914 = f32[] constant(1), metadata={op_type="add" op_name="pmap(eval_step)/add" source_file="/usr/local/lib/python3.8/dist-packages/transformers/models/roberta/modeling_flax_roberta.py" source_line=313}
  %broadcast.1781 = f32[64,128,768]{2,1,0} broadcast(f32[] %constant_914), dimensions={}, metadata={op_type="add" op_name="pmap(eval_step)/add" source_file="/usr/local/lib/python3.8/dist-packages/transformers/models/roberta/modeling_flax_roberta.py" source_line=479}
  %add.891 = f32[64,128,768]{2,1,0} add(f32[64,128,768]{2,1,0} %divide.42, f32[64,128,768]{2,1,0} %broadcast.1781), metadata={op_type="add" op_name="pmap(eval_step)/add" source_file="/usr/local/lib/python3.8/dist-packages/transformers/models/roberta/modeling_flax_roberta.py" source_line=479}
  %multiply.655 = f32[64,128,768]{2,1,0} multiply(f32[64,128,768]{2,1,0} %add.906, f32[64,128,768]{2,1,0} %add.891), metadata={op_type="mul" op_name="pmap(eval_step)/mul" source_file="/usr/local/lib/python3.8/dist-packages/transformers/models/roberta/modeling_flax_roberta.py" source_line=479}
  %constant_913 = f32[] constant(0.5)
  %broadcast.1780 = f32[64,128,768]{2,1,0} broadcast(f32[] %constant_913), dimensions={}
  %multiply.654 = f32[64,128,768]{2,1,0} multiply(f32[64,128,768]{2,1,0} %multiply.655, f32[64,128,768]{2,1,0} %broadcast.1780), metadata={op_type="div" op_name="pmap(eval_step)/div" source_file="/usr/local/lib/python3.8/dist-packages/transformers/models/roberta/modeling_flax_roberta.py" source_line=479}
  %param_3.728 = f32[64,128]{1,0} parameter(3)
  %constant_175 = f32[] constant(0.00130208337)
  %broadcast.915 = f32[64,128]{1,0} broadcast(f32[] %constant_175), dimensions={}
  %multiply.174 = f32[64,128]{1,0} multiply(f32[64,128]{1,0} %param_3.728, f32[64,128]{1,0} %broadcast.915), metadata={op_type="div" op_name="pmap(eval_step)/div" source_file="/usr/local/lib/python3.8/dist-packages/flax/linen/normalization.py" source_line=185}
  %broadcast.607 = f32[64,128,768]{2,1,0} broadcast(f32[64,128]{1,0} %multiply.174), dimensions={0,1}, metadata={op_type="sub" op_name="pmap(eval_step)/sub" source_file="/usr/local/lib/python3.8/dist-packages/flax/linen/normalization.py" source_line=193}
  %subtract.29 = f32[64,128,768]{2,1,0} subtract(f32[64,128,768]{2,1,0} %multiply.654, f32[64,128,768]{2,1,0} %broadcast.607), metadata={op_type="sub" op_name="pmap(eval_step)/sub" source_file="/usr/local/lib/python3.8/dist-packages/flax/linen/normalization.py" source_line=193}
  %param_2.319 = f32[64,128]{1,0} parameter(2)
  %multiply.173 = f32[64,128]{1,0} multiply(f32[64,128]{1,0} %param_2.319, f32[64,128]{1,0} %broadcast.915), metadata={op_type="div" op_name="pmap(eval_step)/div" source_file="/usr/local/lib/python3.8/dist-packages/flax/linen/normalization.py" source_line=186}
  %multiply.172 = f32[64,128]{1,0} multiply(f32[64,128]{1,0} %multiply.174, f32[64,128]{1,0} %multiply.174), metadata={op_type="integer_pow" op_name="pmap(eval_step)/integer_pow[ y=2 ]" source_file="/usr/local/lib/python3.8/dist-packages/flax/linen/normalization.py" source_line=187}
  %subtract.28 = f32[64,128]{1,0} subtract(f32[64,128]{1,0} %multiply.173, f32[64,128]{1,0} %multiply.172), metadata={op_type="sub" op_name="pmap(eval_step)/sub" source_file="/usr/local/lib/python3.8/dist-packages/flax/linen/normalization.py" source_line=187}
  %constant_176 = f32[] constant(1e-05), metadata={op_type="add" op_name="pmap(eval_step)/add" source_file="/usr/local/lib/python3.8/dist-packages/flax/linen/normalization.py" source_line=188}
  %broadcast.917 = f32[64,128]{1,0} broadcast(f32[] %constant_176), dimensions={}, metadata={op_type="add" op_name="pmap(eval_step)/add" source_file="/usr/local/lib/python3.8/dist-packages/flax/linen/normalization.py" source_line=188}
  %add.51 = f32[64,128]{1,0} add(f32[64,128]{1,0} %subtract.28, f32[64,128]{1,0} %broadcast.917), metadata={op_type="add" op_name="pmap(eval_step)/add" source_file="/usr/local/lib/python3.8/dist-packages/flax/linen/normalization.py" source_line=188}
  %rsqrt.26 = f32[64,128]{1,0} rsqrt(f32[64,128]{1,0} %add.51), metadata={op_type="rsqrt" op_name="pmap(eval_step)/rsqrt" source_file="/usr/local/lib/python3.8/dist-packages/flax/linen/normalization.py" source_line=188}
  %broadcast.606 = f32[64,128,768]{2,1,0} broadcast(f32[64,128]{1,0} %rsqrt.26), dimensions={0,1}, metadata={op_type="mul" op_name="pmap(eval_step)/mul" source_file="/usr/local/lib/python3.8/dist-packages/flax/linen/normalization.py" source_line=190}
  %param_1.30 = f32[768]{0} parameter(1)
  %broadcast.604 = f32[64,128,768]{2,1,0} broadcast(f32[768]{0} %param_1.30), dimensions={2}, metadata={op_type="mul" op_name="pmap(eval_step)/mul" source_file="/usr/local/lib/python3.8/dist-packages/flax/linen/normalization.py" source_line=190}
  %multiply.171 = f32[64,128,768]{2,1,0} multiply(f32[64,128,768]{2,1,0} %broadcast.606, f32[64,128,768]{2,1,0} %broadcast.604), metadata={op_type="mul" op_name="pmap(eval_step)/mul" source_file="/usr/local/lib/python3.8/dist-packages/flax/linen/normalization.py" source_line=190}
  %multiply.170 = f32[64,128,768]{2,1,0} multiply(f32[64,128,768]{2,1,0} %subtract.29, f32[64,128,768]{2,1,0} %multiply.171), metadata={op_type="mul" op_name="pmap(eval_step)/mul" source_file="/usr/local/lib/python3.8/dist-packages/flax/linen/normalization.py" source_line=193}
  %param_0.21 = f32[768]{0} parameter(0)
  %broadcast.603 = f32[64,128,768]{2,1,0} broadcast(f32[768]{0} %param_0.21), dimensions={2}, metadata={op_type="add" op_name="pmap(eval_step)/add" source_file="/usr/local/lib/python3.8/dist-packages/flax/linen/normalization.py" source_line=195}
  %add.50 = f32[64,128,768]{2,1,0} add(f32[64,128,768]{2,1,0} %multiply.170, f32[64,128,768]{2,1,0} %broadcast.603), metadata={op_type="add" op_name="pmap(eval_step)/add" source_file="/usr/local/lib/python3.8/dist-packages/flax/linen/normalization.py" source_line=195}
  ROOT %bitcast.133 = f32[8192,768]{1,0} bitcast(f32[64,128,768]{2,1,0} %add.50)
}

%fused_computation.11 (param_0.28: f32[768], param_1.40: f32[768], param_2.323: f32[64,128], param_3.700: f32[64,128], param_4.589: f32[64,128,768], param_5.591: f32[768], param_6.506: f32[8192,768]) -> f32[8192,768] {
  %param_6.506 = f32[8192,768]{1,0} parameter(6)
  %bitcast.377 = f32[64,128,768]{2,1,0} bitcast(f32[8192,768]{1,0} %param_6.506), metadata={op_type="dot_general" op_name="pmap(eval_step)/dot_general[ dimension_numbers=(((2,), (0,)), ((), ()))\n                             precision=None\n                             preferred_element_type=None ]" source_file="/usr/local/lib/python3.8/dist-packages/flax/linen/linear.py" source_line=175}
  %param_5.591 = f32[768]{0} parameter(5)
  %broadcast.1655 = f32[64,128,768]{2,1,0} broadcast(f32[768]{0} %param_5.591), dimensions={2}, metadata={op_type="add" op_name="pmap(eval_step)/add" source_file="/usr/local/lib/python3.8/dist-packages/flax/linen/linear.py" source_line=181}
  %add.805 = f32[64,128,768]{2,1,0} add(f32[64,128,768]{2,1,0} %bitcast.377, f32[64,128,768]{2,1,0} %broadcast.1655), metadata={op_type="add" op_name="pmap(eval_step)/add" source_file="/usr/local/lib/python3.8/dist-packages/flax/linen/linear.py" source_line=181}
  %param_4.589 = f32[64,128,768]{2,1,0} parameter(4)
  %add.804 = f32[64,128,768]{2,1,0} add(f32[64,128,768]{2,1,0} %add.805, f32[64,128,768]{2,1,0} %param_4.589), metadata={op_type="add" op_name="pmap(eval_step)/add" source_file="/usr/local/lib/python3.8/dist-packages/transformers/models/roberta/modeling_flax_roberta.py" source_line=334}
  %param_3.700 = f32[64,128]{1,0} parameter(3)
  %constant_196 = f32[] constant(0.00130208337)
  %broadcast.919 = f32[64,128]{1,0} broadcast(f32[] %constant_196), dimensions={}
  %multiply.196 = f32[64,128]{1,0} multiply(f32[64,128]{1,0} %param_3.700, f32[64,128]{1,0} %broadcast.919), metadata={op_type="div" op_name="pmap(eval_step)/div" source_file="/usr/local/lib/python3.8/dist-packages/flax/linen/normalization.py" source_line=185}
  %broadcast.636 = f32[64,128,768]{2,1,0} broadcast(f32[64,128]{1,0} %multiply.196), dimensions={0,1}, metadata={op_type="sub" op_name="pmap(eval_step)/sub" source_file="/usr/local/lib/python3.8/dist-packages/flax/linen/normalization.py" source_line=193}
  %subtract.31 = f32[64,128,768]{2,1,0} subtract(f32[64,128,768]{2,1,0} %add.804, f32[64,128,768]{2,1,0} %broadcast.636), metadata={op_type="sub" op_name="pmap(eval_step)/sub" source_file="/usr/local/lib/python3.8/dist-packages/flax/linen/normalization.py" source_line=193}
  %param_2.323 = f32[64,128]{1,0} parameter(2)
  %multiply.195 = f32[64,128]{1,0} multiply(f32[64,128]{1,0} %param_2.323, f32[64,128]{1,0} %broadcast.919), metadata={op_type="div" op_name="pmap(eval_step)/div" source_file="/usr/local/lib/python3.8/dist-packages/flax/linen/normalization.py" source_line=186}
  %multiply.194 = f32[64,128]{1,0} multiply(f32[64,128]{1,0} %multiply.196, f32[64,128]{1,0} %multiply.196), metadata={op_type="integer_pow" op_name="pmap(eval_step)/integer_pow[ y=2 ]" source_file="/usr/local/lib/python3.8/dist-packages/flax/linen/normalization.py" source_line=187}
  %subtract.30 = f32[64,128]{1,0} subtract(f32[64,128]{1,0} %multiply.195, f32[64,128]{1,0} %multiply.194), metadata={op_type="sub" op_name="pmap(eval_step)/sub" source_file="/usr/local/lib/python3.8/dist-packages/flax/linen/normalization.py" source_line=187}
  %constant_197 = f32[] constant(1e-05), metadata={op_type="add" op_name="pmap(eval_step)/add" source_file="/usr/local/lib/python3.8/dist-packages/flax/linen/normalization.py" source_line=188}
  %broadcast.920 = f32[64,128]{1,0} broadcast(f32[] %constant_197), dimensions={}, metadata={op_type="add" op_name="pmap(eval_step)/add" source_file="/usr/local/lib/python3.8/dist-packages/flax/linen/normalization.py" source_line=188}
  %add.67 = f32[64,128]{1,0} add(f32[64,128]{1,0} %subtract.30, f32[64,128]{1,0} %broadcast.920), metadata={op_type="add" op_name="pmap(eval_step)/add" source_file="/usr/local/lib/python3.8/dist-packages/flax/linen/normalization.py" source_line=188}
  %rsqrt.27 = f32[64,128]{1,0} rsqrt(f32[64,128]{1,0} %add.67), metadata={op_type="rsqrt" op_name="pmap(eval_step)/rsqrt" source_file="/usr/local/lib/python3.8/dist-packages/flax/linen/normalization.py" source_line=188}
  %broadcast.635 = f32[64,128,768]{2,1,0} broadcast(f32[64,128]{1,0} %rsqrt.27), dimensions={0,1}, metadata={op_type="mul" op_name="pmap(eval_step)/mul" source_file="/usr/local/lib/python3.8/dist-packages/flax/linen/normalization.py" source_line=190}
  %param_1.40 = f32[768]{0} parameter(1)
  %broadcast.634 = f32[64,128,768]{2,1,0} broadcast(f32[768]{0} %param_1.40), dimensions={2}, metadata={op_type="mul" op_name="pmap(eval_step)/mul" source_file="/usr/local/lib/python3.8/dist-packages/flax/linen/normalization.py" source_line=190}
  %multiply.193 = f32[64,128,768]{2,1,0} multiply(f32[64,128,768]{2,1,0} %broadcast.635, f32[64,128,768]{2,1,0} %broadcast.634), metadata={op_type="mul" op_name="pmap(eval_step)/mul" source_file="/usr/local/lib/python3.8/dist-packages/flax/linen/normalization.py" source_line=190}
  %multiply.192 = f32[64,128,768]{2,1,0} multiply(f32[64,128,768]{2,1,0} %subtract.31, f32[64,128,768]{2,1,0} %multiply.193), metadata={op_type="mul" op_name="pmap(eval_step)/mul" source_file="/usr/local/lib/python3.8/dist-packages/flax/linen/normalization.py" source_line=193}
  %param_0.28 = f32[768]{0} parameter(0)
  %broadcast.633 = f32[64,128,768]{2,1,0} broadcast(f32[768]{0} %param_0.28), dimensions={2}, metadata={op_type="add" op_name="pmap(eval_step)/add" source_file="/usr/local/lib/python3.8/dist-packages/flax/linen/normalization.py" source_line=195}
  %add.66 = f32[64,128,768]{2,1,0} add(f32[64,128,768]{2,1,0} %multiply.192, f32[64,128,768]{2,1,0} %broadcast.633), metadata={op_type="add" op_name="pmap(eval_step)/add" source_file="/usr/local/lib/python3.8/dist-packages/flax/linen/normalization.py" source_line=195}
  ROOT %bitcast.135 = f32[8192,768]{1,0} bitcast(f32[64,128,768]{2,1,0} %add.66)
}

%fused_computation.14 (param_0.467: f32[3072], param_1.502: f32[8192,3072]) -> f32[8192,3072] {
  %param_1.502 = f32[8192,3072]{1,0} parameter(1)
  %bitcast.138 = f32[64,128,3072]{2,1,0} bitcast(f32[8192,3072]{1,0} %param_1.502), metadata={op_type="dot_general" op_name="pmap(eval_step)/dot_general[ dimension_numbers=(((2,), (0,)), ((), ()))\n                             precision=None\n                             preferred_element_type=None ]" source_file="/usr/local/lib/python3.8/dist-packages/flax/linen/linear.py" source_line=175}
  %param_0.467 = f32[3072]{0} parameter(0)
  %broadcast.639 = f32[64,128,3072]{2,1,0} broadcast(f32[3072]{0} %param_0.467), dimensions={2}, metadata={op_type="add" op_name="pmap(eval_step)/add" source_file="/usr/local/lib/python3.8/dist-packages/flax/linen/linear.py" source_line=181}
  %add.83 = f32[64,128,3072]{2,1,0} add(f32[64,128,3072]{2,1,0} %bitcast.138, f32[64,128,3072]{2,1,0} %broadcast.639), metadata={op_type="add" op_name="pmap(eval_step)/add" source_file="/usr/local/lib/python3.8/dist-packages/flax/linen/linear.py" source_line=181}
  %constant_199 = f32[] constant(-4), metadata={op_type="erf" op_name="pmap(eval_step)/erf" source_file="/usr/local/lib/python3.8/dist-packages/transformers/models/roberta/modeling_flax_roberta.py" source_line=313}
  %broadcast.925 = f32[64,128,3072]{2,1,0} broadcast(f32[] %constant_199), dimensions={}, metadata={op_type="erf" op_name="pmap(eval_step)/erf" source_file="/usr/local/lib/python3.8/dist-packages/transformers/models/roberta/modeling_flax_roberta.py" source_line=313}
  %constant_200 = f32[] constant(0.707106769)
  %broadcast.922 = f32[64,128,3072]{2,1,0} broadcast(f32[] %constant_200), dimensions={}
  %multiply.213 = f32[64,128,3072]{2,1,0} multiply(f32[64,128,3072]{2,1,0} %add.83, f32[64,128,3072]{2,1,0} %broadcast.922), metadata={op_type="div" op_name="pmap(eval_step)/div" source_file="/usr/local/lib/python3.8/dist-packages/transformers/models/roberta/modeling_flax_roberta.py" source_line=313}
  %constant_201 = f32[] constant(4), metadata={op_type="erf" op_name="pmap(eval_step)/erf" source_file="/usr/local/lib/python3.8/dist-packages/transformers/models/roberta/modeling_flax_roberta.py" source_line=313}
  %broadcast.923 = f32[64,128,3072]{2,1,0} broadcast(f32[] %constant_201), dimensions={}, metadata={op_type="erf" op_name="pmap(eval_step)/erf" source_file="/usr/local/lib/python3.8/dist-packages/transformers/models/roberta/modeling_flax_roberta.py" source_line=313}
  %clamp.1 = f32[64,128,3072]{2,1,0} clamp(f32[64,128,3072]{2,1,0} %broadcast.925, f32[64,128,3072]{2,1,0} %multiply.213, f32[64,128,3072]{2,1,0} %broadcast.923), metadata={op_type="erf" op_name="pmap(eval_step)/erf" source_file="/usr/local/lib/python3.8/dist-packages/transformers/models/roberta/modeling_flax_roberta.py" source_line=313}
  %constant_221 = f32[] constant(0), metadata={op_type="reduce_sum" op_name="pmap(eval_step)/reduce_sum[ axes=(2,) ]" source_file="/usr/local/lib/python3.8/dist-packages/flax/linen/normalization.py" source_line=185}
  %broadcast.926 = f32[64,128,3072]{2,1,0} broadcast(f32[] %constant_221), dimensions={}, metadata={op_type="erf" op_name="pmap(eval_step)/erf" source_file="/usr/local/lib/python3.8/dist-packages/transformers/models/roberta/modeling_flax_roberta.py" source_line=313}
  %multiply.212 = f32[64,128,3072]{2,1,0} multiply(f32[64,128,3072]{2,1,0} %clamp.1, f32[64,128,3072]{2,1,0} %clamp.1), metadata={op_type="erf" op_name="pmap(eval_step)/erf" source_file="/usr/local/lib/python3.8/dist-packages/transformers/models/roberta/modeling_flax_roberta.py" source_line=313}
  %multiply.211 = f32[64,128,3072]{2,1,0} multiply(f32[64,128,3072]{2,1,0} %broadcast.926, f32[64,128,3072]{2,1,0} %multiply.212), metadata={op_type="erf" op_name="pmap(eval_step)/erf" source_file="/usr/local/lib/python3.8/dist-packages/transformers/models/roberta/modeling_flax_roberta.py" source_line=313}
  %constant_202 = f32[] constant(-2.72614237e-10), metadata={op_type="erf" op_name="pmap(eval_step)/erf" source_file="/usr/local/lib/python3.8/dist-packages/transformers/models/roberta/modeling_flax_roberta.py" source_line=313}
  %broadcast.927 = f32[64,128,3072]{2,1,0} broadcast(f32[] %constant_202), dimensions={}, metadata={op_type="erf" op_name="pmap(eval_step)/erf" source_file="/usr/local/lib/python3.8/dist-packages/transformers/models/roberta/modeling_flax_roberta.py" source_line=313}
  %add.82 = f32[64,128,3072]{2,1,0} add(f32[64,128,3072]{2,1,0} %multiply.211, f32[64,128,3072]{2,1,0} %broadcast.927), metadata={op_type="erf" op_name="pmap(eval_step)/erf" source_file="/usr/local/lib/python3.8/dist-packages/transformers/models/roberta/modeling_flax_roberta.py" source_line=313}
  %multiply.210 = f32[64,128,3072]{2,1,0} multiply(f32[64,128,3072]{2,1,0} %add.82, f32[64,128,3072]{2,1,0} %multiply.212), metadata={op_type="erf" op_name="pmap(eval_step)/erf" source_file="/usr/local/lib/python3.8/dist-packages/transformers/models/roberta/modeling_flax_roberta.py" source_line=313}
  %constant_203 = f32[] constant(2.77068146e-08), metadata={op_type="erf" op_name="pmap(eval_step)/erf" source_file="/usr/local/lib/python3.8/dist-packages/transformers/models/roberta/modeling_flax_roberta.py" source_line=313}
  %broadcast.928 = f32[64,128,3072]{2,1,0} broadcast(f32[] %constant_203), dimensions={}, metadata={op_type="erf" op_name="pmap(eval_step)/erf" source_file="/usr/local/lib/python3.8/dist-packages/transformers/models/roberta/modeling_flax_roberta.py" source_line=313}
  %add.81 = f32[64,128,3072]{2,1,0} add(f32[64,128,3072]{2,1,0} %multiply.210, f32[64,128,3072]{2,1,0} %broadcast.928), metadata={op_type="erf" op_name="pmap(eval_step)/erf" source_file="/usr/local/lib/python3.8/dist-packages/transformers/models/roberta/modeling_flax_roberta.py" source_line=313}
  %multiply.209 = f32[64,128,3072]{2,1,0} multiply(f32[64,128,3072]{2,1,0} %add.81, f32[64,128,3072]{2,1,0} %multiply.212), metadata={op_type="erf" op_name="pmap(eval_step)/erf" source_file="/usr/local/lib/python3.8/dist-packages/transformers/models/roberta/modeling_flax_roberta.py" source_line=313}
  %constant_204 = f32[] constant(-2.10102394e-06), metadata={op_type="erf" op_name="pmap(eval_step)/erf" source_file="/usr/local/lib/python3.8/dist-packages/transformers/models/roberta/modeling_flax_roberta.py" source_line=313}
  %broadcast.930 = f32[64,128,3072]{2,1,0} broadcast(f32[] %constant_204), dimensions={}, metadata={op_type="erf" op_name="pmap(eval_step)/erf" source_file="/usr/local/lib/python3.8/dist-packages/transformers/models/roberta/modeling_flax_roberta.py" source_line=313}
  %add.80 = f32[64,128,3072]{2,1,0} add(f32[64,128,3072]{2,1,0} %multiply.209, f32[64,128,3072]{2,1,0} %broadcast.930), metadata={op_type="erf" op_name="pmap(eval_step)/erf" source_file="/usr/local/lib/python3.8/dist-packages/transformers/models/roberta/modeling_flax_roberta.py" source_line=313}
  %multiply.208 = f32[64,128,3072]{2,1,0} multiply(f32[64,128,3072]{2,1,0} %add.80, f32[64,128,3072]{2,1,0} %multiply.212), metadata={op_type="erf" op_name="pmap(eval_step)/erf" source_file="/usr/local/lib/python3.8/dist-packages/transformers/models/roberta/modeling_flax_roberta.py" source_line=313}
  %constant_205 = f32[] constant(-5.69250624e-05), metadata={op_type="erf" op_name="pmap(eval_step)/erf" source_file="/usr/local/lib/python3.8/dist-packages/transformers/models/roberta/modeling_flax_roberta.py" source_line=313}
  %broadcast.931 = f32[64,128,3072]{2,1,0} broadcast(f32[] %constant_205), dimensions={}, metadata={op_type="erf" op_name="pmap(eval_step)/erf" source_file="/usr/local/lib/python3.8/dist-packages/transformers/models/roberta/modeling_flax_roberta.py" source_line=313}
  %add.79 = f32[64,128,3072]{2,1,0} add(f32[64,128,3072]{2,1,0} %multiply.208, f32[64,128,3072]{2,1,0} %broadcast.931), metadata={op_type="erf" op_name="pmap(eval_step)/erf" source_file="/usr/local/lib/python3.8/dist-packages/transformers/models/roberta/modeling_flax_roberta.py" source_line=313}
  %multiply.207 = f32[64,128,3072]{2,1,0} multiply(f32[64,128,3072]{2,1,0} %add.79, f32[64,128,3072]{2,1,0} %multiply.212), metadata={op_type="erf" op_name="pmap(eval_step)/erf" source_file="/usr/local/lib/python3.8/dist-packages/transformers/models/roberta/modeling_flax_roberta.py" source_line=313}
  %constant_206 = f32[] constant(-0.000734990637), metadata={op_type="erf" op_name="pmap(eval_step)/erf" source_file="/usr/local/lib/python3.8/dist-packages/transformers/models/roberta/modeling_flax_roberta.py" source_line=313}
  %broadcast.932 = f32[64,128,3072]{2,1,0} broadcast(f32[] %constant_206), dimensions={}, metadata={op_type="erf" op_name="pmap(eval_step)/erf" source_file="/usr/local/lib/python3.8/dist-packages/transformers/models/roberta/modeling_flax_roberta.py" source_line=313}
  %add.78 = f32[64,128,3072]{2,1,0} add(f32[64,128,3072]{2,1,0} %multiply.207, f32[64,128,3072]{2,1,0} %broadcast.932), metadata={op_type="erf" op_name="pmap(eval_step)/erf" source_file="/usr/local/lib/python3.8/dist-packages/transformers/models/roberta/modeling_flax_roberta.py" source_line=313}
  %multiply.206 = f32[64,128,3072]{2,1,0} multiply(f32[64,128,3072]{2,1,0} %add.78, f32[64,128,3072]{2,1,0} %multiply.212), metadata={op_type="erf" op_name="pmap(eval_step)/erf" source_file="/usr/local/lib/python3.8/dist-packages/transformers/models/roberta/modeling_flax_roberta.py" source_line=313}
  %constant_209 = f32[] constant(-0.0029546), metadata={op_type="erf" op_name="pmap(eval_step)/erf" source_file="/usr/local/lib/python3.8/dist-packages/transformers/models/roberta/modeling_flax_roberta.py" source_line=313}
  %broadcast.933 = f32[64,128,3072]{2,1,0} broadcast(f32[] %constant_209), dimensions={}, metadata={op_type="erf" op_name="pmap(eval_step)/erf" source_file="/usr/local/lib/python3.8/dist-packages/transformers/models/roberta/modeling_flax_roberta.py" source_line=313}
  %add.77 = f32[64,128,3072]{2,1,0} add(f32[64,128,3072]{2,1,0} %multiply.206, f32[64,128,3072]{2,1,0} %broadcast.933), metadata={op_type="erf" op_name="pmap(eval_step)/erf" source_file="/usr/local/lib/python3.8/dist-packages/transformers/models/roberta/modeling_flax_roberta.py" source_line=313}
  %multiply.205 = f32[64,128,3072]{2,1,0} multiply(f32[64,128,3072]{2,1,0} %add.77, f32[64,128,3072]{2,1,0} %multiply.212), metadata={op_type="erf" op_name="pmap(eval_step)/erf" source_file="/usr/local/lib/python3.8/dist-packages/transformers/models/roberta/modeling_flax_roberta.py" source_line=313}
  %constant_211 = f32[] constant(-0.0160960332), metadata={op_type="erf" op_name="pmap(eval_step)/erf" source_file="/usr/local/lib/python3.8/dist-packages/transformers/models/roberta/modeling_flax_roberta.py" source_line=313}
  %broadcast.934 = f32[64,128,3072]{2,1,0} broadcast(f32[] %constant_211), dimensions={}, metadata={op_type="erf" op_name="pmap(eval_step)/erf" source_file="/usr/local/lib/python3.8/dist-packages/transformers/models/roberta/modeling_flax_roberta.py" source_line=313}
  %add.76 = f32[64,128,3072]{2,1,0} add(f32[64,128,3072]{2,1,0} %multiply.205, f32[64,128,3072]{2,1,0} %broadcast.934), metadata={op_type="erf" op_name="pmap(eval_step)/erf" source_file="/usr/local/lib/python3.8/dist-packages/transformers/models/roberta/modeling_flax_roberta.py" source_line=313}
  %multiply.204 = f32[64,128,3072]{2,1,0} multiply(f32[64,128,3072]{2,1,0} %clamp.1, f32[64,128,3072]{2,1,0} %add.76), metadata={op_type="erf" op_name="pmap(eval_step)/erf" source_file="/usr/local/lib/python3.8/dist-packages/transformers/models/roberta/modeling_flax_roberta.py" source_line=313}
  %constant_212 = f32[] constant(-1.45660715e-05), metadata={op_type="erf" op_name="pmap(eval_step)/erf" source_file="/usr/local/lib/python3.8/dist-packages/transformers/models/roberta/modeling_flax_roberta.py" source_line=313}
  %broadcast.935 = f32[64,128,3072]{2,1,0} broadcast(f32[] %constant_212), dimensions={}, metadata={op_type="erf" op_name="pmap(eval_step)/erf" source_file="/usr/local/lib/python3.8/dist-packages/transformers/models/roberta/modeling_flax_roberta.py" source_line=313}
  %add.75 = f32[64,128,3072]{2,1,0} add(f32[64,128,3072]{2,1,0} %multiply.211, f32[64,128,3072]{2,1,0} %broadcast.935), metadata={op_type="erf" op_name="pmap(eval_step)/erf" source_file="/usr/local/lib/python3.8/dist-packages/transformers/models/roberta/modeling_flax_roberta.py" source_line=313}
  %multiply.203 = f32[64,128,3072]{2,1,0} multiply(f32[64,128,3072]{2,1,0} %add.75, f32[64,128,3072]{2,1,0} %multiply.212), metadata={op_type="erf" op_name="pmap(eval_step)/erf" source_file="/usr/local/lib/python3.8/dist-packages/transformers/models/roberta/modeling_flax_roberta.py" source_line=313}
  %constant_213 = f32[] constant(-0.000213374049), metadata={op_type="erf" op_name="pmap(eval_step)/erf" source_file="/usr/local/lib/python3.8/dist-packages/transformers/models/roberta/modeling_flax_roberta.py" source_line=313}
  %broadcast.936 = f32[64,128,3072]{2,1,0} broadcast(f32[] %constant_213), dimensions={}, metadata={op_type="erf" op_name="pmap(eval_step)/erf" source_file="/usr/local/lib/python3.8/dist-packages/transformers/models/roberta/modeling_flax_roberta.py" source_line=313}
  %add.74 = f32[64,128,3072]{2,1,0} add(f32[64,128,3072]{2,1,0} %multiply.203, f32[64,128,3072]{2,1,0} %broadcast.936), metadata={op_type="erf" op_name="pmap(eval_step)/erf" source_file="/usr/local/lib/python3.8/dist-packages/transformers/models/roberta/modeling_flax_roberta.py" source_line=313}
  %multiply.202 = f32[64,128,3072]{2,1,0} multiply(f32[64,128,3072]{2,1,0} %add.74, f32[64,128,3072]{2,1,0} %multiply.212), metadata={op_type="erf" op_name="pmap(eval_step)/erf" source_file="/usr/local/lib/python3.8/dist-packages/transformers/models/roberta/modeling_flax_roberta.py" source_line=313}
  %constant_214 = f32[] constant(-0.00168282702), metadata={op_type="erf" op_name="pmap(eval_step)/erf" source_file="/usr/local/lib/python3.8/dist-packages/transformers/models/roberta/modeling_flax_roberta.py" source_line=313}
  %broadcast.937 = f32[64,128,3072]{2,1,0} broadcast(f32[] %constant_214), dimensions={}, metadata={op_type="erf" op_name="pmap(eval_step)/erf" source_file="/usr/local/lib/python3.8/dist-packages/transformers/models/roberta/modeling_flax_roberta.py" source_line=313}
  %add.73 = f32[64,128,3072]{2,1,0} add(f32[64,128,3072]{2,1,0} %multiply.202, f32[64,128,3072]{2,1,0} %broadcast.937), metadata={op_type="erf" op_name="pmap(eval_step)/erf" source_file="/usr/local/lib/python3.8/dist-packages/transformers/models/roberta/modeling_flax_roberta.py" source_line=313}
  %multiply.201 = f32[64,128,3072]{2,1,0} multiply(f32[64,128,3072]{2,1,0} %add.73, f32[64,128,3072]{2,1,0} %multiply.212), metadata={op_type="erf" op_name="pmap(eval_step)/erf" source_file="/usr/local/lib/python3.8/dist-packages/transformers/models/roberta/modeling_flax_roberta.py" source_line=313}
  %constant_215 = f32[] constant(-0.00737332925), metadata={op_type="erf" op_name="pmap(eval_step)/erf" source_file="/usr/local/lib/python3.8/dist-packages/transformers/models/roberta/modeling_flax_roberta.py" source_line=313}
  %broadcast.938 = f32[64,128,3072]{2,1,0} broadcast(f32[] %constant_215), dimensions={}, metadata={op_type="erf" op_name="pmap(eval_step)/erf" source_file="/usr/local/lib/python3.8/dist-packages/transformers/models/roberta/modeling_flax_roberta.py" source_line=313}
  %add.72 = f32[64,128,3072]{2,1,0} add(f32[64,128,3072]{2,1,0} %multiply.201, f32[64,128,3072]{2,1,0} %broadcast.938), metadata={op_type="erf" op_name="pmap(eval_step)/erf" source_file="/usr/local/lib/python3.8/dist-packages/transformers/models/roberta/modeling_flax_roberta.py" source_line=313}
  %multiply.200 = f32[64,128,3072]{2,1,0} multiply(f32[64,128,3072]{2,1,0} %add.72, f32[64,128,3072]{2,1,0} %multiply.212), metadata={op_type="erf" op_name="pmap(eval_step)/erf" source_file="/usr/local/lib/python3.8/dist-packages/transformers/models/roberta/modeling_flax_roberta.py" source_line=313}
  %constant_218 = f32[] constant(-0.0142647391), metadata={op_type="erf" op_name="pmap(eval_step)/erf" source_file="/usr/local/lib/python3.8/dist-packages/transformers/models/roberta/modeling_flax_roberta.py" source_line=313}
  %broadcast.939 = f32[64,128,3072]{2,1,0} broadcast(f32[] %constant_218), dimensions={}, metadata={op_type="erf" op_name="pmap(eval_step)/erf" source_file="/usr/local/lib/python3.8/dist-packages/transformers/models/roberta/modeling_flax_roberta.py" source_line=313}
  %add.71 = f32[64,128,3072]{2,1,0} add(f32[64,128,3072]{2,1,0} %multiply.200, f32[64,128,3072]{2,1,0} %broadcast.939), metadata={op_type="erf" op_name="pmap(eval_step)/erf" source_file="/usr/local/lib/python3.8/dist-packages/transformers/models/roberta/modeling_flax_roberta.py" source_line=313}
  %divide.13 = f32[64,128,3072]{2,1,0} divide(f32[64,128,3072]{2,1,0} %multiply.204, f32[64,128,3072]{2,1,0} %add.71), metadata={op_type="erf" op_name="pmap(eval_step)/erf" source_file="/usr/local/lib/python3.8/dist-packages/transformers/models/roberta/modeling_flax_roberta.py" source_line=313}
  %constant_220 = f32[] constant(1), metadata={op_type="add" op_name="pmap(eval_step)/add" source_file="/usr/local/lib/python3.8/dist-packages/transformers/models/roberta/modeling_flax_roberta.py" source_line=313}
  %broadcast.941 = f32[64,128,3072]{2,1,0} broadcast(f32[] %constant_220), dimensions={}, metadata={op_type="add" op_name="pmap(eval_step)/add" source_file="/usr/local/lib/python3.8/dist-packages/transformers/models/roberta/modeling_flax_roberta.py" source_line=313}
  %add.70 = f32[64,128,3072]{2,1,0} add(f32[64,128,3072]{2,1,0} %divide.13, f32[64,128,3072]{2,1,0} %broadcast.941), metadata={op_type="add" op_name="pmap(eval_step)/add" source_file="/usr/local/lib/python3.8/dist-packages/transformers/models/roberta/modeling_flax_roberta.py" source_line=313}
  %multiply.199 = f32[64,128,3072]{2,1,0} multiply(f32[64,128,3072]{2,1,0} %add.83, f32[64,128,3072]{2,1,0} %add.70), metadata={op_type="mul" op_name="pmap(eval_step)/mul" source_file="/usr/local/lib/python3.8/dist-packages/transformers/models/roberta/modeling_flax_roberta.py" source_line=313}
  %constant_219 = f32[] constant(0.5)
  %broadcast.942 = f32[64,128,3072]{2,1,0} broadcast(f32[] %constant_219), dimensions={}
  %multiply.198 = f32[64,128,3072]{2,1,0} multiply(f32[64,128,3072]{2,1,0} %multiply.199, f32[64,128,3072]{2,1,0} %broadcast.942), metadata={op_type="div" op_name="pmap(eval_step)/div" source_file="/usr/local/lib/python3.8/dist-packages/transformers/models/roberta/modeling_flax_roberta.py" source_line=313}
  ROOT %bitcast.137 = f32[8192,3072]{1,0} bitcast(f32[64,128,3072]{2,1,0} %multiply.198)
}

%fused_computation.15 (param_0.37: f32[768], param_1.52: f32[768], param_2.329: f32[64,128], param_3.696: f32[64,128], param_4.587: f32[64,128,768], param_5.588: f32[768], param_6.503: f32[8192,768]) -> f32[64,128,768] {
  %param_6.503 = f32[8192,768]{1,0} parameter(6)
  %bitcast.371 = f32[64,128,768]{2,1,0} bitcast(f32[8192,768]{1,0} %param_6.503), metadata={op_type="dot_general" op_name="pmap(eval_step)/dot_general[ dimension_numbers=(((2,), (0,)), ((), ()))\n                             precision=None\n                             preferred_element_type=None ]" source_file="/usr/local/lib/python3.8/dist-packages/flax/linen/linear.py" source_line=175}
  %param_5.588 = f32[768]{0} parameter(5)
  %broadcast.1646 = f32[64,128,768]{2,1,0} broadcast(f32[768]{0} %param_5.588), dimensions={2}, metadata={op_type="add" op_name="pmap(eval_step)/add" source_file="/usr/local/lib/python3.8/dist-packages/flax/linen/linear.py" source_line=181}
  %add.790 = f32[64,128,768]{2,1,0} add(f32[64,128,768]{2,1,0} %bitcast.371, f32[64,128,768]{2,1,0} %broadcast.1646), metadata={op_type="add" op_name="pmap(eval_step)/add" source_file="/usr/local/lib/python3.8/dist-packages/flax/linen/linear.py" source_line=181}
  %param_4.587 = f32[64,128,768]{2,1,0} parameter(4)
  %add.789 = f32[64,128,768]{2,1,0} add(f32[64,128,768]{2,1,0} %add.790, f32[64,128,768]{2,1,0} %param_4.587), metadata={op_type="add" op_name="pmap(eval_step)/add" source_file="/usr/local/lib/python3.8/dist-packages/transformers/models/roberta/modeling_flax_roberta.py" source_line=267}
  %param_3.696 = f32[64,128]{1,0} parameter(3)
  %constant_222 = f32[] constant(0.00130208337)
  %broadcast.943 = f32[64,128]{1,0} broadcast(f32[] %constant_222), dimensions={}
  %multiply.218 = f32[64,128]{1,0} multiply(f32[64,128]{1,0} %param_3.696, f32[64,128]{1,0} %broadcast.943), metadata={op_type="div" op_name="pmap(eval_step)/div" source_file="/usr/local/lib/python3.8/dist-packages/flax/linen/normalization.py" source_line=185}
  %broadcast.646 = f32[64,128,768]{2,1,0} broadcast(f32[64,128]{1,0} %multiply.218), dimensions={0,1}, metadata={op_type="sub" op_name="pmap(eval_step)/sub" source_file="/usr/local/lib/python3.8/dist-packages/flax/linen/normalization.py" source_line=193}
  %subtract.33 = f32[64,128,768]{2,1,0} subtract(f32[64,128,768]{2,1,0} %add.789, f32[64,128,768]{2,1,0} %broadcast.646), metadata={op_type="sub" op_name="pmap(eval_step)/sub" source_file="/usr/local/lib/python3.8/dist-packages/flax/linen/normalization.py" source_line=193}
  %param_2.329 = f32[64,128]{1,0} parameter(2)
  %multiply.217 = f32[64,128]{1,0} multiply(f32[64,128]{1,0} %param_2.329, f32[64,128]{1,0} %broadcast.943), metadata={op_type="div" op_name="pmap(eval_step)/div" source_file="/usr/local/lib/python3.8/dist-packages/flax/linen/normalization.py" source_line=186}
  %multiply.216 = f32[64,128]{1,0} multiply(f32[64,128]{1,0} %multiply.218, f32[64,128]{1,0} %multiply.218), metadata={op_type="integer_pow" op_name="pmap(eval_step)/integer_pow[ y=2 ]" source_file="/usr/local/lib/python3.8/dist-packages/flax/linen/normalization.py" source_line=187}
  %subtract.32 = f32[64,128]{1,0} subtract(f32[64,128]{1,0} %multiply.217, f32[64,128]{1,0} %multiply.216), metadata={op_type="sub" op_name="pmap(eval_step)/sub" source_file="/usr/local/lib/python3.8/dist-packages/flax/linen/normalization.py" source_line=187}
  %constant_223 = f32[] constant(1e-05), metadata={op_type="add" op_name="pmap(eval_step)/add" source_file="/usr/local/lib/python3.8/dist-packages/flax/linen/normalization.py" source_line=188}
  %broadcast.944 = f32[64,128]{1,0} broadcast(f32[] %constant_223), dimensions={}, metadata={op_type="add" op_name="pmap(eval_step)/add" source_file="/usr/local/lib/python3.8/dist-packages/flax/linen/normalization.py" source_line=188}
  %add.85 = f32[64,128]{1,0} add(f32[64,128]{1,0} %subtract.32, f32[64,128]{1,0} %broadcast.944), metadata={op_type="add" op_name="pmap(eval_step)/add" source_file="/usr/local/lib/python3.8/dist-packages/flax/linen/normalization.py" source_line=188}
  %rsqrt.28 = f32[64,128]{1,0} rsqrt(f32[64,128]{1,0} %add.85), metadata={op_type="rsqrt" op_name="pmap(eval_step)/rsqrt" source_file="/usr/local/lib/python3.8/dist-packages/flax/linen/normalization.py" source_line=188}
  %broadcast.645 = f32[64,128,768]{2,1,0} broadcast(f32[64,128]{1,0} %rsqrt.28), dimensions={0,1}, metadata={op_type="mul" op_name="pmap(eval_step)/mul" source_file="/usr/local/lib/python3.8/dist-packages/flax/linen/normalization.py" source_line=190}
  %param_1.52 = f32[768]{0} parameter(1)
  %broadcast.643 = f32[64,128,768]{2,1,0} broadcast(f32[768]{0} %param_1.52), dimensions={2}, metadata={op_type="mul" op_name="pmap(eval_step)/mul" source_file="/usr/local/lib/python3.8/dist-packages/flax/linen/normalization.py" source_line=190}
  %multiply.215 = f32[64,128,768]{2,1,0} multiply(f32[64,128,768]{2,1,0} %broadcast.645, f32[64,128,768]{2,1,0} %broadcast.643), metadata={op_type="mul" op_name="pmap(eval_step)/mul" source_file="/usr/local/lib/python3.8/dist-packages/flax/linen/normalization.py" source_line=190}
  %multiply.214 = f32[64,128,768]{2,1,0} multiply(f32[64,128,768]{2,1,0} %subtract.33, f32[64,128,768]{2,1,0} %multiply.215), metadata={op_type="mul" op_name="pmap(eval_step)/mul" source_file="/usr/local/lib/python3.8/dist-packages/flax/linen/normalization.py" source_line=193}
  %param_0.37 = f32[768]{0} parameter(0)
  %broadcast.641 = f32[64,128,768]{2,1,0} broadcast(f32[768]{0} %param_0.37), dimensions={2}, metadata={op_type="add" op_name="pmap(eval_step)/add" source_file="/usr/local/lib/python3.8/dist-packages/flax/linen/normalization.py" source_line=195}
  ROOT %add.84 = f32[64,128,768]{2,1,0} add(f32[64,128,768]{2,1,0} %multiply.214, f32[64,128,768]{2,1,0} %broadcast.641), metadata={op_type="add" op_name="pmap(eval_step)/add" source_file="/usr/local/lib/python3.8/dist-packages/flax/linen/normalization.py" source_line=195}
}

%fused_computation.18 (param_0.44: f32[64,12,64,128]) -> f32[8192,768] {
  %param_0.44 = f32[64,12,64,128]{3,2,1,0} parameter(0)
  %transpose.208 = f32[64,128,12,64]{1,3,2,0} transpose(f32[64,12,64,128]{3,2,1,0} %param_0.44), dimensions={0,3,1,2}, metadata={op_type="transpose" op_name="pmap(eval_step)/jit(_einsum)/transpose[ permutation=(0, 3, 1, 2) ]" source_file="/usr/local/lib/python3.8/dist-packages/transformers/models/roberta/modeling_flax_roberta.py" source_line=243}
  %copy.24 = f32[64,128,12,64]{3,2,1,0} copy(f32[64,128,12,64]{1,3,2,0} %transpose.208), metadata={op_type="transpose" op_name="pmap(eval_step)/jit(_einsum)/transpose[ permutation=(0, 3, 1, 2) ]" source_file="/usr/local/lib/python3.8/dist-packages/transformers/models/roberta/modeling_flax_roberta.py" source_line=243}
  ROOT %bitcast.140 = f32[8192,768]{1,0} bitcast(f32[64,128,12,64]{3,2,1,0} %copy.24)
}

%fused_computation.19 (param_0.45: f32[64,12,128,128], param_1.59: f32[64,12,128]) -> f32[64,12,128,128] {
  %param_0.45 = f32[64,12,128,128]{3,2,1,0} parameter(0)
  %param_1.59 = f32[64,12,128]{2,1,0} parameter(1)
  %broadcast.649 = f32[64,12,128,128]{3,2,1,0} broadcast(f32[64,12,128]{2,1,0} %param_1.59), dimensions={0,1,2}, metadata={op_type="div" op_name="pmap(eval_step)/div" source_file="/usr/local/lib/python3.8/dist-packages/flax/linen/attention.py" source_line=91}
  ROOT %divide.14 = f32[64,12,128,128]{3,2,1,0} divide(f32[64,12,128,128]{3,2,1,0} %param_0.45, f32[64,12,128,128]{3,2,1,0} %broadcast.649), metadata={op_type="div" op_name="pmap(eval_step)/div" source_file="/usr/local/lib/python3.8/dist-packages/flax/linen/attention.py" source_line=91}
}

%fused_computation.21 (param_0.51: f32[768], param_1.64: f32[8192,768]) -> f32[64,12,64,128] {
  %param_1.64 = f32[8192,768]{1,0} parameter(1)
  %reshape.1034 = f32[64,128,768]{1,2,0} reshape(f32[8192,768]{1,0} %param_1.64), metadata={op_type="dot_general" op_name="pmap(eval_step)/dot_general[ dimension_numbers=(((2,), (0,)), ((), ()))\n                             precision=None\n                             preferred_element_type=None ]" source_file="/usr/local/lib/python3.8/dist-packages/flax/linen/linear.py" source_line=175}
  %param_0.51 = f32[768]{0} parameter(0)
  %broadcast.653 = f32[64,128,768]{1,2,0} broadcast(f32[768]{0} %param_0.51), dimensions={2}, metadata={op_type="add" op_name="pmap(eval_step)/add" source_file="/usr/local/lib/python3.8/dist-packages/flax/linen/linear.py" source_line=181}
  %add.88 = f32[64,128,768]{1,2,0} add(f32[64,128,768]{1,2,0} %reshape.1034, f32[64,128,768]{1,2,0} %broadcast.653), metadata={op_type="add" op_name="pmap(eval_step)/add" source_file="/usr/local/lib/python3.8/dist-packages/flax/linen/linear.py" source_line=181}
  %bitcast.141 = f32[64,128,12,64]{1,3,2,0} bitcast(f32[64,128,768]{1,2,0} %add.88), metadata={op_type="reshape" op_name="pmap(eval_step)/reshape[ dimensions=None\n                         new_sizes=(64, 128, 12, 64) ]" source_file="/usr/local/lib/python3.8/dist-packages/transformers/models/roberta/modeling_flax_roberta.py" source_line=211}
  ROOT %transpose.209 = f32[64,12,64,128]{3,2,1,0} transpose(f32[64,128,12,64]{1,3,2,0} %bitcast.141), dimensions={0,2,3,1}
}

%fused_computation.22 (param_0.469: f32[768], param_1.503: f32[8192,768]) -> f32[64,12,128,64] {
  %param_1.503 = f32[8192,768]{1,0} parameter(1)
  %bitcast.142 = f32[64,128,768]{2,1,0} bitcast(f32[8192,768]{1,0} %param_1.503), metadata={op_type="dot_general" op_name="pmap(eval_step)/dot_general[ dimension_numbers=(((2,), (0,)), ((), ()))\n                             precision=None\n                             preferred_element_type=None ]" source_file="/usr/local/lib/python3.8/dist-packages/flax/linen/linear.py" source_line=175}
  %param_0.469 = f32[768]{0} parameter(0)
  %broadcast.654 = f32[64,128,768]{2,1,0} broadcast(f32[768]{0} %param_0.469), dimensions={2}, metadata={op_type="add" op_name="pmap(eval_step)/add" source_file="/usr/local/lib/python3.8/dist-packages/flax/linen/linear.py" source_line=181}
  %add.89 = f32[64,128,768]{2,1,0} add(f32[64,128,768]{2,1,0} %bitcast.142, f32[64,128,768]{2,1,0} %broadcast.654), metadata={op_type="add" op_name="pmap(eval_step)/add" source_file="/usr/local/lib/python3.8/dist-packages/flax/linen/linear.py" source_line=181}
  %constant_225 = f32[] constant(0.125)
  %broadcast.945 = f32[64,128,768]{2,1,0} broadcast(f32[] %constant_225), dimensions={}
  %multiply.220 = f32[64,128,768]{2,1,0} multiply(f32[64,128,768]{2,1,0} %add.89, f32[64,128,768]{2,1,0} %broadcast.945), metadata={op_type="div" op_name="pmap(eval_step)/div" source_file="/usr/local/lib/python3.8/dist-packages/flax/linen/attention.py" source_line=81}
  %reshape.1035 = f32[64,128,12,64]{3,1,2,0} reshape(f32[64,128,768]{2,1,0} %multiply.220), metadata={op_type="div" op_name="pmap(eval_step)/div" source_file="/usr/local/lib/python3.8/dist-packages/flax/linen/attention.py" source_line=81}
  ROOT %transpose.210 = f32[64,12,128,64]{3,2,1,0} transpose(f32[64,128,12,64]{3,1,2,0} %reshape.1035), dimensions={0,2,1,3}
}

%fused_computation.23 (param_0.59: f32[768], param_1.70: f32[8192,768]) -> f32[64,12,64,128] {
  %param_1.70 = f32[8192,768]{1,0} parameter(1)
  %reshape.1036 = f32[64,128,768]{1,2,0} reshape(f32[8192,768]{1,0} %param_1.70), metadata={op_type="dot_general" op_name="pmap(eval_step)/dot_general[ dimension_numbers=(((2,), (0,)), ((), ()))\n                             precision=None\n                             preferred_element_type=None ]" source_file="/usr/local/lib/python3.8/dist-packages/flax/linen/linear.py" source_line=175}
  %param_0.59 = f32[768]{0} parameter(0)
  %broadcast.656 = f32[64,128,768]{1,2,0} broadcast(f32[768]{0} %param_0.59), dimensions={2}, metadata={op_type="add" op_name="pmap(eval_step)/add" source_file="/usr/local/lib/python3.8/dist-packages/flax/linen/linear.py" source_line=181}
  %add.90 = f32[64,128,768]{1,2,0} add(f32[64,128,768]{1,2,0} %reshape.1036, f32[64,128,768]{1,2,0} %broadcast.656), metadata={op_type="add" op_name="pmap(eval_step)/add" source_file="/usr/local/lib/python3.8/dist-packages/flax/linen/linear.py" source_line=181}
  %bitcast.143 = f32[64,128,12,64]{1,3,2,0} bitcast(f32[64,128,768]{1,2,0} %add.90), metadata={op_type="reshape" op_name="pmap(eval_step)/reshape[ dimensions=None\n                         new_sizes=(64, 128, 12, 64) ]" source_file="/usr/local/lib/python3.8/dist-packages/transformers/models/roberta/modeling_flax_roberta.py" source_line=208}
  ROOT %transpose.211 = f32[64,12,64,128]{3,2,1,0} transpose(f32[64,128,12,64]{1,3,2,0} %bitcast.143), dimensions={0,2,3,1}
}

%fused_computation.24 (param_0.61: f32[768], param_1.74: f32[768], param_2.331: f32[64,128], param_3.692: f32[64,128], param_4.585: f32[64,128,768], param_5.585: f32[768], param_6.500: f32[8192,768]) -> f32[64,128,768] {
  %param_6.500 = f32[8192,768]{1,0} parameter(6)
  %bitcast.365 = f32[64,128,768]{2,1,0} bitcast(f32[8192,768]{1,0} %param_6.500), metadata={op_type="dot_general" op_name="pmap(eval_step)/dot_general[ dimension_numbers=(((2,), (0,)), ((), ()))\n                             precision=None\n                             preferred_element_type=None ]" source_file="/usr/local/lib/python3.8/dist-packages/flax/linen/linear.py" source_line=175}
  %param_5.585 = f32[768]{0} parameter(5)
  %broadcast.1636 = f32[64,128,768]{2,1,0} broadcast(f32[768]{0} %param_5.585), dimensions={2}, metadata={op_type="add" op_name="pmap(eval_step)/add" source_file="/usr/local/lib/python3.8/dist-packages/flax/linen/linear.py" source_line=181}
  %add.777 = f32[64,128,768]{2,1,0} add(f32[64,128,768]{2,1,0} %bitcast.365, f32[64,128,768]{2,1,0} %broadcast.1636), metadata={op_type="add" op_name="pmap(eval_step)/add" source_file="/usr/local/lib/python3.8/dist-packages/flax/linen/linear.py" source_line=181}
  %param_4.585 = f32[64,128,768]{2,1,0} parameter(4)
  %add.776 = f32[64,128,768]{2,1,0} add(f32[64,128,768]{2,1,0} %add.777, f32[64,128,768]{2,1,0} %param_4.585), metadata={op_type="add" op_name="pmap(eval_step)/add" source_file="/usr/local/lib/python3.8/dist-packages/transformers/models/roberta/modeling_flax_roberta.py" source_line=334}
  %param_3.692 = f32[64,128]{1,0} parameter(3)
  %constant_226 = f32[] constant(0.00130208337)
  %broadcast.946 = f32[64,128]{1,0} broadcast(f32[] %constant_226), dimensions={}
  %multiply.225 = f32[64,128]{1,0} multiply(f32[64,128]{1,0} %param_3.692, f32[64,128]{1,0} %broadcast.946), metadata={op_type="div" op_name="pmap(eval_step)/div" source_file="/usr/local/lib/python3.8/dist-packages/flax/linen/normalization.py" source_line=185}
  %broadcast.662 = f32[64,128,768]{2,1,0} broadcast(f32[64,128]{1,0} %multiply.225), dimensions={0,1}, metadata={op_type="sub" op_name="pmap(eval_step)/sub" source_file="/usr/local/lib/python3.8/dist-packages/flax/linen/normalization.py" source_line=193}
  %subtract.36 = f32[64,128,768]{2,1,0} subtract(f32[64,128,768]{2,1,0} %add.776, f32[64,128,768]{2,1,0} %broadcast.662), metadata={op_type="sub" op_name="pmap(eval_step)/sub" source_file="/usr/local/lib/python3.8/dist-packages/flax/linen/normalization.py" source_line=193}
  %param_2.331 = f32[64,128]{1,0} parameter(2)
  %multiply.224 = f32[64,128]{1,0} multiply(f32[64,128]{1,0} %param_2.331, f32[64,128]{1,0} %broadcast.946), metadata={op_type="div" op_name="pmap(eval_step)/div" source_file="/usr/local/lib/python3.8/dist-packages/flax/linen/normalization.py" source_line=186}
  %multiply.223 = f32[64,128]{1,0} multiply(f32[64,128]{1,0} %multiply.225, f32[64,128]{1,0} %multiply.225), metadata={op_type="integer_pow" op_name="pmap(eval_step)/integer_pow[ y=2 ]" source_file="/usr/local/lib/python3.8/dist-packages/flax/linen/normalization.py" source_line=187}
  %subtract.35 = f32[64,128]{1,0} subtract(f32[64,128]{1,0} %multiply.224, f32[64,128]{1,0} %multiply.223), metadata={op_type="sub" op_name="pmap(eval_step)/sub" source_file="/usr/local/lib/python3.8/dist-packages/flax/linen/normalization.py" source_line=187}
  %constant_227 = f32[] constant(1e-05), metadata={op_type="add" op_name="pmap(eval_step)/add" source_file="/usr/local/lib/python3.8/dist-packages/flax/linen/normalization.py" source_line=188}
  %broadcast.947 = f32[64,128]{1,0} broadcast(f32[] %constant_227), dimensions={}, metadata={op_type="add" op_name="pmap(eval_step)/add" source_file="/usr/local/lib/python3.8/dist-packages/flax/linen/normalization.py" source_line=188}
  %add.92 = f32[64,128]{1,0} add(f32[64,128]{1,0} %subtract.35, f32[64,128]{1,0} %broadcast.947), metadata={op_type="add" op_name="pmap(eval_step)/add" source_file="/usr/local/lib/python3.8/dist-packages/flax/linen/normalization.py" source_line=188}
  %rsqrt.29 = f32[64,128]{1,0} rsqrt(f32[64,128]{1,0} %add.92), metadata={op_type="rsqrt" op_name="pmap(eval_step)/rsqrt" source_file="/usr/local/lib/python3.8/dist-packages/flax/linen/normalization.py" source_line=188}
  %broadcast.660 = f32[64,128,768]{2,1,0} broadcast(f32[64,128]{1,0} %rsqrt.29), dimensions={0,1}, metadata={op_type="mul" op_name="pmap(eval_step)/mul" source_file="/usr/local/lib/python3.8/dist-packages/flax/linen/normalization.py" source_line=190}
  %param_1.74 = f32[768]{0} parameter(1)
  %broadcast.659 = f32[64,128,768]{2,1,0} broadcast(f32[768]{0} %param_1.74), dimensions={2}, metadata={op_type="mul" op_name="pmap(eval_step)/mul" source_file="/usr/local/lib/python3.8/dist-packages/flax/linen/normalization.py" source_line=190}
  %multiply.222 = f32[64,128,768]{2,1,0} multiply(f32[64,128,768]{2,1,0} %broadcast.660, f32[64,128,768]{2,1,0} %broadcast.659), metadata={op_type="mul" op_name="pmap(eval_step)/mul" source_file="/usr/local/lib/python3.8/dist-packages/flax/linen/normalization.py" source_line=190}
  %multiply.221 = f32[64,128,768]{2,1,0} multiply(f32[64,128,768]{2,1,0} %subtract.36, f32[64,128,768]{2,1,0} %multiply.222), metadata={op_type="mul" op_name="pmap(eval_step)/mul" source_file="/usr/local/lib/python3.8/dist-packages/flax/linen/normalization.py" source_line=193}
  %param_0.61 = f32[768]{0} parameter(0)
  %broadcast.658 = f32[64,128,768]{2,1,0} broadcast(f32[768]{0} %param_0.61), dimensions={2}, metadata={op_type="add" op_name="pmap(eval_step)/add" source_file="/usr/local/lib/python3.8/dist-packages/flax/linen/normalization.py" source_line=195}
  ROOT %add.91 = f32[64,128,768]{2,1,0} add(f32[64,128,768]{2,1,0} %multiply.221, f32[64,128,768]{2,1,0} %broadcast.658), metadata={op_type="add" op_name="pmap(eval_step)/add" source_file="/usr/local/lib/python3.8/dist-packages/flax/linen/normalization.py" source_line=195}
}

%fused_computation.27 (param_0.471: f32[3072], param_1.505: f32[8192,3072]) -> f32[8192,3072] {
  %param_1.505 = f32[8192,3072]{1,0} parameter(1)
  %bitcast.146 = f32[64,128,3072]{2,1,0} bitcast(f32[8192,3072]{1,0} %param_1.505), metadata={op_type="dot_general" op_name="pmap(eval_step)/dot_general[ dimension_numbers=(((2,), (0,)), ((), ()))\n                             precision=None\n                             preferred_element_type=None ]" source_file="/usr/local/lib/python3.8/dist-packages/flax/linen/linear.py" source_line=175}
  %param_0.471 = f32[3072]{0} parameter(0)
  %broadcast.665 = f32[64,128,3072]{2,1,0} broadcast(f32[3072]{0} %param_0.471), dimensions={2}, metadata={op_type="add" op_name="pmap(eval_step)/add" source_file="/usr/local/lib/python3.8/dist-packages/flax/linen/linear.py" source_line=181}
  %add.108 = f32[64,128,3072]{2,1,0} add(f32[64,128,3072]{2,1,0} %bitcast.146, f32[64,128,3072]{2,1,0} %broadcast.665), metadata={op_type="add" op_name="pmap(eval_step)/add" source_file="/usr/local/lib/python3.8/dist-packages/flax/linen/linear.py" source_line=181}
  %constant_229 = f32[] constant(-4), metadata={op_type="erf" op_name="pmap(eval_step)/erf" source_file="/usr/local/lib/python3.8/dist-packages/transformers/models/roberta/modeling_flax_roberta.py" source_line=313}
  %broadcast.952 = f32[64,128,3072]{2,1,0} broadcast(f32[] %constant_229), dimensions={}, metadata={op_type="erf" op_name="pmap(eval_step)/erf" source_file="/usr/local/lib/python3.8/dist-packages/transformers/models/roberta/modeling_flax_roberta.py" source_line=313}
  %constant_230 = f32[] constant(0.707106769)
  %broadcast.949 = f32[64,128,3072]{2,1,0} broadcast(f32[] %constant_230), dimensions={}
  %multiply.242 = f32[64,128,3072]{2,1,0} multiply(f32[64,128,3072]{2,1,0} %add.108, f32[64,128,3072]{2,1,0} %broadcast.949), metadata={op_type="div" op_name="pmap(eval_step)/div" source_file="/usr/local/lib/python3.8/dist-packages/transformers/models/roberta/modeling_flax_roberta.py" source_line=313}
  %constant_231 = f32[] constant(4), metadata={op_type="erf" op_name="pmap(eval_step)/erf" source_file="/usr/local/lib/python3.8/dist-packages/transformers/models/roberta/modeling_flax_roberta.py" source_line=313}
  %broadcast.951 = f32[64,128,3072]{2,1,0} broadcast(f32[] %constant_231), dimensions={}, metadata={op_type="erf" op_name="pmap(eval_step)/erf" source_file="/usr/local/lib/python3.8/dist-packages/transformers/models/roberta/modeling_flax_roberta.py" source_line=313}
  %clamp.2 = f32[64,128,3072]{2,1,0} clamp(f32[64,128,3072]{2,1,0} %broadcast.952, f32[64,128,3072]{2,1,0} %multiply.242, f32[64,128,3072]{2,1,0} %broadcast.951), metadata={op_type="erf" op_name="pmap(eval_step)/erf" source_file="/usr/local/lib/python3.8/dist-packages/transformers/models/roberta/modeling_flax_roberta.py" source_line=313}
  %constant_248 = f32[] constant(0), metadata={op_type="reduce_sum" op_name="pmap(eval_step)/reduce_sum[ axes=(2,) ]" source_file="/usr/local/lib/python3.8/dist-packages/flax/linen/normalization.py" source_line=185}
  %broadcast.953 = f32[64,128,3072]{2,1,0} broadcast(f32[] %constant_248), dimensions={}, metadata={op_type="erf" op_name="pmap(eval_step)/erf" source_file="/usr/local/lib/python3.8/dist-packages/transformers/models/roberta/modeling_flax_roberta.py" source_line=313}
  %multiply.241 = f32[64,128,3072]{2,1,0} multiply(f32[64,128,3072]{2,1,0} %clamp.2, f32[64,128,3072]{2,1,0} %clamp.2), metadata={op_type="erf" op_name="pmap(eval_step)/erf" source_file="/usr/local/lib/python3.8/dist-packages/transformers/models/roberta/modeling_flax_roberta.py" source_line=313}
  %multiply.240 = f32[64,128,3072]{2,1,0} multiply(f32[64,128,3072]{2,1,0} %broadcast.953, f32[64,128,3072]{2,1,0} %multiply.241), metadata={op_type="erf" op_name="pmap(eval_step)/erf" source_file="/usr/local/lib/python3.8/dist-packages/transformers/models/roberta/modeling_flax_roberta.py" source_line=313}
  %constant_232 = f32[] constant(-2.72614237e-10), metadata={op_type="erf" op_name="pmap(eval_step)/erf" source_file="/usr/local/lib/python3.8/dist-packages/transformers/models/roberta/modeling_flax_roberta.py" source_line=313}
  %broadcast.954 = f32[64,128,3072]{2,1,0} broadcast(f32[] %constant_232), dimensions={}, metadata={op_type="erf" op_name="pmap(eval_step)/erf" source_file="/usr/local/lib/python3.8/dist-packages/transformers/models/roberta/modeling_flax_roberta.py" source_line=313}
  %add.107 = f32[64,128,3072]{2,1,0} add(f32[64,128,3072]{2,1,0} %multiply.240, f32[64,128,3072]{2,1,0} %broadcast.954), metadata={op_type="erf" op_name="pmap(eval_step)/erf" source_file="/usr/local/lib/python3.8/dist-packages/transformers/models/roberta/modeling_flax_roberta.py" source_line=313}
  %multiply.239 = f32[64,128,3072]{2,1,0} multiply(f32[64,128,3072]{2,1,0} %add.107, f32[64,128,3072]{2,1,0} %multiply.241), metadata={op_type="erf" op_name="pmap(eval_step)/erf" source_file="/usr/local/lib/python3.8/dist-packages/transformers/models/roberta/modeling_flax_roberta.py" source_line=313}
  %constant_233 = f32[] constant(2.77068146e-08), metadata={op_type="erf" op_name="pmap(eval_step)/erf" source_file="/usr/local/lib/python3.8/dist-packages/transformers/models/roberta/modeling_flax_roberta.py" source_line=313}
  %broadcast.955 = f32[64,128,3072]{2,1,0} broadcast(f32[] %constant_233), dimensions={}, metadata={op_type="erf" op_name="pmap(eval_step)/erf" source_file="/usr/local/lib/python3.8/dist-packages/transformers/models/roberta/modeling_flax_roberta.py" source_line=313}
  %add.106 = f32[64,128,3072]{2,1,0} add(f32[64,128,3072]{2,1,0} %multiply.239, f32[64,128,3072]{2,1,0} %broadcast.955), metadata={op_type="erf" op_name="pmap(eval_step)/erf" source_file="/usr/local/lib/python3.8/dist-packages/transformers/models/roberta/modeling_flax_roberta.py" source_line=313}
  %multiply.238 = f32[64,128,3072]{2,1,0} multiply(f32[64,128,3072]{2,1,0} %add.106, f32[64,128,3072]{2,1,0} %multiply.241), metadata={op_type="erf" op_name="pmap(eval_step)/erf" source_file="/usr/local/lib/python3.8/dist-packages/transformers/models/roberta/modeling_flax_roberta.py" source_line=313}
  %constant_234 = f32[] constant(-2.10102394e-06), metadata={op_type="erf" op_name="pmap(eval_step)/erf" source_file="/usr/local/lib/python3.8/dist-packages/transformers/models/roberta/modeling_flax_roberta.py" source_line=313}
  %broadcast.956 = f32[64,128,3072]{2,1,0} broadcast(f32[] %constant_234), dimensions={}, metadata={op_type="erf" op_name="pmap(eval_step)/erf" source_file="/usr/local/lib/python3.8/dist-packages/transformers/models/roberta/modeling_flax_roberta.py" source_line=313}
  %add.105 = f32[64,128,3072]{2,1,0} add(f32[64,128,3072]{2,1,0} %multiply.238, f32[64,128,3072]{2,1,0} %broadcast.956), metadata={op_type="erf" op_name="pmap(eval_step)/erf" source_file="/usr/local/lib/python3.8/dist-packages/transformers/models/roberta/modeling_flax_roberta.py" source_line=313}
  %multiply.237 = f32[64,128,3072]{2,1,0} multiply(f32[64,128,3072]{2,1,0} %add.105, f32[64,128,3072]{2,1,0} %multiply.241), metadata={op_type="erf" op_name="pmap(eval_step)/erf" source_file="/usr/local/lib/python3.8/dist-packages/transformers/models/roberta/modeling_flax_roberta.py" source_line=313}
  %constant_235 = f32[] constant(-5.69250624e-05), metadata={op_type="erf" op_name="pmap(eval_step)/erf" source_file="/usr/local/lib/python3.8/dist-packages/transformers/models/roberta/modeling_flax_roberta.py" source_line=313}
  %broadcast.957 = f32[64,128,3072]{2,1,0} broadcast(f32[] %constant_235), dimensions={}, metadata={op_type="erf" op_name="pmap(eval_step)/erf" source_file="/usr/local/lib/python3.8/dist-packages/transformers/models/roberta/modeling_flax_roberta.py" source_line=313}
  %add.104 = f32[64,128,3072]{2,1,0} add(f32[64,128,3072]{2,1,0} %multiply.237, f32[64,128,3072]{2,1,0} %broadcast.957), metadata={op_type="erf" op_name="pmap(eval_step)/erf" source_file="/usr/local/lib/python3.8/dist-packages/transformers/models/roberta/modeling_flax_roberta.py" source_line=313}
  %multiply.236 = f32[64,128,3072]{2,1,0} multiply(f32[64,128,3072]{2,1,0} %add.104, f32[64,128,3072]{2,1,0} %multiply.241), metadata={op_type="erf" op_name="pmap(eval_step)/erf" source_file="/usr/local/lib/python3.8/dist-packages/transformers/models/roberta/modeling_flax_roberta.py" source_line=313}
  %constant_236 = f32[] constant(-0.000734990637), metadata={op_type="erf" op_name="pmap(eval_step)/erf" source_file="/usr/local/lib/python3.8/dist-packages/transformers/models/roberta/modeling_flax_roberta.py" source_line=313}
  %broadcast.958 = f32[64,128,3072]{2,1,0} broadcast(f32[] %constant_236), dimensions={}, metadata={op_type="erf" op_name="pmap(eval_step)/erf" source_file="/usr/local/lib/python3.8/dist-packages/transformers/models/roberta/modeling_flax_roberta.py" source_line=313}
  %add.103 = f32[64,128,3072]{2,1,0} add(f32[64,128,3072]{2,1,0} %multiply.236, f32[64,128,3072]{2,1,0} %broadcast.958), metadata={op_type="erf" op_name="pmap(eval_step)/erf" source_file="/usr/local/lib/python3.8/dist-packages/transformers/models/roberta/modeling_flax_roberta.py" source_line=313}
  %multiply.235 = f32[64,128,3072]{2,1,0} multiply(f32[64,128,3072]{2,1,0} %add.103, f32[64,128,3072]{2,1,0} %multiply.241), metadata={op_type="erf" op_name="pmap(eval_step)/erf" source_file="/usr/local/lib/python3.8/dist-packages/transformers/models/roberta/modeling_flax_roberta.py" source_line=313}
  %constant_237 = f32[] constant(-0.0029546), metadata={op_type="erf" op_name="pmap(eval_step)/erf" source_file="/usr/local/lib/python3.8/dist-packages/transformers/models/roberta/modeling_flax_roberta.py" source_line=313}
  %broadcast.960 = f32[64,128,3072]{2,1,0} broadcast(f32[] %constant_237), dimensions={}, metadata={op_type="erf" op_name="pmap(eval_step)/erf" source_file="/usr/local/lib/python3.8/dist-packages/transformers/models/roberta/modeling_flax_roberta.py" source_line=313}
  %add.102 = f32[64,128,3072]{2,1,0} add(f32[64,128,3072]{2,1,0} %multiply.235, f32[64,128,3072]{2,1,0} %broadcast.960), metadata={op_type="erf" op_name="pmap(eval_step)/erf" source_file="/usr/local/lib/python3.8/dist-packages/transformers/models/roberta/modeling_flax_roberta.py" source_line=313}
  %multiply.234 = f32[64,128,3072]{2,1,0} multiply(f32[64,128,3072]{2,1,0} %add.102, f32[64,128,3072]{2,1,0} %multiply.241), metadata={op_type="erf" op_name="pmap(eval_step)/erf" source_file="/usr/local/lib/python3.8/dist-packages/transformers/models/roberta/modeling_flax_roberta.py" source_line=313}
  %constant_238 = f32[] constant(-0.0160960332), metadata={op_type="erf" op_name="pmap(eval_step)/erf" source_file="/usr/local/lib/python3.8/dist-packages/transformers/models/roberta/modeling_flax_roberta.py" source_line=313}
  %broadcast.962 = f32[64,128,3072]{2,1,0} broadcast(f32[] %constant_238), dimensions={}, metadata={op_type="erf" op_name="pmap(eval_step)/erf" source_file="/usr/local/lib/python3.8/dist-packages/transformers/models/roberta/modeling_flax_roberta.py" source_line=313}
  %add.101 = f32[64,128,3072]{2,1,0} add(f32[64,128,3072]{2,1,0} %multiply.234, f32[64,128,3072]{2,1,0} %broadcast.962), metadata={op_type="erf" op_name="pmap(eval_step)/erf" source_file="/usr/local/lib/python3.8/dist-packages/transformers/models/roberta/modeling_flax_roberta.py" source_line=313}
  %multiply.233 = f32[64,128,3072]{2,1,0} multiply(f32[64,128,3072]{2,1,0} %clamp.2, f32[64,128,3072]{2,1,0} %add.101), metadata={op_type="erf" op_name="pmap(eval_step)/erf" source_file="/usr/local/lib/python3.8/dist-packages/transformers/models/roberta/modeling_flax_roberta.py" source_line=313}
  %constant_239 = f32[] constant(-1.45660715e-05), metadata={op_type="erf" op_name="pmap(eval_step)/erf" source_file="/usr/local/lib/python3.8/dist-packages/transformers/models/roberta/modeling_flax_roberta.py" source_line=313}
  %broadcast.963 = f32[64,128,3072]{2,1,0} broadcast(f32[] %constant_239), dimensions={}, metadata={op_type="erf" op_name="pmap(eval_step)/erf" source_file="/usr/local/lib/python3.8/dist-packages/transformers/models/roberta/modeling_flax_roberta.py" source_line=313}
  %add.100 = f32[64,128,3072]{2,1,0} add(f32[64,128,3072]{2,1,0} %multiply.240, f32[64,128,3072]{2,1,0} %broadcast.963), metadata={op_type="erf" op_name="pmap(eval_step)/erf" source_file="/usr/local/lib/python3.8/dist-packages/transformers/models/roberta/modeling_flax_roberta.py" source_line=313}
  %multiply.232 = f32[64,128,3072]{2,1,0} multiply(f32[64,128,3072]{2,1,0} %add.100, f32[64,128,3072]{2,1,0} %multiply.241), metadata={op_type="erf" op_name="pmap(eval_step)/erf" source_file="/usr/local/lib/python3.8/dist-packages/transformers/models/roberta/modeling_flax_roberta.py" source_line=313}
  %constant_240 = f32[] constant(-0.000213374049), metadata={op_type="erf" op_name="pmap(eval_step)/erf" source_file="/usr/local/lib/python3.8/dist-packages/transformers/models/roberta/modeling_flax_roberta.py" source_line=313}
  %broadcast.964 = f32[64,128,3072]{2,1,0} broadcast(f32[] %constant_240), dimensions={}, metadata={op_type="erf" op_name="pmap(eval_step)/erf" source_file="/usr/local/lib/python3.8/dist-packages/transformers/models/roberta/modeling_flax_roberta.py" source_line=313}
  %add.99 = f32[64,128,3072]{2,1,0} add(f32[64,128,3072]{2,1,0} %multiply.232, f32[64,128,3072]{2,1,0} %broadcast.964), metadata={op_type="erf" op_name="pmap(eval_step)/erf" source_file="/usr/local/lib/python3.8/dist-packages/transformers/models/roberta/modeling_flax_roberta.py" source_line=313}
  %multiply.231 = f32[64,128,3072]{2,1,0} multiply(f32[64,128,3072]{2,1,0} %add.99, f32[64,128,3072]{2,1,0} %multiply.241), metadata={op_type="erf" op_name="pmap(eval_step)/erf" source_file="/usr/local/lib/python3.8/dist-packages/transformers/models/roberta/modeling_flax_roberta.py" source_line=313}
  %constant_241 = f32[] constant(-0.00168282702), metadata={op_type="erf" op_name="pmap(eval_step)/erf" source_file="/usr/local/lib/python3.8/dist-packages/transformers/models/roberta/modeling_flax_roberta.py" source_line=313}
  %broadcast.965 = f32[64,128,3072]{2,1,0} broadcast(f32[] %constant_241), dimensions={}, metadata={op_type="erf" op_name="pmap(eval_step)/erf" source_file="/usr/local/lib/python3.8/dist-packages/transformers/models/roberta/modeling_flax_roberta.py" source_line=313}
  %add.98 = f32[64,128,3072]{2,1,0} add(f32[64,128,3072]{2,1,0} %multiply.231, f32[64,128,3072]{2,1,0} %broadcast.965), metadata={op_type="erf" op_name="pmap(eval_step)/erf" source_file="/usr/local/lib/python3.8/dist-packages/transformers/models/roberta/modeling_flax_roberta.py" source_line=313}
  %multiply.230 = f32[64,128,3072]{2,1,0} multiply(f32[64,128,3072]{2,1,0} %add.98, f32[64,128,3072]{2,1,0} %multiply.241), metadata={op_type="erf" op_name="pmap(eval_step)/erf" source_file="/usr/local/lib/python3.8/dist-packages/transformers/models/roberta/modeling_flax_roberta.py" source_line=313}
  %constant_242 = f32[] constant(-0.00737332925), metadata={op_type="erf" op_name="pmap(eval_step)/erf" source_file="/usr/local/lib/python3.8/dist-packages/transformers/models/roberta/modeling_flax_roberta.py" source_line=313}
  %broadcast.966 = f32[64,128,3072]{2,1,0} broadcast(f32[] %constant_242), dimensions={}, metadata={op_type="erf" op_name="pmap(eval_step)/erf" source_file="/usr/local/lib/python3.8/dist-packages/transformers/models/roberta/modeling_flax_roberta.py" source_line=313}
  %add.97 = f32[64,128,3072]{2,1,0} add(f32[64,128,3072]{2,1,0} %multiply.230, f32[64,128,3072]{2,1,0} %broadcast.966), metadata={op_type="erf" op_name="pmap(eval_step)/erf" source_file="/usr/local/lib/python3.8/dist-packages/transformers/models/roberta/modeling_flax_roberta.py" source_line=313}
  %multiply.229 = f32[64,128,3072]{2,1,0} multiply(f32[64,128,3072]{2,1,0} %add.97, f32[64,128,3072]{2,1,0} %multiply.241), metadata={op_type="erf" op_name="pmap(eval_step)/erf" source_file="/usr/local/lib/python3.8/dist-packages/transformers/models/roberta/modeling_flax_roberta.py" source_line=313}
  %constant_243 = f32[] constant(-0.0142647391), metadata={op_type="erf" op_name="pmap(eval_step)/erf" source_file="/usr/local/lib/python3.8/dist-packages/transformers/models/roberta/modeling_flax_roberta.py" source_line=313}
  %broadcast.967 = f32[64,128,3072]{2,1,0} broadcast(f32[] %constant_243), dimensions={}, metadata={op_type="erf" op_name="pmap(eval_step)/erf" source_file="/usr/local/lib/python3.8/dist-packages/transformers/models/roberta/modeling_flax_roberta.py" source_line=313}
  %add.96 = f32[64,128,3072]{2,1,0} add(f32[64,128,3072]{2,1,0} %multiply.229, f32[64,128,3072]{2,1,0} %broadcast.967), metadata={op_type="erf" op_name="pmap(eval_step)/erf" source_file="/usr/local/lib/python3.8/dist-packages/transformers/models/roberta/modeling_flax_roberta.py" source_line=313}
  %divide.15 = f32[64,128,3072]{2,1,0} divide(f32[64,128,3072]{2,1,0} %multiply.233, f32[64,128,3072]{2,1,0} %add.96), metadata={op_type="erf" op_name="pmap(eval_step)/erf" source_file="/usr/local/lib/python3.8/dist-packages/transformers/models/roberta/modeling_flax_roberta.py" source_line=313}
  %constant_247 = f32[] constant(1), metadata={op_type="add" op_name="pmap(eval_step)/add" source_file="/usr/local/lib/python3.8/dist-packages/transformers/models/roberta/modeling_flax_roberta.py" source_line=313}
  %broadcast.968 = f32[64,128,3072]{2,1,0} broadcast(f32[] %constant_247), dimensions={}, metadata={op_type="add" op_name="pmap(eval_step)/add" source_file="/usr/local/lib/python3.8/dist-packages/transformers/models/roberta/modeling_flax_roberta.py" source_line=313}
  %add.95 = f32[64,128,3072]{2,1,0} add(f32[64,128,3072]{2,1,0} %divide.15, f32[64,128,3072]{2,1,0} %broadcast.968), metadata={op_type="add" op_name="pmap(eval_step)/add" source_file="/usr/local/lib/python3.8/dist-packages/transformers/models/roberta/modeling_flax_roberta.py" source_line=313}
  %multiply.228 = f32[64,128,3072]{2,1,0} multiply(f32[64,128,3072]{2,1,0} %add.108, f32[64,128,3072]{2,1,0} %add.95), metadata={op_type="mul" op_name="pmap(eval_step)/mul" source_file="/usr/local/lib/python3.8/dist-packages/transformers/models/roberta/modeling_flax_roberta.py" source_line=313}
  %constant_245 = f32[] constant(0.5)
  %broadcast.969 = f32[64,128,3072]{2,1,0} broadcast(f32[] %constant_245), dimensions={}
  %multiply.227 = f32[64,128,3072]{2,1,0} multiply(f32[64,128,3072]{2,1,0} %multiply.228, f32[64,128,3072]{2,1,0} %broadcast.969), metadata={op_type="div" op_name="pmap(eval_step)/div" source_file="/usr/local/lib/python3.8/dist-packages/transformers/models/roberta/modeling_flax_roberta.py" source_line=313}
  ROOT %bitcast.145 = f32[8192,3072]{1,0} bitcast(f32[64,128,3072]{2,1,0} %multiply.227)
}

%fused_computation.28 (param_0.70: f32[768], param_1.86: f32[768], param_2.337: f32[64,128], param_3.688: f32[64,128], param_4.583: f32[64,128,768], param_5.582: f32[768], param_6.497: f32[8192,768]) -> f32[64,128,768] {
  %param_6.497 = f32[8192,768]{1,0} parameter(6)
  %bitcast.359 = f32[64,128,768]{2,1,0} bitcast(f32[8192,768]{1,0} %param_6.497), metadata={op_type="dot_general" op_name="pmap(eval_step)/dot_general[ dimension_numbers=(((2,), (0,)), ((), ()))\n                             precision=None\n                             preferred_element_type=None ]" source_file="/usr/local/lib/python3.8/dist-packages/flax/linen/linear.py" source_line=175}
  %param_5.582 = f32[768]{0} parameter(5)
  %broadcast.1627 = f32[64,128,768]{2,1,0} broadcast(f32[768]{0} %param_5.582), dimensions={2}, metadata={op_type="add" op_name="pmap(eval_step)/add" source_file="/usr/local/lib/python3.8/dist-packages/flax/linen/linear.py" source_line=181}
  %add.764 = f32[64,128,768]{2,1,0} add(f32[64,128,768]{2,1,0} %bitcast.359, f32[64,128,768]{2,1,0} %broadcast.1627), metadata={op_type="add" op_name="pmap(eval_step)/add" source_file="/usr/local/lib/python3.8/dist-packages/flax/linen/linear.py" source_line=181}
  %param_4.583 = f32[64,128,768]{2,1,0} parameter(4)
  %add.763 = f32[64,128,768]{2,1,0} add(f32[64,128,768]{2,1,0} %add.764, f32[64,128,768]{2,1,0} %param_4.583), metadata={op_type="add" op_name="pmap(eval_step)/add" source_file="/usr/local/lib/python3.8/dist-packages/transformers/models/roberta/modeling_flax_roberta.py" source_line=267}
  %param_3.688 = f32[64,128]{1,0} parameter(3)
  %constant_249 = f32[] constant(0.00130208337)
  %broadcast.970 = f32[64,128]{1,0} broadcast(f32[] %constant_249), dimensions={}
  %multiply.247 = f32[64,128]{1,0} multiply(f32[64,128]{1,0} %param_3.688, f32[64,128]{1,0} %broadcast.970), metadata={op_type="div" op_name="pmap(eval_step)/div" source_file="/usr/local/lib/python3.8/dist-packages/flax/linen/normalization.py" source_line=185}
  %broadcast.671 = f32[64,128,768]{2,1,0} broadcast(f32[64,128]{1,0} %multiply.247), dimensions={0,1}, metadata={op_type="sub" op_name="pmap(eval_step)/sub" source_file="/usr/local/lib/python3.8/dist-packages/flax/linen/normalization.py" source_line=193}
  %subtract.38 = f32[64,128,768]{2,1,0} subtract(f32[64,128,768]{2,1,0} %add.763, f32[64,128,768]{2,1,0} %broadcast.671), metadata={op_type="sub" op_name="pmap(eval_step)/sub" source_file="/usr/local/lib/python3.8/dist-packages/flax/linen/normalization.py" source_line=193}
  %param_2.337 = f32[64,128]{1,0} parameter(2)
  %multiply.246 = f32[64,128]{1,0} multiply(f32[64,128]{1,0} %param_2.337, f32[64,128]{1,0} %broadcast.970), metadata={op_type="div" op_name="pmap(eval_step)/div" source_file="/usr/local/lib/python3.8/dist-packages/flax/linen/normalization.py" source_line=186}
  %multiply.245 = f32[64,128]{1,0} multiply(f32[64,128]{1,0} %multiply.247, f32[64,128]{1,0} %multiply.247), metadata={op_type="integer_pow" op_name="pmap(eval_step)/integer_pow[ y=2 ]" source_file="/usr/local/lib/python3.8/dist-packages/flax/linen/normalization.py" source_line=187}
  %subtract.37 = f32[64,128]{1,0} subtract(f32[64,128]{1,0} %multiply.246, f32[64,128]{1,0} %multiply.245), metadata={op_type="sub" op_name="pmap(eval_step)/sub" source_file="/usr/local/lib/python3.8/dist-packages/flax/linen/normalization.py" source_line=187}
  %constant_250 = f32[] constant(1e-05), metadata={op_type="add" op_name="pmap(eval_step)/add" source_file="/usr/local/lib/python3.8/dist-packages/flax/linen/normalization.py" source_line=188}
  %broadcast.971 = f32[64,128]{1,0} broadcast(f32[] %constant_250), dimensions={}, metadata={op_type="add" op_name="pmap(eval_step)/add" source_file="/usr/local/lib/python3.8/dist-packages/flax/linen/normalization.py" source_line=188}
  %add.110 = f32[64,128]{1,0} add(f32[64,128]{1,0} %subtract.37, f32[64,128]{1,0} %broadcast.971), metadata={op_type="add" op_name="pmap(eval_step)/add" source_file="/usr/local/lib/python3.8/dist-packages/flax/linen/normalization.py" source_line=188}
  %rsqrt.30 = f32[64,128]{1,0} rsqrt(f32[64,128]{1,0} %add.110), metadata={op_type="rsqrt" op_name="pmap(eval_step)/rsqrt" source_file="/usr/local/lib/python3.8/dist-packages/flax/linen/normalization.py" source_line=188}
  %broadcast.670 = f32[64,128,768]{2,1,0} broadcast(f32[64,128]{1,0} %rsqrt.30), dimensions={0,1}, metadata={op_type="mul" op_name="pmap(eval_step)/mul" source_file="/usr/local/lib/python3.8/dist-packages/flax/linen/normalization.py" source_line=190}
  %param_1.86 = f32[768]{0} parameter(1)
  %broadcast.668 = f32[64,128,768]{2,1,0} broadcast(f32[768]{0} %param_1.86), dimensions={2}, metadata={op_type="mul" op_name="pmap(eval_step)/mul" source_file="/usr/local/lib/python3.8/dist-packages/flax/linen/normalization.py" source_line=190}
  %multiply.244 = f32[64,128,768]{2,1,0} multiply(f32[64,128,768]{2,1,0} %broadcast.670, f32[64,128,768]{2,1,0} %broadcast.668), metadata={op_type="mul" op_name="pmap(eval_step)/mul" source_file="/usr/local/lib/python3.8/dist-packages/flax/linen/normalization.py" source_line=190}
  %multiply.243 = f32[64,128,768]{2,1,0} multiply(f32[64,128,768]{2,1,0} %subtract.38, f32[64,128,768]{2,1,0} %multiply.244), metadata={op_type="mul" op_name="pmap(eval_step)/mul" source_file="/usr/local/lib/python3.8/dist-packages/flax/linen/normalization.py" source_line=193}
  %param_0.70 = f32[768]{0} parameter(0)
  %broadcast.666 = f32[64,128,768]{2,1,0} broadcast(f32[768]{0} %param_0.70), dimensions={2}, metadata={op_type="add" op_name="pmap(eval_step)/add" source_file="/usr/local/lib/python3.8/dist-packages/flax/linen/normalization.py" source_line=195}
  ROOT %add.109 = f32[64,128,768]{2,1,0} add(f32[64,128,768]{2,1,0} %multiply.243, f32[64,128,768]{2,1,0} %broadcast.666), metadata={op_type="add" op_name="pmap(eval_step)/add" source_file="/usr/local/lib/python3.8/dist-packages/flax/linen/normalization.py" source_line=195}
}

%fused_computation.31 (param_0.77: f32[64,12,64,128]) -> f32[8192,768] {
  %param_0.77 = f32[64,12,64,128]{3,2,1,0} parameter(0)
  %transpose.212 = f32[64,128,12,64]{1,3,2,0} transpose(f32[64,12,64,128]{3,2,1,0} %param_0.77), dimensions={0,3,1,2}, metadata={op_type="transpose" op_name="pmap(eval_step)/jit(_einsum)/transpose[ permutation=(0, 3, 1, 2) ]" source_file="/usr/local/lib/python3.8/dist-packages/transformers/models/roberta/modeling_flax_roberta.py" source_line=243}
  %copy.25 = f32[64,128,12,64]{3,2,1,0} copy(f32[64,128,12,64]{1,3,2,0} %transpose.212), metadata={op_type="transpose" op_name="pmap(eval_step)/jit(_einsum)/transpose[ permutation=(0, 3, 1, 2) ]" source_file="/usr/local/lib/python3.8/dist-packages/transformers/models/roberta/modeling_flax_roberta.py" source_line=243}
  ROOT %bitcast.148 = f32[8192,768]{1,0} bitcast(f32[64,128,12,64]{3,2,1,0} %copy.25)
}

%fused_computation.32 (param_0.78: f32[64,12,128,128], param_1.93: f32[64,12,128]) -> f32[64,12,128,128] {
  %param_0.78 = f32[64,12,128,128]{3,2,1,0} parameter(0)
  %param_1.93 = f32[64,12,128]{2,1,0} parameter(1)
  %broadcast.675 = f32[64,12,128,128]{3,2,1,0} broadcast(f32[64,12,128]{2,1,0} %param_1.93), dimensions={0,1,2}, metadata={op_type="div" op_name="pmap(eval_step)/div" source_file="/usr/local/lib/python3.8/dist-packages/flax/linen/attention.py" source_line=91}
  ROOT %divide.16 = f32[64,12,128,128]{3,2,1,0} divide(f32[64,12,128,128]{3,2,1,0} %param_0.78, f32[64,12,128,128]{3,2,1,0} %broadcast.675), metadata={op_type="div" op_name="pmap(eval_step)/div" source_file="/usr/local/lib/python3.8/dist-packages/flax/linen/attention.py" source_line=91}
}

%fused_computation.34 (param_0.84: f32[768], param_1.98: f32[8192,768]) -> f32[64,12,64,128] {
  %param_1.98 = f32[8192,768]{1,0} parameter(1)
  %reshape.1037 = f32[64,128,768]{1,2,0} reshape(f32[8192,768]{1,0} %param_1.98), metadata={op_type="dot_general" op_name="pmap(eval_step)/dot_general[ dimension_numbers=(((2,), (0,)), ((), ()))\n                             precision=None\n                             preferred_element_type=None ]" source_file="/usr/local/lib/python3.8/dist-packages/flax/linen/linear.py" source_line=175}
  %param_0.84 = f32[768]{0} parameter(0)
  %broadcast.678 = f32[64,128,768]{1,2,0} broadcast(f32[768]{0} %param_0.84), dimensions={2}, metadata={op_type="add" op_name="pmap(eval_step)/add" source_file="/usr/local/lib/python3.8/dist-packages/flax/linen/linear.py" source_line=181}
  %add.113 = f32[64,128,768]{1,2,0} add(f32[64,128,768]{1,2,0} %reshape.1037, f32[64,128,768]{1,2,0} %broadcast.678), metadata={op_type="add" op_name="pmap(eval_step)/add" source_file="/usr/local/lib/python3.8/dist-packages/flax/linen/linear.py" source_line=181}
  %bitcast.149 = f32[64,128,12,64]{1,3,2,0} bitcast(f32[64,128,768]{1,2,0} %add.113), metadata={op_type="reshape" op_name="pmap(eval_step)/reshape[ dimensions=None\n                         new_sizes=(64, 128, 12, 64) ]" source_file="/usr/local/lib/python3.8/dist-packages/transformers/models/roberta/modeling_flax_roberta.py" source_line=211}
  ROOT %transpose.213 = f32[64,12,64,128]{3,2,1,0} transpose(f32[64,128,12,64]{1,3,2,0} %bitcast.149), dimensions={0,2,3,1}
}

%fused_computation.35 (param_0.473: f32[768], param_1.506: f32[8192,768]) -> f32[64,12,128,64] {
  %param_1.506 = f32[8192,768]{1,0} parameter(1)
  %bitcast.150 = f32[64,128,768]{2,1,0} bitcast(f32[8192,768]{1,0} %param_1.506), metadata={op_type="dot_general" op_name="pmap(eval_step)/dot_general[ dimension_numbers=(((2,), (0,)), ((), ()))\n                             precision=None\n                             preferred_element_type=None ]" source_file="/usr/local/lib/python3.8/dist-packages/flax/linen/linear.py" source_line=175}
  %param_0.473 = f32[768]{0} parameter(0)
  %broadcast.679 = f32[64,128,768]{2,1,0} broadcast(f32[768]{0} %param_0.473), dimensions={2}, metadata={op_type="add" op_name="pmap(eval_step)/add" source_file="/usr/local/lib/python3.8/dist-packages/flax/linen/linear.py" source_line=181}
  %add.114 = f32[64,128,768]{2,1,0} add(f32[64,128,768]{2,1,0} %bitcast.150, f32[64,128,768]{2,1,0} %broadcast.679), metadata={op_type="add" op_name="pmap(eval_step)/add" source_file="/usr/local/lib/python3.8/dist-packages/flax/linen/linear.py" source_line=181}
  %constant_252 = f32[] constant(0.125)
  %broadcast.972 = f32[64,128,768]{2,1,0} broadcast(f32[] %constant_252), dimensions={}
  %multiply.249 = f32[64,128,768]{2,1,0} multiply(f32[64,128,768]{2,1,0} %add.114, f32[64,128,768]{2,1,0} %broadcast.972), metadata={op_type="div" op_name="pmap(eval_step)/div" source_file="/usr/local/lib/python3.8/dist-packages/flax/linen/attention.py" source_line=81}
  %reshape.1038 = f32[64,128,12,64]{3,1,2,0} reshape(f32[64,128,768]{2,1,0} %multiply.249), metadata={op_type="div" op_name="pmap(eval_step)/div" source_file="/usr/local/lib/python3.8/dist-packages/flax/linen/attention.py" source_line=81}
  ROOT %transpose.214 = f32[64,12,128,64]{3,2,1,0} transpose(f32[64,128,12,64]{3,1,2,0} %reshape.1038), dimensions={0,2,1,3}
}

%fused_computation.36 (param_0.92: f32[768], param_1.104: f32[8192,768]) -> f32[64,12,64,128] {
  %param_1.104 = f32[8192,768]{1,0} parameter(1)
  %reshape.1039 = f32[64,128,768]{1,2,0} reshape(f32[8192,768]{1,0} %param_1.104), metadata={op_type="dot_general" op_name="pmap(eval_step)/dot_general[ dimension_numbers=(((2,), (0,)), ((), ()))\n                             precision=None\n                             preferred_element_type=None ]" source_file="/usr/local/lib/python3.8/dist-packages/flax/linen/linear.py" source_line=175}
  %param_0.92 = f32[768]{0} parameter(0)
  %broadcast.681 = f32[64,128,768]{1,2,0} broadcast(f32[768]{0} %param_0.92), dimensions={2}, metadata={op_type="add" op_name="pmap(eval_step)/add" source_file="/usr/local/lib/python3.8/dist-packages/flax/linen/linear.py" source_line=181}
  %add.115 = f32[64,128,768]{1,2,0} add(f32[64,128,768]{1,2,0} %reshape.1039, f32[64,128,768]{1,2,0} %broadcast.681), metadata={op_type="add" op_name="pmap(eval_step)/add" source_file="/usr/local/lib/python3.8/dist-packages/flax/linen/linear.py" source_line=181}
  %bitcast.151 = f32[64,128,12,64]{1,3,2,0} bitcast(f32[64,128,768]{1,2,0} %add.115), metadata={op_type="reshape" op_name="pmap(eval_step)/reshape[ dimensions=None\n                         new_sizes=(64, 128, 12, 64) ]" source_file="/usr/local/lib/python3.8/dist-packages/transformers/models/roberta/modeling_flax_roberta.py" source_line=208}
  ROOT %transpose.215 = f32[64,12,64,128]{3,2,1,0} transpose(f32[64,128,12,64]{1,3,2,0} %bitcast.151), dimensions={0,2,3,1}
}

%fused_computation.37 (param_0.94: f32[768], param_1.108: f32[768], param_2.339: f32[64,128], param_3.684: f32[64,128], param_4.581: f32[64,128,768], param_5.579: f32[768], param_6.494: f32[8192,768]) -> f32[64,128,768] {
  %param_6.494 = f32[8192,768]{1,0} parameter(6)
  %bitcast.353 = f32[64,128,768]{2,1,0} bitcast(f32[8192,768]{1,0} %param_6.494), metadata={op_type="dot_general" op_name="pmap(eval_step)/dot_general[ dimension_numbers=(((2,), (0,)), ((), ()))\n                             precision=None\n                             preferred_element_type=None ]" source_file="/usr/local/lib/python3.8/dist-packages/flax/linen/linear.py" source_line=175}
  %param_5.579 = f32[768]{0} parameter(5)
  %broadcast.1617 = f32[64,128,768]{2,1,0} broadcast(f32[768]{0} %param_5.579), dimensions={2}, metadata={op_type="add" op_name="pmap(eval_step)/add" source_file="/usr/local/lib/python3.8/dist-packages/flax/linen/linear.py" source_line=181}
  %add.751 = f32[64,128,768]{2,1,0} add(f32[64,128,768]{2,1,0} %bitcast.353, f32[64,128,768]{2,1,0} %broadcast.1617), metadata={op_type="add" op_name="pmap(eval_step)/add" source_file="/usr/local/lib/python3.8/dist-packages/flax/linen/linear.py" source_line=181}
  %param_4.581 = f32[64,128,768]{2,1,0} parameter(4)
  %add.749 = f32[64,128,768]{2,1,0} add(f32[64,128,768]{2,1,0} %add.751, f32[64,128,768]{2,1,0} %param_4.581), metadata={op_type="add" op_name="pmap(eval_step)/add" source_file="/usr/local/lib/python3.8/dist-packages/transformers/models/roberta/modeling_flax_roberta.py" source_line=334}
  %param_3.684 = f32[64,128]{1,0} parameter(3)
  %constant_253 = f32[] constant(0.00130208337)
  %broadcast.973 = f32[64,128]{1,0} broadcast(f32[] %constant_253), dimensions={}
  %multiply.254 = f32[64,128]{1,0} multiply(f32[64,128]{1,0} %param_3.684, f32[64,128]{1,0} %broadcast.973), metadata={op_type="div" op_name="pmap(eval_step)/div" source_file="/usr/local/lib/python3.8/dist-packages/flax/linen/normalization.py" source_line=185}
  %broadcast.686 = f32[64,128,768]{2,1,0} broadcast(f32[64,128]{1,0} %multiply.254), dimensions={0,1}, metadata={op_type="sub" op_name="pmap(eval_step)/sub" source_file="/usr/local/lib/python3.8/dist-packages/flax/linen/normalization.py" source_line=193}
  %subtract.41 = f32[64,128,768]{2,1,0} subtract(f32[64,128,768]{2,1,0} %add.749, f32[64,128,768]{2,1,0} %broadcast.686), metadata={op_type="sub" op_name="pmap(eval_step)/sub" source_file="/usr/local/lib/python3.8/dist-packages/flax/linen/normalization.py" source_line=193}
  %param_2.339 = f32[64,128]{1,0} parameter(2)
  %multiply.253 = f32[64,128]{1,0} multiply(f32[64,128]{1,0} %param_2.339, f32[64,128]{1,0} %broadcast.973), metadata={op_type="div" op_name="pmap(eval_step)/div" source_file="/usr/local/lib/python3.8/dist-packages/flax/linen/normalization.py" source_line=186}
  %multiply.252 = f32[64,128]{1,0} multiply(f32[64,128]{1,0} %multiply.254, f32[64,128]{1,0} %multiply.254), metadata={op_type="integer_pow" op_name="pmap(eval_step)/integer_pow[ y=2 ]" source_file="/usr/local/lib/python3.8/dist-packages/flax/linen/normalization.py" source_line=187}
  %subtract.40 = f32[64,128]{1,0} subtract(f32[64,128]{1,0} %multiply.253, f32[64,128]{1,0} %multiply.252), metadata={op_type="sub" op_name="pmap(eval_step)/sub" source_file="/usr/local/lib/python3.8/dist-packages/flax/linen/normalization.py" source_line=187}
  %constant_255 = f32[] constant(1e-05), metadata={op_type="add" op_name="pmap(eval_step)/add" source_file="/usr/local/lib/python3.8/dist-packages/flax/linen/normalization.py" source_line=188}
  %broadcast.975 = f32[64,128]{1,0} broadcast(f32[] %constant_255), dimensions={}, metadata={op_type="add" op_name="pmap(eval_step)/add" source_file="/usr/local/lib/python3.8/dist-packages/flax/linen/normalization.py" source_line=188}
  %add.117 = f32[64,128]{1,0} add(f32[64,128]{1,0} %subtract.40, f32[64,128]{1,0} %broadcast.975), metadata={op_type="add" op_name="pmap(eval_step)/add" source_file="/usr/local/lib/python3.8/dist-packages/flax/linen/normalization.py" source_line=188}
  %rsqrt.31 = f32[64,128]{1,0} rsqrt(f32[64,128]{1,0} %add.117), metadata={op_type="rsqrt" op_name="pmap(eval_step)/rsqrt" source_file="/usr/local/lib/python3.8/dist-packages/flax/linen/normalization.py" source_line=188}
  %broadcast.684 = f32[64,128,768]{2,1,0} broadcast(f32[64,128]{1,0} %rsqrt.31), dimensions={0,1}, metadata={op_type="mul" op_name="pmap(eval_step)/mul" source_file="/usr/local/lib/python3.8/dist-packages/flax/linen/normalization.py" source_line=190}
  %param_1.108 = f32[768]{0} parameter(1)
  %broadcast.683 = f32[64,128,768]{2,1,0} broadcast(f32[768]{0} %param_1.108), dimensions={2}, metadata={op_type="mul" op_name="pmap(eval_step)/mul" source_file="/usr/local/lib/python3.8/dist-packages/flax/linen/normalization.py" source_line=190}
  %multiply.251 = f32[64,128,768]{2,1,0} multiply(f32[64,128,768]{2,1,0} %broadcast.684, f32[64,128,768]{2,1,0} %broadcast.683), metadata={op_type="mul" op_name="pmap(eval_step)/mul" source_file="/usr/local/lib/python3.8/dist-packages/flax/linen/normalization.py" source_line=190}
  %multiply.250 = f32[64,128,768]{2,1,0} multiply(f32[64,128,768]{2,1,0} %subtract.41, f32[64,128,768]{2,1,0} %multiply.251), metadata={op_type="mul" op_name="pmap(eval_step)/mul" source_file="/usr/local/lib/python3.8/dist-packages/flax/linen/normalization.py" source_line=193}
  %param_0.94 = f32[768]{0} parameter(0)
  %broadcast.682 = f32[64,128,768]{2,1,0} broadcast(f32[768]{0} %param_0.94), dimensions={2}, metadata={op_type="add" op_name="pmap(eval_step)/add" source_file="/usr/local/lib/python3.8/dist-packages/flax/linen/normalization.py" source_line=195}
  ROOT %add.116 = f32[64,128,768]{2,1,0} add(f32[64,128,768]{2,1,0} %multiply.250, f32[64,128,768]{2,1,0} %broadcast.682), metadata={op_type="add" op_name="pmap(eval_step)/add" source_file="/usr/local/lib/python3.8/dist-packages/flax/linen/normalization.py" source_line=195}
}

%fused_computation.40 (param_0.475: f32[3072], param_1.508: f32[8192,3072]) -> f32[8192,3072] {
  %param_1.508 = f32[8192,3072]{1,0} parameter(1)
  %bitcast.154 = f32[64,128,3072]{2,1,0} bitcast(f32[8192,3072]{1,0} %param_1.508), metadata={op_type="dot_general" op_name="pmap(eval_step)/dot_general[ dimension_numbers=(((2,), (0,)), ((), ()))\n                             precision=None\n                             preferred_element_type=None ]" source_file="/usr/local/lib/python3.8/dist-packages/flax/linen/linear.py" source_line=175}
  %param_0.475 = f32[3072]{0} parameter(0)
  %broadcast.688 = f32[64,128,3072]{2,1,0} broadcast(f32[3072]{0} %param_0.475), dimensions={2}, metadata={op_type="add" op_name="pmap(eval_step)/add" source_file="/usr/local/lib/python3.8/dist-packages/flax/linen/linear.py" source_line=181}
  %add.133 = f32[64,128,3072]{2,1,0} add(f32[64,128,3072]{2,1,0} %bitcast.154, f32[64,128,3072]{2,1,0} %broadcast.688), metadata={op_type="add" op_name="pmap(eval_step)/add" source_file="/usr/local/lib/python3.8/dist-packages/flax/linen/linear.py" source_line=181}
  %constant_258 = f32[] constant(-4), metadata={op_type="erf" op_name="pmap(eval_step)/erf" source_file="/usr/local/lib/python3.8/dist-packages/transformers/models/roberta/modeling_flax_roberta.py" source_line=313}
  %broadcast.979 = f32[64,128,3072]{2,1,0} broadcast(f32[] %constant_258), dimensions={}, metadata={op_type="erf" op_name="pmap(eval_step)/erf" source_file="/usr/local/lib/python3.8/dist-packages/transformers/models/roberta/modeling_flax_roberta.py" source_line=313}
  %constant_259 = f32[] constant(0.707106769)
  %broadcast.977 = f32[64,128,3072]{2,1,0} broadcast(f32[] %constant_259), dimensions={}
  %multiply.271 = f32[64,128,3072]{2,1,0} multiply(f32[64,128,3072]{2,1,0} %add.133, f32[64,128,3072]{2,1,0} %broadcast.977), metadata={op_type="div" op_name="pmap(eval_step)/div" source_file="/usr/local/lib/python3.8/dist-packages/transformers/models/roberta/modeling_flax_roberta.py" source_line=313}
  %constant_260 = f32[] constant(4), metadata={op_type="erf" op_name="pmap(eval_step)/erf" source_file="/usr/local/lib/python3.8/dist-packages/transformers/models/roberta/modeling_flax_roberta.py" source_line=313}
  %broadcast.978 = f32[64,128,3072]{2,1,0} broadcast(f32[] %constant_260), dimensions={}, metadata={op_type="erf" op_name="pmap(eval_step)/erf" source_file="/usr/local/lib/python3.8/dist-packages/transformers/models/roberta/modeling_flax_roberta.py" source_line=313}
  %clamp.3 = f32[64,128,3072]{2,1,0} clamp(f32[64,128,3072]{2,1,0} %broadcast.979, f32[64,128,3072]{2,1,0} %multiply.271, f32[64,128,3072]{2,1,0} %broadcast.978), metadata={op_type="erf" op_name="pmap(eval_step)/erf" source_file="/usr/local/lib/python3.8/dist-packages/transformers/models/roberta/modeling_flax_roberta.py" source_line=313}
  %constant_279 = f32[] constant(0), metadata={op_type="reduce_sum" op_name="pmap(eval_step)/reduce_sum[ axes=(2,) ]" source_file="/usr/local/lib/python3.8/dist-packages/flax/linen/normalization.py" source_line=185}
  %broadcast.980 = f32[64,128,3072]{2,1,0} broadcast(f32[] %constant_279), dimensions={}, metadata={op_type="erf" op_name="pmap(eval_step)/erf" source_file="/usr/local/lib/python3.8/dist-packages/transformers/models/roberta/modeling_flax_roberta.py" source_line=313}
  %multiply.270 = f32[64,128,3072]{2,1,0} multiply(f32[64,128,3072]{2,1,0} %clamp.3, f32[64,128,3072]{2,1,0} %clamp.3), metadata={op_type="erf" op_name="pmap(eval_step)/erf" source_file="/usr/local/lib/python3.8/dist-packages/transformers/models/roberta/modeling_flax_roberta.py" source_line=313}
  %multiply.269 = f32[64,128,3072]{2,1,0} multiply(f32[64,128,3072]{2,1,0} %broadcast.980, f32[64,128,3072]{2,1,0} %multiply.270), metadata={op_type="erf" op_name="pmap(eval_step)/erf" source_file="/usr/local/lib/python3.8/dist-packages/transformers/models/roberta/modeling_flax_roberta.py" source_line=313}
  %constant_261 = f32[] constant(-2.72614237e-10), metadata={op_type="erf" op_name="pmap(eval_step)/erf" source_file="/usr/local/lib/python3.8/dist-packages/transformers/models/roberta/modeling_flax_roberta.py" source_line=313}
  %broadcast.981 = f32[64,128,3072]{2,1,0} broadcast(f32[] %constant_261), dimensions={}, metadata={op_type="erf" op_name="pmap(eval_step)/erf" source_file="/usr/local/lib/python3.8/dist-packages/transformers/models/roberta/modeling_flax_roberta.py" source_line=313}
  %add.132 = f32[64,128,3072]{2,1,0} add(f32[64,128,3072]{2,1,0} %multiply.269, f32[64,128,3072]{2,1,0} %broadcast.981), metadata={op_type="erf" op_name="pmap(eval_step)/erf" source_file="/usr/local/lib/python3.8/dist-packages/transformers/models/roberta/modeling_flax_roberta.py" source_line=313}
  %multiply.268 = f32[64,128,3072]{2,1,0} multiply(f32[64,128,3072]{2,1,0} %add.132, f32[64,128,3072]{2,1,0} %multiply.270), metadata={op_type="erf" op_name="pmap(eval_step)/erf" source_file="/usr/local/lib/python3.8/dist-packages/transformers/models/roberta/modeling_flax_roberta.py" source_line=313}
  %constant_262 = f32[] constant(2.77068146e-08), metadata={op_type="erf" op_name="pmap(eval_step)/erf" source_file="/usr/local/lib/python3.8/dist-packages/transformers/models/roberta/modeling_flax_roberta.py" source_line=313}
  %broadcast.982 = f32[64,128,3072]{2,1,0} broadcast(f32[] %constant_262), dimensions={}, metadata={op_type="erf" op_name="pmap(eval_step)/erf" source_file="/usr/local/lib/python3.8/dist-packages/transformers/models/roberta/modeling_flax_roberta.py" source_line=313}
  %add.131 = f32[64,128,3072]{2,1,0} add(f32[64,128,3072]{2,1,0} %multiply.268, f32[64,128,3072]{2,1,0} %broadcast.982), metadata={op_type="erf" op_name="pmap(eval_step)/erf" source_file="/usr/local/lib/python3.8/dist-packages/transformers/models/roberta/modeling_flax_roberta.py" source_line=313}
  %multiply.267 = f32[64,128,3072]{2,1,0} multiply(f32[64,128,3072]{2,1,0} %add.131, f32[64,128,3072]{2,1,0} %multiply.270), metadata={op_type="erf" op_name="pmap(eval_step)/erf" source_file="/usr/local/lib/python3.8/dist-packages/transformers/models/roberta/modeling_flax_roberta.py" source_line=313}
  %constant_263 = f32[] constant(-2.10102394e-06), metadata={op_type="erf" op_name="pmap(eval_step)/erf" source_file="/usr/local/lib/python3.8/dist-packages/transformers/models/roberta/modeling_flax_roberta.py" source_line=313}
  %broadcast.983 = f32[64,128,3072]{2,1,0} broadcast(f32[] %constant_263), dimensions={}, metadata={op_type="erf" op_name="pmap(eval_step)/erf" source_file="/usr/local/lib/python3.8/dist-packages/transformers/models/roberta/modeling_flax_roberta.py" source_line=313}
  %add.130 = f32[64,128,3072]{2,1,0} add(f32[64,128,3072]{2,1,0} %multiply.267, f32[64,128,3072]{2,1,0} %broadcast.983), metadata={op_type="erf" op_name="pmap(eval_step)/erf" source_file="/usr/local/lib/python3.8/dist-packages/transformers/models/roberta/modeling_flax_roberta.py" source_line=313}
  %multiply.266 = f32[64,128,3072]{2,1,0} multiply(f32[64,128,3072]{2,1,0} %add.130, f32[64,128,3072]{2,1,0} %multiply.270), metadata={op_type="erf" op_name="pmap(eval_step)/erf" source_file="/usr/local/lib/python3.8/dist-packages/transformers/models/roberta/modeling_flax_roberta.py" source_line=313}
  %constant_265 = f32[] constant(-5.69250624e-05), metadata={op_type="erf" op_name="pmap(eval_step)/erf" source_file="/usr/local/lib/python3.8/dist-packages/transformers/models/roberta/modeling_flax_roberta.py" source_line=313}
  %broadcast.984 = f32[64,128,3072]{2,1,0} broadcast(f32[] %constant_265), dimensions={}, metadata={op_type="erf" op_name="pmap(eval_step)/erf" source_file="/usr/local/lib/python3.8/dist-packages/transformers/models/roberta/modeling_flax_roberta.py" source_line=313}
  %add.129 = f32[64,128,3072]{2,1,0} add(f32[64,128,3072]{2,1,0} %multiply.266, f32[64,128,3072]{2,1,0} %broadcast.984), metadata={op_type="erf" op_name="pmap(eval_step)/erf" source_file="/usr/local/lib/python3.8/dist-packages/transformers/models/roberta/modeling_flax_roberta.py" source_line=313}
  %multiply.265 = f32[64,128,3072]{2,1,0} multiply(f32[64,128,3072]{2,1,0} %add.129, f32[64,128,3072]{2,1,0} %multiply.270), metadata={op_type="erf" op_name="pmap(eval_step)/erf" source_file="/usr/local/lib/python3.8/dist-packages/transformers/models/roberta/modeling_flax_roberta.py" source_line=313}
  %constant_267 = f32[] constant(-0.000734990637), metadata={op_type="erf" op_name="pmap(eval_step)/erf" source_file="/usr/local/lib/python3.8/dist-packages/transformers/models/roberta/modeling_flax_roberta.py" source_line=313}
  %broadcast.986 = f32[64,128,3072]{2,1,0} broadcast(f32[] %constant_267), dimensions={}, metadata={op_type="erf" op_name="pmap(eval_step)/erf" source_file="/usr/local/lib/python3.8/dist-packages/transformers/models/roberta/modeling_flax_roberta.py" source_line=313}
  %add.128 = f32[64,128,3072]{2,1,0} add(f32[64,128,3072]{2,1,0} %multiply.265, f32[64,128,3072]{2,1,0} %broadcast.986), metadata={op_type="erf" op_name="pmap(eval_step)/erf" source_file="/usr/local/lib/python3.8/dist-packages/transformers/models/roberta/modeling_flax_roberta.py" source_line=313}
  %multiply.264 = f32[64,128,3072]{2,1,0} multiply(f32[64,128,3072]{2,1,0} %add.128, f32[64,128,3072]{2,1,0} %multiply.270), metadata={op_type="erf" op_name="pmap(eval_step)/erf" source_file="/usr/local/lib/python3.8/dist-packages/transformers/models/roberta/modeling_flax_roberta.py" source_line=313}
  %constant_268 = f32[] constant(-0.0029546), metadata={op_type="erf" op_name="pmap(eval_step)/erf" source_file="/usr/local/lib/python3.8/dist-packages/transformers/models/roberta/modeling_flax_roberta.py" source_line=313}
  %broadcast.988 = f32[64,128,3072]{2,1,0} broadcast(f32[] %constant_268), dimensions={}, metadata={op_type="erf" op_name="pmap(eval_step)/erf" source_file="/usr/local/lib/python3.8/dist-packages/transformers/models/roberta/modeling_flax_roberta.py" source_line=313}
  %add.127 = f32[64,128,3072]{2,1,0} add(f32[64,128,3072]{2,1,0} %multiply.264, f32[64,128,3072]{2,1,0} %broadcast.988), metadata={op_type="erf" op_name="pmap(eval_step)/erf" source_file="/usr/local/lib/python3.8/dist-packages/transformers/models/roberta/modeling_flax_roberta.py" source_line=313}
  %multiply.263 = f32[64,128,3072]{2,1,0} multiply(f32[64,128,3072]{2,1,0} %add.127, f32[64,128,3072]{2,1,0} %multiply.270), metadata={op_type="erf" op_name="pmap(eval_step)/erf" source_file="/usr/local/lib/python3.8/dist-packages/transformers/models/roberta/modeling_flax_roberta.py" source_line=313}
  %constant_269 = f32[] constant(-0.0160960332), metadata={op_type="erf" op_name="pmap(eval_step)/erf" source_file="/usr/local/lib/python3.8/dist-packages/transformers/models/roberta/modeling_flax_roberta.py" source_line=313}
  %broadcast.989 = f32[64,128,3072]{2,1,0} broadcast(f32[] %constant_269), dimensions={}, metadata={op_type="erf" op_name="pmap(eval_step)/erf" source_file="/usr/local/lib/python3.8/dist-packages/transformers/models/roberta/modeling_flax_roberta.py" source_line=313}
  %add.126 = f32[64,128,3072]{2,1,0} add(f32[64,128,3072]{2,1,0} %multiply.263, f32[64,128,3072]{2,1,0} %broadcast.989), metadata={op_type="erf" op_name="pmap(eval_step)/erf" source_file="/usr/local/lib/python3.8/dist-packages/transformers/models/roberta/modeling_flax_roberta.py" source_line=313}
  %multiply.262 = f32[64,128,3072]{2,1,0} multiply(f32[64,128,3072]{2,1,0} %clamp.3, f32[64,128,3072]{2,1,0} %add.126), metadata={op_type="erf" op_name="pmap(eval_step)/erf" source_file="/usr/local/lib/python3.8/dist-packages/transformers/models/roberta/modeling_flax_roberta.py" source_line=313}
  %constant_270 = f32[] constant(-1.45660715e-05), metadata={op_type="erf" op_name="pmap(eval_step)/erf" source_file="/usr/local/lib/python3.8/dist-packages/transformers/models/roberta/modeling_flax_roberta.py" source_line=313}
  %broadcast.990 = f32[64,128,3072]{2,1,0} broadcast(f32[] %constant_270), dimensions={}, metadata={op_type="erf" op_name="pmap(eval_step)/erf" source_file="/usr/local/lib/python3.8/dist-packages/transformers/models/roberta/modeling_flax_roberta.py" source_line=313}
  %add.125 = f32[64,128,3072]{2,1,0} add(f32[64,128,3072]{2,1,0} %multiply.269, f32[64,128,3072]{2,1,0} %broadcast.990), metadata={op_type="erf" op_name="pmap(eval_step)/erf" source_file="/usr/local/lib/python3.8/dist-packages/transformers/models/roberta/modeling_flax_roberta.py" source_line=313}
  %multiply.261 = f32[64,128,3072]{2,1,0} multiply(f32[64,128,3072]{2,1,0} %add.125, f32[64,128,3072]{2,1,0} %multiply.270), metadata={op_type="erf" op_name="pmap(eval_step)/erf" source_file="/usr/local/lib/python3.8/dist-packages/transformers/models/roberta/modeling_flax_roberta.py" source_line=313}
  %constant_271 = f32[] constant(-0.000213374049), metadata={op_type="erf" op_name="pmap(eval_step)/erf" source_file="/usr/local/lib/python3.8/dist-packages/transformers/models/roberta/modeling_flax_roberta.py" source_line=313}
  %broadcast.991 = f32[64,128,3072]{2,1,0} broadcast(f32[] %constant_271), dimensions={}, metadata={op_type="erf" op_name="pmap(eval_step)/erf" source_file="/usr/local/lib/python3.8/dist-packages/transformers/models/roberta/modeling_flax_roberta.py" source_line=313}
  %add.124 = f32[64,128,3072]{2,1,0} add(f32[64,128,3072]{2,1,0} %multiply.261, f32[64,128,3072]{2,1,0} %broadcast.991), metadata={op_type="erf" op_name="pmap(eval_step)/erf" source_file="/usr/local/lib/python3.8/dist-packages/transformers/models/roberta/modeling_flax_roberta.py" source_line=313}
  %multiply.260 = f32[64,128,3072]{2,1,0} multiply(f32[64,128,3072]{2,1,0} %add.124, f32[64,128,3072]{2,1,0} %multiply.270), metadata={op_type="erf" op_name="pmap(eval_step)/erf" source_file="/usr/local/lib/python3.8/dist-packages/transformers/models/roberta/modeling_flax_roberta.py" source_line=313}
  %constant_272 = f32[] constant(-0.00168282702), metadata={op_type="erf" op_name="pmap(eval_step)/erf" source_file="/usr/local/lib/python3.8/dist-packages/transformers/models/roberta/modeling_flax_roberta.py" source_line=313}
  %broadcast.992 = f32[64,128,3072]{2,1,0} broadcast(f32[] %constant_272), dimensions={}, metadata={op_type="erf" op_name="pmap(eval_step)/erf" source_file="/usr/local/lib/python3.8/dist-packages/transformers/models/roberta/modeling_flax_roberta.py" source_line=313}
  %add.123 = f32[64,128,3072]{2,1,0} add(f32[64,128,3072]{2,1,0} %multiply.260, f32[64,128,3072]{2,1,0} %broadcast.992), metadata={op_type="erf" op_name="pmap(eval_step)/erf" source_file="/usr/local/lib/python3.8/dist-packages/transformers/models/roberta/modeling_flax_roberta.py" source_line=313}
  %multiply.259 = f32[64,128,3072]{2,1,0} multiply(f32[64,128,3072]{2,1,0} %add.123, f32[64,128,3072]{2,1,0} %multiply.270), metadata={op_type="erf" op_name="pmap(eval_step)/erf" source_file="/usr/local/lib/python3.8/dist-packages/transformers/models/roberta/modeling_flax_roberta.py" source_line=313}
  %constant_273 = f32[] constant(-0.00737332925), metadata={op_type="erf" op_name="pmap(eval_step)/erf" source_file="/usr/local/lib/python3.8/dist-packages/transformers/models/roberta/modeling_flax_roberta.py" source_line=313}
  %broadcast.993 = f32[64,128,3072]{2,1,0} broadcast(f32[] %constant_273), dimensions={}, metadata={op_type="erf" op_name="pmap(eval_step)/erf" source_file="/usr/local/lib/python3.8/dist-packages/transformers/models/roberta/modeling_flax_roberta.py" source_line=313}
  %add.122 = f32[64,128,3072]{2,1,0} add(f32[64,128,3072]{2,1,0} %multiply.259, f32[64,128,3072]{2,1,0} %broadcast.993), metadata={op_type="erf" op_name="pmap(eval_step)/erf" source_file="/usr/local/lib/python3.8/dist-packages/transformers/models/roberta/modeling_flax_roberta.py" source_line=313}
  %multiply.258 = f32[64,128,3072]{2,1,0} multiply(f32[64,128,3072]{2,1,0} %add.122, f32[64,128,3072]{2,1,0} %multiply.270), metadata={op_type="erf" op_name="pmap(eval_step)/erf" source_file="/usr/local/lib/python3.8/dist-packages/transformers/models/roberta/modeling_flax_roberta.py" source_line=313}
  %constant_275 = f32[] constant(-0.0142647391), metadata={op_type="erf" op_name="pmap(eval_step)/erf" source_file="/usr/local/lib/python3.8/dist-packages/transformers/models/roberta/modeling_flax_roberta.py" source_line=313}
  %broadcast.994 = f32[64,128,3072]{2,1,0} broadcast(f32[] %constant_275), dimensions={}, metadata={op_type="erf" op_name="pmap(eval_step)/erf" source_file="/usr/local/lib/python3.8/dist-packages/transformers/models/roberta/modeling_flax_roberta.py" source_line=313}
  %add.121 = f32[64,128,3072]{2,1,0} add(f32[64,128,3072]{2,1,0} %multiply.258, f32[64,128,3072]{2,1,0} %broadcast.994), metadata={op_type="erf" op_name="pmap(eval_step)/erf" source_file="/usr/local/lib/python3.8/dist-packages/transformers/models/roberta/modeling_flax_roberta.py" source_line=313}
  %divide.17 = f32[64,128,3072]{2,1,0} divide(f32[64,128,3072]{2,1,0} %multiply.262, f32[64,128,3072]{2,1,0} %add.121), metadata={op_type="erf" op_name="pmap(eval_step)/erf" source_file="/usr/local/lib/python3.8/dist-packages/transformers/models/roberta/modeling_flax_roberta.py" source_line=313}
  %constant_278 = f32[] constant(1), metadata={op_type="add" op_name="pmap(eval_step)/add" source_file="/usr/local/lib/python3.8/dist-packages/transformers/models/roberta/modeling_flax_roberta.py" source_line=313}
  %broadcast.995 = f32[64,128,3072]{2,1,0} broadcast(f32[] %constant_278), dimensions={}, metadata={op_type="add" op_name="pmap(eval_step)/add" source_file="/usr/local/lib/python3.8/dist-packages/transformers/models/roberta/modeling_flax_roberta.py" source_line=313}
  %add.120 = f32[64,128,3072]{2,1,0} add(f32[64,128,3072]{2,1,0} %divide.17, f32[64,128,3072]{2,1,0} %broadcast.995), metadata={op_type="add" op_name="pmap(eval_step)/add" source_file="/usr/local/lib/python3.8/dist-packages/transformers/models/roberta/modeling_flax_roberta.py" source_line=313}
  %multiply.257 = f32[64,128,3072]{2,1,0} multiply(f32[64,128,3072]{2,1,0} %add.133, f32[64,128,3072]{2,1,0} %add.120), metadata={op_type="mul" op_name="pmap(eval_step)/mul" source_file="/usr/local/lib/python3.8/dist-packages/transformers/models/roberta/modeling_flax_roberta.py" source_line=313}
  %constant_277 = f32[] constant(0.5)
  %broadcast.997 = f32[64,128,3072]{2,1,0} broadcast(f32[] %constant_277), dimensions={}
  %multiply.256 = f32[64,128,3072]{2,1,0} multiply(f32[64,128,3072]{2,1,0} %multiply.257, f32[64,128,3072]{2,1,0} %broadcast.997), metadata={op_type="div" op_name="pmap(eval_step)/div" source_file="/usr/local/lib/python3.8/dist-packages/transformers/models/roberta/modeling_flax_roberta.py" source_line=313}
  ROOT %bitcast.153 = f32[8192,3072]{1,0} bitcast(f32[64,128,3072]{2,1,0} %multiply.256)
}

%fused_computation.41 (param_0.103: f32[768], param_1.120: f32[768], param_2.345: f32[64,128], param_3.680: f32[64,128], param_4.579: f32[64,128,768], param_5.576: f32[768], param_6.491: f32[8192,768]) -> f32[64,128,768] {
  %param_6.491 = f32[8192,768]{1,0} parameter(6)
  %bitcast.347 = f32[64,128,768]{2,1,0} bitcast(f32[8192,768]{1,0} %param_6.491), metadata={op_type="dot_general" op_name="pmap(eval_step)/dot_general[ dimension_numbers=(((2,), (0,)), ((), ()))\n                             precision=None\n                             preferred_element_type=None ]" source_file="/usr/local/lib/python3.8/dist-packages/flax/linen/linear.py" source_line=175}
  %param_5.576 = f32[768]{0} parameter(5)
  %broadcast.1609 = f32[64,128,768]{2,1,0} broadcast(f32[768]{0} %param_5.576), dimensions={2}, metadata={op_type="add" op_name="pmap(eval_step)/add" source_file="/usr/local/lib/python3.8/dist-packages/flax/linen/linear.py" source_line=181}
  %add.737 = f32[64,128,768]{2,1,0} add(f32[64,128,768]{2,1,0} %bitcast.347, f32[64,128,768]{2,1,0} %broadcast.1609), metadata={op_type="add" op_name="pmap(eval_step)/add" source_file="/usr/local/lib/python3.8/dist-packages/flax/linen/linear.py" source_line=181}
  %param_4.579 = f32[64,128,768]{2,1,0} parameter(4)
  %add.736 = f32[64,128,768]{2,1,0} add(f32[64,128,768]{2,1,0} %add.737, f32[64,128,768]{2,1,0} %param_4.579), metadata={op_type="add" op_name="pmap(eval_step)/add" source_file="/usr/local/lib/python3.8/dist-packages/transformers/models/roberta/modeling_flax_roberta.py" source_line=267}
  %param_3.680 = f32[64,128]{1,0} parameter(3)
  %constant_280 = f32[] constant(0.00130208337)
  %broadcast.999 = f32[64,128]{1,0} broadcast(f32[] %constant_280), dimensions={}
  %multiply.276 = f32[64,128]{1,0} multiply(f32[64,128]{1,0} %param_3.680, f32[64,128]{1,0} %broadcast.999), metadata={op_type="div" op_name="pmap(eval_step)/div" source_file="/usr/local/lib/python3.8/dist-packages/flax/linen/normalization.py" source_line=185}
  %broadcast.692 = f32[64,128,768]{2,1,0} broadcast(f32[64,128]{1,0} %multiply.276), dimensions={0,1}, metadata={op_type="sub" op_name="pmap(eval_step)/sub" source_file="/usr/local/lib/python3.8/dist-packages/flax/linen/normalization.py" source_line=193}
  %subtract.43 = f32[64,128,768]{2,1,0} subtract(f32[64,128,768]{2,1,0} %add.736, f32[64,128,768]{2,1,0} %broadcast.692), metadata={op_type="sub" op_name="pmap(eval_step)/sub" source_file="/usr/local/lib/python3.8/dist-packages/flax/linen/normalization.py" source_line=193}
  %param_2.345 = f32[64,128]{1,0} parameter(2)
  %multiply.275 = f32[64,128]{1,0} multiply(f32[64,128]{1,0} %param_2.345, f32[64,128]{1,0} %broadcast.999), metadata={op_type="div" op_name="pmap(eval_step)/div" source_file="/usr/local/lib/python3.8/dist-packages/flax/linen/normalization.py" source_line=186}
  %multiply.274 = f32[64,128]{1,0} multiply(f32[64,128]{1,0} %multiply.276, f32[64,128]{1,0} %multiply.276), metadata={op_type="integer_pow" op_name="pmap(eval_step)/integer_pow[ y=2 ]" source_file="/usr/local/lib/python3.8/dist-packages/flax/linen/normalization.py" source_line=187}
  %subtract.42 = f32[64,128]{1,0} subtract(f32[64,128]{1,0} %multiply.275, f32[64,128]{1,0} %multiply.274), metadata={op_type="sub" op_name="pmap(eval_step)/sub" source_file="/usr/local/lib/python3.8/dist-packages/flax/linen/normalization.py" source_line=187}
  %constant_281 = f32[] constant(1e-05), metadata={op_type="add" op_name="pmap(eval_step)/add" source_file="/usr/local/lib/python3.8/dist-packages/flax/linen/normalization.py" source_line=188}
  %broadcast.1000 = f32[64,128]{1,0} broadcast(f32[] %constant_281), dimensions={}, metadata={op_type="add" op_name="pmap(eval_step)/add" source_file="/usr/local/lib/python3.8/dist-packages/flax/linen/normalization.py" source_line=188}
  %add.135 = f32[64,128]{1,0} add(f32[64,128]{1,0} %subtract.42, f32[64,128]{1,0} %broadcast.1000), metadata={op_type="add" op_name="pmap(eval_step)/add" source_file="/usr/local/lib/python3.8/dist-packages/flax/linen/normalization.py" source_line=188}
  %rsqrt.32 = f32[64,128]{1,0} rsqrt(f32[64,128]{1,0} %add.135), metadata={op_type="rsqrt" op_name="pmap(eval_step)/rsqrt" source_file="/usr/local/lib/python3.8/dist-packages/flax/linen/normalization.py" source_line=188}
  %broadcast.691 = f32[64,128,768]{2,1,0} broadcast(f32[64,128]{1,0} %rsqrt.32), dimensions={0,1}, metadata={op_type="mul" op_name="pmap(eval_step)/mul" source_file="/usr/local/lib/python3.8/dist-packages/flax/linen/normalization.py" source_line=190}
  %param_1.120 = f32[768]{0} parameter(1)
  %broadcast.690 = f32[64,128,768]{2,1,0} broadcast(f32[768]{0} %param_1.120), dimensions={2}, metadata={op_type="mul" op_name="pmap(eval_step)/mul" source_file="/usr/local/lib/python3.8/dist-packages/flax/linen/normalization.py" source_line=190}
  %multiply.273 = f32[64,128,768]{2,1,0} multiply(f32[64,128,768]{2,1,0} %broadcast.691, f32[64,128,768]{2,1,0} %broadcast.690), metadata={op_type="mul" op_name="pmap(eval_step)/mul" source_file="/usr/local/lib/python3.8/dist-packages/flax/linen/normalization.py" source_line=190}
  %multiply.272 = f32[64,128,768]{2,1,0} multiply(f32[64,128,768]{2,1,0} %subtract.43, f32[64,128,768]{2,1,0} %multiply.273), metadata={op_type="mul" op_name="pmap(eval_step)/mul" source_file="/usr/local/lib/python3.8/dist-packages/flax/linen/normalization.py" source_line=193}
  %param_0.103 = f32[768]{0} parameter(0)
  %broadcast.689 = f32[64,128,768]{2,1,0} broadcast(f32[768]{0} %param_0.103), dimensions={2}, metadata={op_type="add" op_name="pmap(eval_step)/add" source_file="/usr/local/lib/python3.8/dist-packages/flax/linen/normalization.py" source_line=195}
  ROOT %add.134 = f32[64,128,768]{2,1,0} add(f32[64,128,768]{2,1,0} %multiply.272, f32[64,128,768]{2,1,0} %broadcast.689), metadata={op_type="add" op_name="pmap(eval_step)/add" source_file="/usr/local/lib/python3.8/dist-packages/flax/linen/normalization.py" source_line=195}
}

%fused_computation.44 (param_0.110: f32[64,12,64,128]) -> f32[8192,768] {
  %param_0.110 = f32[64,12,64,128]{3,2,1,0} parameter(0)
  %transpose.216 = f32[64,128,12,64]{1,3,2,0} transpose(f32[64,12,64,128]{3,2,1,0} %param_0.110), dimensions={0,3,1,2}, metadata={op_type="transpose" op_name="pmap(eval_step)/jit(_einsum)/transpose[ permutation=(0, 3, 1, 2) ]" source_file="/usr/local/lib/python3.8/dist-packages/transformers/models/roberta/modeling_flax_roberta.py" source_line=243}
  %copy.26 = f32[64,128,12,64]{3,2,1,0} copy(f32[64,128,12,64]{1,3,2,0} %transpose.216), metadata={op_type="transpose" op_name="pmap(eval_step)/jit(_einsum)/transpose[ permutation=(0, 3, 1, 2) ]" source_file="/usr/local/lib/python3.8/dist-packages/transformers/models/roberta/modeling_flax_roberta.py" source_line=243}
  ROOT %bitcast.156 = f32[8192,768]{1,0} bitcast(f32[64,128,12,64]{3,2,1,0} %copy.26)
}

%fused_computation.45 (param_0.111: f32[64,12,128,128], param_1.127: f32[64,12,128]) -> f32[64,12,128,128] {
  %param_0.111 = f32[64,12,128,128]{3,2,1,0} parameter(0)
  %param_1.127 = f32[64,12,128]{2,1,0} parameter(1)
  %broadcast.694 = f32[64,12,128,128]{3,2,1,0} broadcast(f32[64,12,128]{2,1,0} %param_1.127), dimensions={0,1,2}, metadata={op_type="div" op_name="pmap(eval_step)/div" source_file="/usr/local/lib/python3.8/dist-packages/flax/linen/attention.py" source_line=91}
  ROOT %divide.18 = f32[64,12,128,128]{3,2,1,0} divide(f32[64,12,128,128]{3,2,1,0} %param_0.111, f32[64,12,128,128]{3,2,1,0} %broadcast.694), metadata={op_type="div" op_name="pmap(eval_step)/div" source_file="/usr/local/lib/python3.8/dist-packages/flax/linen/attention.py" source_line=91}
}

%fused_computation.47 (param_0.117: f32[768], param_1.132: f32[8192,768]) -> f32[64,12,64,128] {
  %param_1.132 = f32[8192,768]{1,0} parameter(1)
  %reshape.1040 = f32[64,128,768]{1,2,0} reshape(f32[8192,768]{1,0} %param_1.132), metadata={op_type="dot_general" op_name="pmap(eval_step)/dot_general[ dimension_numbers=(((2,), (0,)), ((), ()))\n                             precision=None\n                             preferred_element_type=None ]" source_file="/usr/local/lib/python3.8/dist-packages/flax/linen/linear.py" source_line=175}
  %param_0.117 = f32[768]{0} parameter(0)
  %broadcast.697 = f32[64,128,768]{1,2,0} broadcast(f32[768]{0} %param_0.117), dimensions={2}, metadata={op_type="add" op_name="pmap(eval_step)/add" source_file="/usr/local/lib/python3.8/dist-packages/flax/linen/linear.py" source_line=181}
  %add.138 = f32[64,128,768]{1,2,0} add(f32[64,128,768]{1,2,0} %reshape.1040, f32[64,128,768]{1,2,0} %broadcast.697), metadata={op_type="add" op_name="pmap(eval_step)/add" source_file="/usr/local/lib/python3.8/dist-packages/flax/linen/linear.py" source_line=181}
  %bitcast.157 = f32[64,128,12,64]{1,3,2,0} bitcast(f32[64,128,768]{1,2,0} %add.138), metadata={op_type="reshape" op_name="pmap(eval_step)/reshape[ dimensions=None\n                         new_sizes=(64, 128, 12, 64) ]" source_file="/usr/local/lib/python3.8/dist-packages/transformers/models/roberta/modeling_flax_roberta.py" source_line=211}
  ROOT %transpose.217 = f32[64,12,64,128]{3,2,1,0} transpose(f32[64,128,12,64]{1,3,2,0} %bitcast.157), dimensions={0,2,3,1}
}

%fused_computation.48 (param_0.477: f32[768], param_1.509: f32[8192,768]) -> f32[64,12,128,64] {
  %param_1.509 = f32[8192,768]{1,0} parameter(1)
  %bitcast.158 = f32[64,128,768]{2,1,0} bitcast(f32[8192,768]{1,0} %param_1.509), metadata={op_type="dot_general" op_name="pmap(eval_step)/dot_general[ dimension_numbers=(((2,), (0,)), ((), ()))\n                             precision=None\n                             preferred_element_type=None ]" source_file="/usr/local/lib/python3.8/dist-packages/flax/linen/linear.py" source_line=175}
  %param_0.477 = f32[768]{0} parameter(0)
  %broadcast.698 = f32[64,128,768]{2,1,0} broadcast(f32[768]{0} %param_0.477), dimensions={2}, metadata={op_type="add" op_name="pmap(eval_step)/add" source_file="/usr/local/lib/python3.8/dist-packages/flax/linen/linear.py" source_line=181}
  %add.139 = f32[64,128,768]{2,1,0} add(f32[64,128,768]{2,1,0} %bitcast.158, f32[64,128,768]{2,1,0} %broadcast.698), metadata={op_type="add" op_name="pmap(eval_step)/add" source_file="/usr/local/lib/python3.8/dist-packages/flax/linen/linear.py" source_line=181}
  %constant_283 = f32[] constant(0.125)
  %broadcast.1001 = f32[64,128,768]{2,1,0} broadcast(f32[] %constant_283), dimensions={}
  %multiply.278 = f32[64,128,768]{2,1,0} multiply(f32[64,128,768]{2,1,0} %add.139, f32[64,128,768]{2,1,0} %broadcast.1001), metadata={op_type="div" op_name="pmap(eval_step)/div" source_file="/usr/local/lib/python3.8/dist-packages/flax/linen/attention.py" source_line=81}
…
  %get-tuple-element.67 = f32[768,768]{1,0} get-tuple-element((f32[50265]{0}, f32[768]{0}, f32[768,768]{1,0}, f32[768]{0}, f32[768]{0}, /*index=5*/f32[768]{0}, f32[768]{0}, f32[514,768]{1,0}, f32[1,768]{1,0}, f32[50265,768]{1,0}, /*index=10*/f32[768]{0}, f32[768]{0}, f32[768]{0}, f32[768,768]{1,0}, f32[768]{0}, /*index=15*/f32[768,768]{1,0}, f32[768]{0}, f32[768,768]{1,0}, f32[768]{0}, f32[768,768]{1,0}, /*index=20*/f32[3072]{0}, f32[768,3072]{1,0}, f32[768]{0}, f32[768]{0}, f32[768]{0}, /*index=25*/f32[3072,768]{1,0}, f32[768]{0}, f32[768]{0}, f32[768]{0}, f32[768,768]{1,0}, /*index=30*/f32[768]{0}, f32[768,768]{1,0}, f32[768]{0}, f32[768,768]{1,0}, f32[768]{0}, /*index=35*/f32[768,768]{1,0}, f32[3072]{0}, f32[768,3072]{1,0}, f32[768]{0}, f32[768]{0}, /*index=40*/f32[768]{0}, f32[3072,768]{1,0}, f32[768]{0}, f32[768]{0}, f32[768]{0}, /*index=45*/f32[768,768]{1,0}, f32[768]{0}, f32[768,768]{1,0}, f32[768]{0}, f32[768,768]{1,0}, /*index=50*/f32[768]{0}, f32[768,768]{1,0}, f32[3072]{0}, f32[768,3072]{1,0}, f32[768]{0}, /*index=55*/f32[768]{0}, f32[768]{0}, f32[3072,768]{1,0}, f32[768]{0}, f32[768]{0}, /*index=60*/f32[768]{0}, f32[768,768]{1,0}, f32[768]{0}, f32[768,768]{1,0}, f32[768]{0}, /*index=65*/f32[768,768]{1,0}, f32[768]{0}, f32[768,768]{1,0}, f32[3072]{0}, f32[768,3072]{1,0}, /*index=70*/f32[768]{0}, f32[768]{0}, f32[768]{0}, f32[3072,768]{1,0}, f32[768]{0}, /*index=75*/f32[768]{0}, f32[768]{0}, f32[768,768]{1,0}, f32[768]{0}, f32[768,768]{1,0}, /*index=80*/f32[768]{0}, f32[768,768]{1,0}, f32[768]{0}, f32[768,768]{1,0}, f32[3072]{0}, /*index=85*/f32[768,3072]{1,0}, f32[768]{0}, f32[768]{0}, f32[768]{0}, f32[3072,768]{1,0}, /*index=90*/f32[768]{0}, f32[768]{0}, f32[768]{0}, f32[768,768]{1,0}, f32[768]{0}, /*index=95*/f32[768,768]{1,0}, f32[768]{0}, f32[768,768]{1,0}, f32[768]{0}, f32[768,768]{1,0}, /*index=100*/f32[3072]{0}, f32[768,3072]{1,0}, f32[768]{0}, f32[768]{0}, f32[768]{0}, /*index=105*/f32[3072,768]{1,0}, f32[768]{0}, f32[768]{0}, f32[768]{0}, f32[768,768]{1,0}, /*index=110*/f32[768]{0}, f32[768,768]{1,0}, f32[768]{0}, f32[768,768]{1,0}, f32[768]{0}, /*index=115*/f32[768,768]{1,0}, f32[3072]{0}, f32[768,3072]{1,0}, f32[768]{0}, f32[768]{0}, /*index=120*/f32[768]{0}, f32[3072,768]{1,0}, f32[768]{0}, f32[768]{0}, f32[768]{0}, /*index=125*/f32[768,768]{1,0}, f32[768]{0}, f32[768,768]{1,0}, f32[768]{0}, f32[768,768]{1,0}, /*index=130*/f32[768]{0}, f32[768,768]{1,0}, f32[3072]{0}, f32[768,3072]{1,0}, f32[768]{0}, /*index=135*/f32[768]{0}, f32[768]{0}, f32[3072,768]{1,0}, f32[768]{0}, f32[768]{0}, /*index=140*/f32[768]{0}, f32[768,768]{1,0}, f32[768]{0}, f32[768,768]{1,0}, f32[768]{0}, /*index=145*/f32[768,768]{1,0}, f32[768]{0}, f32[768,768]{1,0}, f32[3072]{0}, f32[768,3072]{1,0}, /*index=150*/f32[768]{0}, f32[768]{0}, f32[768]{0}, f32[3072,768]{1,0}, f32[768]{0}, /*index=155*/f32[768]{0}, f32[768]{0}, f32[768,768]{1,0}, f32[768]{0}, f32[768,768]{1,0}, /*index=160*/f32[768]{0}, f32[768,768]{1,0}, f32[768]{0}, f32[768,768]{1,0}, f32[3072]{0}, /*index=165*/f32[768,3072]{1,0}, f32[768]{0}, f32[768]{0}, f32[768]{0}, f32[3072,768]{1,0}, /*index=170*/f32[768]{0}, f32[768]{0}, f32[768]{0}, f32[768,768]{1,0}, f32[768]{0}, /*index=175*/f32[768,768]{1,0}, f32[768]{0}, f32[768,768]{1,0}, f32[768]{0}, f32[768,768]{1,0}, /*index=180*/f32[3072]{0}, f32[768,3072]{1,0}, f32[768]{0}, f32[768]{0}, f32[768]{0}, /*index=185*/f32[3072,768]{1,0}, f32[768]{0}, f32[768]{0}, f32[768]{0}, f32[768,768]{1,0}, /*index=190*/f32[768]{0}, f32[768,768]{1,0}, f32[768]{0}, f32[768,768]{1,0}, f32[768]{0}, /*index=195*/f32[768,768]{1,0}, f32[3072]{0}, f32[768,3072]{1,0}, f32[768]{0}, f32[768]{0}, /*index=200*/f32[768]{0}, f32[3072,768]{1,0}, s32[64,128]{1,0}, s32[64,128]{1,0}, s32[64,128]{1,0}) %parameter.1), index=65
  %custom-call.89 = f32[8192,768]{1,0} custom-call(f32[8192,768]{1,0} %bitcast.115, f32[768,768]{1,0} %get-tuple-element.67), custom_call_target="__cublas$gemm", backend_config="{\"alpha_real\":1,\"alpha_imag\":0,\"beta\":0,\"dot_dimension_numbers\":{\"lhs_contracting_dimensions\":[\"1\"],\"rhs_contracting_dimensions\":[\"0\"],\"lhs_batch_dimensions\":[],\"rhs_batch_dimensions\":[]},\"batch_size\":\"1\",\"selected_algorithm\":\"-1\"}"
  %fusion.22 = f32[64,12,128,64]{3,2,1,0} fusion(f32[768]{0} %get-tuple-element.66, f32[8192,768]{1,0} %custom-call.89), kind=kLoop, calls=%fused_computation.22
  %get-tuple-element.64 = f32[768]{0} get-tuple-element((f32[50265]{0}, f32[768]{0}, f32[768,768]{1,0}, f32[768]{0}, f32[768]{0}, /*index=5*/f32[768]{0}, f32[768]{0}, f32[514,768]{1,0}, f32[1,768]{1,0}, f32[50265,768]{1,0}, /*index=10*/f32[768]{0}, f32[768]{0}, f32[768]{0}, f32[768,768]{1,0}, f32[768]{0}, /*index=15*/f32[768,768]{1,0}, f32[768]{0}, f32[768,768]{1,0}, f32[768]{0}, f32[768,768]{1,0}, /*index=20*/f32[3072]{0}, f32[768,3072]{1,0}, f32[768]{0}, f32[768]{0}, f32[768]{0}, /*index=25*/f32[3072,768]{1,0}, f32[768]{0}, f32[768]{0}, f32[768]{0}, f32[768,768]{1,0}, /*index=30*/f32[768]{0}, f32[768,768]{1,0}, f32[768]{0}, f32[768,768]{1,0}, f32[768]{0}, /*index=35*/f32[768,768]{1,0}, f32[3072]{0}, f32[768,3072]{1,0}, f32[768]{0}, f32[768]{0}, /*index=40*/f32[768]{0}, f32[3072,768]{1,0}, f32[768]{0}, f32[768]{0}, f32[768]{0}, /*index=45*/f32[768,768]{1,0}, f32[768]{0}, f32[768,768]{1,0}, f32[768]{0}, f32[768,768]{1,0}, /*index=50*/f32[768]{0}, f32[768,768]{1,0}, f32[3072]{0}, f32[768,3072]{1,0}, f32[768]{0}, /*index=55*/f32[768]{0}, f32[768]{0}, f32[3072,768]{1,0}, f32[768]{0}, f32[768]{0}, /*index=60*/f32[768]{0}, f32[768,768]{1,0}, f32[768]{0}, f32[768,768]{1,0}, f32[768]{0}, /*index=65*/f32[768,768]{1,0}, f32[768]{0}, f32[768,768]{1,0}, f32[3072]{0}, f32[768,3072]{1,0}, /*index=70*/f32[768]{0}, f32[768]{0}, f32[768]{0}, f32[3072,768]{1,0}, f32[768]{0}, /*index=75*/f32[768]{0}, f32[768]{0}, f32[768,768]{1,0}, f32[768]{0}, f32[768,768]{1,0}, /*index=80*/f32[768]{0}, f32[768,768]{1,0}, f32[768]{0}, f32[768,768]{1,0}, f32[3072]{0}, /*index=85*/f32[768,3072]{1,0}, f32[768]{0}, f32[768]{0}, f32[768]{0}, f32[3072,768]{1,0}, /*index=90*/f32[768]{0}, f32[768]{0}, f32[768]{0}, f32[768,768]{1,0}, f32[768]{0}, /*index=95*/f32[768,768]{1,0}, f32[768]{0}, f32[768,768]{1,0}, f32[768]{0}, f32[768,768]{1,0}, /*index=100*/f32[3072]{0}, f32[768,3072]{1,0}, f32[768]{0}, f32[768]{0}, f32[768]{0}, /*index=105*/f32[3072,768]{1,0}, f32[768]{0}, f32[768]{0}, f32[768]{0}, f32[768,768]{1,0}, /*index=110*/f32[768]{0}, f32[768,768]{1,0}, f32[768]{0}, f32[768,768]{1,0}, f32[768]{0}, /*index=115*/f32[768,768]{1,0}, f32[3072]{0}, f32[768,3072]{1,0}, f32[768]{0}, f32[768]{0}, /*index=120*/f32[768]{0}, f32[3072,768]{1,0}, f32[768]{0}, f32[768]{0}, f32[768]{0}, /*index=125*/f32[768,768]{1,0}, f32[768]{0}, f32[768,768]{1,0}, f32[768]{0}, f32[768,768]{1,0}, /*index=130*/f32[768]{0}, f32[768,768]{1,0}, f32[3072]{0}, f32[768,3072]{1,0}, f32[768]{0}, /*index=135*/f32[768]{0}, f32[768]{0}, f32[3072,768]{1,0}, f32[768]{0}, f32[768]{0}, /*index=140*/f32[768]{0}, f32[768,768]{1,0}, f32[768]{0}, f32[768,768]{1,0}, f32[768]{0}, /*index=145*/f32[768,768]{1,0}, f32[768]{0}, f32[768,768]{1,0}, f32[3072]{0}, f32[768,3072]{1,0}, /*index=150*/f32[768]{0}, f32[768]{0}, f32[768]{0}, f32[3072,768]{1,0}, f32[768]{0}, /*index=155*/f32[768]{0}, f32[768]{0}, f32[768,768]{1,0}, f32[768]{0}, f32[768,768]{1,0}, /*index=160*/f32[768]{0}, f32[768,768]{1,0}, f32[768]{0}, f32[768,768]{1,0}, f32[3072]{0}, /*index=165*/f32[768,3072]{1,0}, f32[768]{0}, f32[768]{0}, f32[768]{0}, f32[3072,768]{1,0}, /*index=170*/f32[768]{0}, f32[768]{0}, f32[768]{0}, f32[768,768]{1,0}, f32[768]{0}, /*index=175*/f32[768,768]{1,0}, f32[768]{0}, f32[768,768]{1,0}, f32[768]{0}, f32[768,768]{1,0}, /*index=180*/f32[3072]{0}, f32[768,3072]{1,0}, f32[768]{0}, f32[768]{0}, f32[768]{0}, /*index=185*/f32[3072,768]{1,0}, f32[768]{0}, f32[768]{0}, f32[768]{0}, f32[768,768]{1,0}, /*index=190*/f32[768]{0}, f32[768,768]{1,0}, f32[768]{0}, f32[768,768]{1,0}, f32[768]{0}, /*index=195*/f32[768,768]{1,0}, f32[3072]{0}, f32[768,3072]{1,0}, f32[768]{0}, f32[768]{0}, /*index=200*/f32[768]{0}, f32[3072,768]{1,0}, s32[64,128]{1,0}, s32[64,128]{1,0}, s32[64,128]{1,0}) %parameter.1), index=62
  %get-tuple-element.65 = f32[768,768]{1,0} get-tuple-element((f32[50265]{0}, f32[768]{0}, f32[768,768]{1,0}, f32[768]{0}, f32[768]{0}, /*index=5*/f32[768]{0}, f32[768]{0}, f32[514,768]{1,0}, f32[1,768]{1,0}, f32[50265,768]{1,0}, /*index=10*/f32[768]{0}, f32[768]{0}, f32[768]{0}, f32[768,768]{1,0}, f32[768]{0}, /*index=15*/f32[768,768]{1,0}, f32[768]{0}, f32[768,768]{1,0}, f32[768]{0}, f32[768,768]{1,0}, /*index=20*/f32[3072]{0}, f32[768,3072]{1,0}, f32[768]{0}, f32[768]{0}, f32[768]{0}, /*index=25*/f32[3072,768]{1,0}, f32[768]{0}, f32[768]{0}, f32[768]{0}, f32[768,768]{1,0}, /*index=30*/f32[768]{0}, f32[768,768]{1,0}, f32[768]{0}, f32[768,768]{1,0}, f32[768]{0}, /*index=35*/f32[768,768]{1,0}, f32[3072]{0}, f32[768,3072]{1,0}, f32[768]{0}, f32[768]{0}, /*index=40*/f32[768]{0}, f32[3072,768]{1,0}, f32[768]{0}, f32[768]{0}, f32[768]{0}, /*index=45*/f32[768,768]{1,0}, f32[768]{0}, f32[768,768]{1,0}, f32[768]{0}, f32[768,768]{1,0}, /*index=50*/f32[768]{0}, f32[768,768]{1,0}, f32[3072]{0}, f32[768,3072]{1,0}, f32[768]{0}, /*index=55*/f32[768]{0}, f32[768]{0}, f32[3072,768]{1,0}, f32[768]{0}, f32[768]{0}, /*index=60*/f32[768]{0}, f32[768,768]{1,0}, f32[768]{0}, f32[768,768]{1,0}, f32[768]{0}, /*index=65*/f32[768,768]{1,0}, f32[768]{0}, f32[768,768]{1,0}, f32[3072]{0}, f32[768,3072]{1,0}, /*index=70*/f32[768]{0}, f32[768]{0}, f32[768]{0}, f32[3072,768]{1,0}, f32[768]{0}, /*index=75*/f32[768]{0}, f32[768]{0}, f32[768,768]{1,0}, f32[768]{0}, f32[768,768]{1,0}, /*index=80*/f32[768]{0}, f32[768,768]{1,0}, f32[768]{0}, f32[768,768]{1,0}, f32[3072]{0}, /*index=85*/f32[768,3072]{1,0}, f32[768]{0}, f32[768]{0}, f32[768]{0}, f32[3072,768]{1,0}, /*index=90*/f32[768]{0}, f32[768]{0}, f32[768]{0}, f32[768,768]{1,0}, f32[768]{0}, /*index=95*/f32[768,768]{1,0}, f32[768]{0}, f32[768,768]{1,0}, f32[768]{0}, f32[768,768]{1,0}, /*index=100*/f32[3072]{0}, f32[768,3072]{1,0}, f32[768]{0}, f32[768]{0}, f32[768]{0}, /*index=105*/f32[3072,768]{1,0}, f32[768]{0}, f32[768]{0}, f32[768]{0}, f32[768,768]{1,0}, /*index=110*/f32[768]{0}, f32[768,768]{1,0}, f32[768]{0}, f32[768,768]{1,0}, f32[768]{0}, /*index=115*/f32[768,768]{1,0}, f32[3072]{0}, f32[768,3072]{1,0}, f32[768]{0}, f32[768]{0}, /*index=120*/f32[768]{0}, f32[3072,768]{1,0}, f32[768]{0}, f32[768]{0}, f32[768]{0}, /*index=125*/f32[768,768]{1,0}, f32[768]{0}, f32[768,768]{1,0}, f32[768]{0}, f32[768,768]{1,0}, /*index=130*/f32[768]{0}, f32[768,768]{1,0}, f32[3072]{0}, f32[768,3072]{1,0}, f32[768]{0}, /*index=135*/f32[768]{0}, f32[768]{0}, f32[3072,768]{1,0}, f32[768]{0}, f32[768]{0}, /*index=140*/f32[768]{0}, f32[768,768]{1,0}, f32[768]{0}, f32[768,768]{1,0}, f32[768]{0}, /*index=145*/f32[768,768]{1,0}, f32[768]{0}, f32[768,768]{1,0}, f32[3072]{0}, f32[768,3072]{1,0}, /*index=150*/f32[768]{0}, f32[768]{0}, f32[768]{0}, f32[3072,768]{1,0}, f32[768]{0}, /*index=155*/f32[768]{0}, f32[768]{0}, f32[768,768]{1,0}, f32[768]{0}, f32[768,768]{1,0}, /*index=160*/f32[768]{0}, f32[768,768]{1,0}, f32[768]{0}, f32[768,768]{1,0}, f32[3072]{0}, /*index=165*/f32[768,3072]{1,0}, f32[768]{0}, f32[768]{0}, f32[768]{0}, f32[3072,768]{1,0}, /*index=170*/f32[768]{0}, f32[768]{0}, f32[768]{0}, f32[768,768]{1,0}, f32[768]{0}, /*index=175*/f32[768,768]{1,0}, f32[768]{0}, f32[768,768]{1,0}, f32[768]{0}, f32[768,768]{1,0}, /*index=180*/f32[3072]{0}, f32[768,3072]{1,0}, f32[768]{0}, f32[768]{0}, f32[768]{0}, /*index=185*/f32[3072,768]{1,0}, f32[768]{0}, f32[768]{0}, f32[768]{0}, f32[768,768]{1,0}, /*index=190*/f32[768]{0}, f32[768,768]{1,0}, f32[768]{0}, f32[768,768]{1,0}, f32[768]{0}, /*index=195*/f32[768,768]{1,0}, f32[3072]{0}, f32[768,3072]{1,0}, f32[768]{0}, f32[768]{0}, /*index=200*/f32[768]{0}, f32[3072,768]{1,0}, s32[64,128]{1,0}, s32[64,128]{1,0}, s32[64,128]{1,0}) %parameter.1), index=63
  %custom-call.90 = f32[8192,768]{1,0} custom-call(f32[8192,768]{1,0} %bitcast.115, f32[768,768]{1,0} %get-tuple-element.65), custom_call_target="__cublas$gemm", backend_config="{\"alpha_real\":1,\"alpha_imag\":0,\"beta\":0,\"dot_dimension_numbers\":{\"lhs_contracting_dimensions\":[\"1\"],\"rhs_contracting_dimensions\":[\"0\"],\"lhs_batch_dimensions\":[],\"rhs_batch_dimensions\":[]},\"batch_size\":\"1\",\"selected_algorithm\":\"-1\"}"
  %fusion.21 = f32[64,12,64,128]{3,2,1,0} fusion(f32[768]{0} %get-tuple-element.64, f32[8192,768]{1,0} %custom-call.90), kind=kLoop, calls=%fused_computation.21
  %custom-call.91 = f32[64,12,128,128]{3,2,1,0} custom-call(f32[64,12,128,64]{3,2,1,0} %fusion.22, f32[64,12,64,128]{3,2,1,0} %fusion.21), custom_call_target="__cublas$gemm", metadata={op_type="dot_general" op_name="pmap(eval_step)/jit(_einsum)/dot_general[ dimension_numbers=(((3,), (3,)), ((0, 2), (0, 2)))\n                                          precision=None\n                                          preferred_element_type=None ]" source_file="/usr/local/lib/python3.8/dist-packages/flax/linen/attention.py" source_line=83}, backend_config="{\"alpha_real\":1,\"alpha_imag\":0,\"beta\":0,\"dot_dimension_numbers\":{\"lhs_contracting_dimensions\":[\"3\"],\"rhs_contracting_dimensions\":[\"2\"],\"lhs_batch_dimensions\":[\"0\",\"1\"],\"rhs_batch_dimensions\":[\"0\",\"1\"]},\"batch_size\":\"768\",\"selected_algorithm\":\"2\"}"
  %fusion.223 = (f32[64,12,128]{2,1,0}, f32[64,12,128,128]{3,2,1,0}) fusion(f32[64,12,128,128]{3,2,1,0} %custom-call.91, s32[64,128]{1,0} %get-tuple-element.204), kind=kInput, calls=%fused_computation.223, metadata={op_type="reduce_max" op_name="pmap(eval_step)/reduce_max[ axes=(3,) ]" source_file="/usr/local/lib/python3.8/dist-packages/flax/linen/attention.py" source_line=91}
  %get-tuple-element.217 = f32[64,12,128,128]{3,2,1,0} get-tuple-element((f32[64,12,128]{2,1,0}, f32[64,12,128,128]{3,2,1,0}) %fusion.223), index=1
  %get-tuple-element.216 = f32[64,12,128]{2,1,0} get-tuple-element((f32[64,12,128]{2,1,0}, f32[64,12,128,128]{3,2,1,0}) %fusion.223), index=0
  %fusion.222 = (f32[64,12,128]{2,1,0}, f32[64,12,128,128]{3,2,1,0}) fusion(f32[64,12,128,128]{3,2,1,0} %get-tuple-element.217, f32[64,12,128]{2,1,0} %get-tuple-element.216), kind=kInput, calls=%fused_computation.222, metadata={op_type="reduce_sum" op_name="pmap(eval_step)/reduce_sum[ axes=(3,) ]" source_file="/usr/local/lib/python3.8/dist-packages/flax/linen/attention.py" source_line=91}
  %get-tuple-element.215 = f32[64,12,128,128]{3,2,1,0} get-tuple-element((f32[64,12,128]{2,1,0}, f32[64,12,128,128]{3,2,1,0}) %fusion.222), index=1
  %get-tuple-element.214 = f32[64,12,128]{2,1,0} get-tuple-element((f32[64,12,128]{2,1,0}, f32[64,12,128,128]{3,2,1,0}) %fusion.222), index=0
  %fusion.19 = f32[64,12,128,128]{3,2,1,0} fusion(f32[64,12,128,128]{3,2,1,0} %get-tuple-element.215, f32[64,12,128]{2,1,0} %get-tuple-element.214), kind=kLoop, calls=%fused_computation.19, metadata={op_type="div" op_name="pmap(eval_step)/div" source_file="/usr/local/lib/python3.8/dist-packages/flax/linen/attention.py" source_line=91}
  %custom-call.92 = f32[64,12,64,128]{3,2,1,0} custom-call(f32[64,12,64,128]{3,2,1,0} %fusion.23, f32[64,12,128,128]{3,2,1,0} %fusion.19), custom_call_target="__cublas$gemm", metadata={op_type="dot_general" op_name="pmap(eval_step)/jit(_einsum)/dot_general[ dimension_numbers=(((1,), (3,)), ((0, 2), (0, 1)))\n                                          precision=None\n                                          preferred_element_type=None ]" source_file="/usr/local/lib/python3.8/dist-packages/transformers/models/roberta/modeling_flax_roberta.py" source_line=243}, backend_config="{\"alpha_real\":1,\"alpha_imag\":0,\"beta\":0,\"dot_dimension_numbers\":{\"lhs_contracting_dimensions\":[\"3\"],\"rhs_contracting_dimensions\":[\"3\"],\"lhs_batch_dimensions\":[\"0\",\"1\"],\"rhs_batch_dimensions\":[\"0\",\"1\"]},\"batch_size\":\"768\",\"selected_algorithm\":\"2\"}"
  %fusion.18 = f32[8192,768]{1,0} fusion(f32[64,12,64,128]{3,2,1,0} %custom-call.92), kind=kLoop, calls=%fused_computation.18
  %get-tuple-element.63 = f32[768,768]{1,0} get-tuple-element((f32[50265]{0}, f32[768]{0}, f32[768,768]{1,0}, f32[768]{0}, f32[768]{0}, /*index=5*/f32[768]{0}, f32[768]{0}, f32[514,768]{1,0}, f32[1,768]{1,0}, f32[50265,768]{1,0}, /*index=10*/f32[768]{0}, f32[768]{0}, f32[768]{0}, f32[768,768]{1,0}, f32[768]{0}, /*index=15*/f32[768,768]{1,0}, f32[768]{0}, f32[768,768]{1,0}, f32[768]{0}, f32[768,768]{1,0}, /*index=20*/f32[3072]{0}, f32[768,3072]{1,0}, f32[768]{0}, f32[768]{0}, f32[768]{0}, /*index=25*/f32[3072,768]{1,0}, f32[768]{0}, f32[768]{0}, f32[768]{0}, f32[768,768]{1,0}, /*index=30*/f32[768]{0}, f32[768,768]{1,0}, f32[768]{0}, f32[768,768]{1,0}, f32[768]{0}, /*index=35*/f32[768,768]{1,0}, f32[3072]{0}, f32[768,3072]{1,0}, f32[768]{0}, f32[768]{0}, /*index=40*/f32[768]{0}, f32[3072,768]{1,0}, f32[768]{0}, f32[768]{0}, f32[768]{0}, /*index=45*/f32[768,768]{1,0}, f32[768]{0}, f32[768,768]{1,0}, f32[768]{0}, f32[768,768]{1,0}, /*index=50*/f32[768]{0}, f32[768,768]{1,0}, f32[3072]{0}, f32[768,3072]{1,0}, f32[768]{0}, /*index=55*/f32[768]{0}, f32[768]{0}, f32[3072,768]{1,0}, f32[768]{0}, f32[768]{0}, /*index=60*/f32[768]{0}, f32[768,768]{1,0}, f32[768]{0}, f32[768,768]{1,0}, f32[768]{0}, /*index=65*/f32[768,768]{1,0}, f32[768]{0}, f32[768,768]{1,0}, f32[3072]{0}, f32[768,3072]{1,0}, /*index=70*/f32[768]{0}, f32[768]{0}, f32[768]{0}, f32[3072,768]{1,0}, f32[768]{0}, /*index=75*/f32[768]{0}, f32[768]{0}, f32[768,768]{1,0}, f32[768]{0}, f32[768,768]{1,0}, /*index=80*/f32[768]{0}, f32[768,768]{1,0}, f32[768]{0}, f32[768,768]{1,0}, f32[3072]{0}, /*index=85*/f32[768,3072]{1,0}, f32[768]{0}, f32[768]{0}, f32[768]{0}, f32[3072,768]{1,0}, /*index=90*/f32[768]{0}, f32[768]{0}, f32[768]{0}, f32[768,768]{1,0}, f32[768]{0}, /*index=95*/f32[768,768]{1,0}, f32[768]{0}, f32[768,768]{1,0}, f32[768]{0}, f32[768,768]{1,0}, /*index=100*/f32[3072]{0}, f32[768,3072]{1,0}, f32[768]{0}, f32[768]{0}, f32[768]{0}, /*index=105*/f32[3072,768]{1,0}, f32[768]{0}, f32[768]{0}, f32[768]{0}, f32[768,768]{1,0}, /*index=110*/f32[768]{0}, f32[768,768]{1,0}, f32[768]{0}, f32[768,768]{1,0}, f32[768]{0}, /*index=115*/f32[768,768]{1,0}, f32[3072]{0}, f32[768,3072]{1,0}, f32[768]{0}, f32[768]{0}, /*index=120*/f32[768]{0}, f32[3072,768]{1,0}, f32[768]{0}, f32[768]{0}, f32[768]{0}, /*index=125*/f32[768,768]{1,0}, f32[768]{0}, f32[768,768]{1,0}, f32[768]{0}, f32[768,768]{1,0}, /*index=130*/f32[768]{0}, f32[768,768]{1,0}, f32[3072]{0}, f32[768,3072]{1,0}, f32[768]{0}, /*index=135*/f32[768]{0}, f32[768]{0}, f32[3072,768]{1,0}, f32[768]{0}, f32[768]{0}, /*index=140*/f32[768]{0}, f32[768,768]{1,0}, f32[768]{0}, f32[768,768]{1,0}, f32[768]{0}, /*index=145*/f32[768,768]{1,0}, f32[768]{0}, f32[768,768]{1,0}, f32[3072]{0}, f32[768,3072]{1,0}, /*index=150*/f32[768]{0}, f32[768]{0}, f32[768]{0}, f32[3072,768]{1,0}, f32[768]{0}, /*index=155*/f32[768]{0}, f32[768]{0}, f32[768,768]{1,0}, f32[768]{0}, f32[768,768]{1,0}, /*index=160*/f32[768]{0}, f32[768,768]{1,0}, f32[768]{0}, f32[768,768]{1,0}, f32[3072]{0}, /*index=165*/f32[768,3072]{1,0}, f32[768]{0}, f32[768]{0}, f32[768]{0}, f32[3072,768]{1,0}, /*index=170*/f32[768]{0}, f32[768]{0}, f32[768]{0}, f32[768,768]{1,0}, f32[768]{0}, /*index=175*/f32[768,768]{1,0}, f32[768]{0}, f32[768,768]{1,0}, f32[768]{0}, f32[768,768]{1,0}, /*index=180*/f32[3072]{0}, f32[768,3072]{1,0}, f32[768]{0}, f32[768]{0}, f32[768]{0}, /*index=185*/f32[3072,768]{1,0}, f32[768]{0}, f32[768]{0}, f32[768]{0}, f32[768,768]{1,0}, /*index=190*/f32[768]{0}, f32[768,768]{1,0}, f32[768]{0}, f32[768,768]{1,0}, f32[768]{0}, /*index=195*/f32[768,768]{1,0}, f32[3072]{0}, f32[768,3072]{1,0}, f32[768]{0}, f32[768]{0}, /*index=200*/f32[768]{0}, f32[3072,768]{1,0}, s32[64,128]{1,0}, s32[64,128]{1,0}, s32[64,128]{1,0}) %parameter.1), index=61
  %custom-call.93 = f32[8192,768]{1,0} custom-call(f32[8192,768]{1,0} %fusion.18, f32[768,768]{1,0} %get-tuple-element.63), custom_call_target="__cublas$gemm", backend_config="{\"alpha_real\":1,\"alpha_imag\":0,\"beta\":0,\"dot_dimension_numbers\":{\"lhs_contracting_dimensions\":[\"1\"],\"rhs_contracting_dimensions\":[\"0\"],\"lhs_batch_dimensions\":[],\"rhs_batch_dimensions\":[]},\"batch_size\":\"1\",\"selected_algorithm\":\"-1\"}"
  %fusion.218 = (f32[64,128]{1,0}, f32[64,128]{1,0}) fusion(f32[64,128,768]{2,1,0} %fusion.24, f32[768]{0} %get-tuple-element.62, f32[8192,768]{1,0} %custom-call.93), kind=kInput, calls=%fused_computation.218, metadata={op_type="reduce_sum" op_name="pmap(eval_step)/reduce_sum[ axes=(2,) ]" source_file="/usr/local/lib/python3.8/dist-packages/flax/linen/normalization.py" source_line=185}
  %get-tuple-element.213 = f32[64,128]{1,0} get-tuple-element((f32[64,128]{1,0}, f32[64,128]{1,0}) %fusion.218), index=1
  %get-tuple-element.212 = f32[64,128]{1,0} get-tuple-element((f32[64,128]{1,0}, f32[64,128]{1,0}) %fusion.218), index=0
  %fusion.15 = f32[64,128,768]{2,1,0} fusion(f32[768]{0} %get-tuple-element.60, f32[768]{0} %get-tuple-element.61, f32[64,128]{1,0} %get-tuple-element.213, f32[64,128]{1,0} %get-tuple-element.212, f32[64,128,768]{2,1,0} %fusion.24, /*index=5*/f32[768]{0} %get-tuple-element.62, f32[8192,768]{1,0} %custom-call.93), kind=kLoop, calls=%fused_computation.15, metadata={op_type="add" op_name="pmap(eval_step)/add" source_file="/usr/local/lib/python3.8/dist-packages/flax/linen/normalization.py" source_line=195}
  %get-tuple-element.74 = f32[768]{0} get-tuple-element((f32[50265]{0}, f32[768]{0}, f32[768,768]{1,0}, f32[768]{0}, f32[768]{0}, /*index=5*/f32[768]{0}, f32[768]{0}, f32[514,768]{1,0}, f32[1,768]{1,0}, f32[50265,768]{1,0}, /*index=10*/f32[768]{0}, f32[768]{0}, f32[768]{0}, f32[768,768]{1,0}, f32[768]{0}, /*index=15*/f32[768,768]{1,0}, f32[768]{0}, f32[768,768]{1,0}, f32[768]{0}, f32[768,768]{1,0}, /*index=20*/f32[3072]{0}, f32[768,3072]{1,0}, f32[768]{0}, f32[768]{0}, f32[768]{0}, /*index=25*/f32[3072,768]{1,0}, f32[768]{0}, f32[768]{0}, f32[768]{0}, f32[768,768]{1,0}, /*index=30*/f32[768]{0}, f32[768,768]{1,0}, f32[768]{0}, f32[768,768]{1,0}, f32[768]{0}, /*index=35*/f32[768,768]{1,0}, f32[3072]{0}, f32[768,3072]{1,0}, f32[768]{0}, f32[768]{0}, /*index=40*/f32[768]{0}, f32[3072,768]{1,0}, f32[768]{0}, f32[768]{0}, f32[768]{0}, /*index=45*/f32[768,768]{1,0}, f32[768]{0}, f32[768,768]{1,0}, f32[768]{0}, f32[768,768]{1,0}, /*index=50*/f32[768]{0}, f32[768,768]{1,0}, f32[3072]{0}, f32[768,3072]{1,0}, f32[768]{0}, /*index=55*/f32[768]{0}, f32[768]{0}, f32[3072,768]{1,0}, f32[768]{0}, f32[768]{0}, /*index=60*/f32[768]{0}, f32[768,768]{1,0}, f32[768]{0}, f32[768,768]{1,0}, f32[768]{0}, /*index=65*/f32[768,768]{1,0}, f32[768]{0}, f32[768,768]{1,0}, f32[3072]{0}, f32[768,3072]{1,0}, /*index=70*/f32[768]{0}, f32[768]{0}, f32[768]{0}, f32[3072,768]{1,0}, f32[768]{0}, /*index=75*/f32[768]{0}, f32[768]{0}, f32[768,768]{1,0}, f32[768]{0}, f32[768,768]{1,0}, /*index=80*/f32[768]{0}, f32[768,768]{1,0}, f32[768]{0}, f32[768,768]{1,0}, f32[3072]{0}, /*index=85*/f32[768,3072]{1,0}, f32[768]{0}, f32[768]{0}, f32[768]{0}, f32[3072,768]{1,0}, /*index=90*/f32[768]{0}, f32[768]{0}, f32[768]{0}, f32[768,768]{1,0}, f32[768]{0}, /*index=95*/f32[768,768]{1,0}, f32[768]{0}, f32[768,768]{1,0}, f32[768]{0}, f32[768,768]{1,0}, /*index=100*/f32[3072]{0}, f32[768,3072]{1,0}, f32[768]{0}, f32[768]{0}, f32[768]{0}, /*index=105*/f32[3072,768]{1,0}, f32[768]{0}, f32[768]{0}, f32[768]{0}, f32[768,768]{1,0}, /*index=110*/f32[768]{0}, f32[768,768]{1,0}, f32[768]{0}, f32[768,768]{1,0}, f32[768]{0}, /*index=115*/f32[768,768]{1,0}, f32[3072]{0}, f32[768,3072]{1,0}, f32[768]{0}, f32[768]{0}, /*index=120*/f32[768]{0}, f32[3072,768]{1,0}, f32[768]{0}, f32[768]{0}, f32[768]{0}, /*index=125*/f32[768,768]{1,0}, f32[768]{0}, f32[768,768]{1,0}, f32[768]{0}, f32[768,768]{1,0}, /*index=130*/f32[768]{0}, f32[768,768]{1,0}, f32[3072]{0}, f32[768,3072]{1,0}, f32[768]{0}, /*index=135*/f32[768]{0}, f32[768]{0}, f32[3072,768]{1,0}, f32[768]{0}, f32[768]{0}, /*index=140*/f32[768]{0}, f32[768,768]{1,0}, f32[768]{0}, f32[768,768]{1,0}, f32[768]{0}, /*index=145*/f32[768,768]{1,0}, f32[768]{0}, f32[768,768]{1,0}, f32[3072]{0}, f32[768,3072]{1,0}, /*index=150*/f32[768]{0}, f32[768]{0}, f32[768]{0}, f32[3072,768]{1,0}, f32[768]{0}, /*index=155*/f32[768]{0}, f32[768]{0}, f32[768,768]{1,0}, f32[768]{0}, f32[768,768]{1,0}, /*index=160*/f32[768]{0}, f32[768,768]{1,0}, f32[768]{0}, f32[768,768]{1,0}, f32[3072]{0}, /*index=165*/f32[768,3072]{1,0}, f32[768]{0}, f32[768]{0}, f32[768]{0}, f32[3072,768]{1,0}, /*index=170*/f32[768]{0}, f32[768]{0}, f32[768]{0}, f32[768,768]{1,0}, f32[768]{0}, /*index=175*/f32[768,768]{1,0}, f32[768]{0}, f32[768,768]{1,0}, f32[768]{0}, f32[768,768]{1,0}, /*index=180*/f32[3072]{0}, f32[768,3072]{1,0}, f32[768]{0}, f32[768]{0}, f32[768]{0}, /*index=185*/f32[3072,768]{1,0}, f32[768]{0}, f32[768]{0}, f32[768]{0}, f32[768,768]{1,0}, /*index=190*/f32[768]{0}, f32[768,768]{1,0}, f32[768]{0}, f32[768,768]{1,0}, f32[768]{0}, /*index=195*/f32[768,768]{1,0}, f32[3072]{0}, f32[768,3072]{1,0}, f32[768]{0}, f32[768]{0}, /*index=200*/f32[768]{0}, f32[3072,768]{1,0}, s32[64,128]{1,0}, s32[64,128]{1,0}, s32[64,128]{1,0}) %parameter.1), index=72
  %get-tuple-element.70 = f32[3072]{0} get-tuple-element((f32[50265]{0}, f32[768]{0}, f32[768,768]{1,0}, f32[768]{0}, f32[768]{0}, /*index=5*/f32[768]{0}, f32[768]{0}, f32[514,768]{1,0}, f32[1,768]{1,0}, f32[50265,768]{1,0}, /*index=10*/f32[768]{0}, f32[768]{0}, f32[768]{0}, f32[768,768]{1,0}, f32[768]{0}, /*index=15*/f32[768,768]{1,0}, f32[768]{0}, f32[768,768]{1,0}, f32[768]{0}, f32[768,768]{1,0}, /*index=20*/f32[3072]{0}, f32[768,3072]{1,0}, f32[768]{0}, f32[768]{0}, f32[768]{0}, /*index=25*/f32[3072,768]{1,0}, f32[768]{0}, f32[768]{0}, f32[768]{0}, f32[768,768]{1,0}, /*index=30*/f32[768]{0}, f32[768,768]{1,0}, f32[768]{0}, f32[768,768]{1,0}, f32[768]{0}, /*index=35*/f32[768,768]{1,0}, f32[3072]{0}, f32[768,3072]{1,0}, f32[768]{0}, f32[768]{0}, /*index=40*/f32[768]{0}, f32[3072,768]{1,0}, f32[768]{0}, f32[768]{0}, f32[768]{0}, /*index=45*/f32[768,768]{1,0}, f32[768]{0}, f32[768,768]{1,0}, f32[768]{0}, f32[768,768]{1,0}, /*index=50*/f32[768]{0}, f32[768,768]{1,0}, f32[3072]{0}, f32[768,3072]{1,0}, f32[768]{0}, /*index=55*/f32[768]{0}, f32[768]{0}, f32[3072,768]{1,0}, f32[768]{0}, f32[768]{0}, /*index=60*/f32[768]{0}, f32[768,768]{1,0}, f32[768]{0}, f32[768,768]{1,0}, f32[768]{0}, /*index=65*/f32[768,768]{1,0}, f32[768]{0}, f32[768,768]{1,0}, f32[3072]{0}, f32[768,3072]{1,0}, /*index=70*/f32[768]{0}, f32[768]{0}, f32[768]{0}, f32[3072,768]{1,0}, f32[768]{0}, /*index=75*/f32[768]{0}, f32[768]{0}, f32[768,768]{1,0}, f32[768]{0}, f32[768,768]{1,0}, /*index=80*/f32[768]{0}, f32[768,768]{1,0}, f32[768]{0}, f32[768,768]{1,0}, f32[3072]{0}, /*index=85*/f32[768,3072]{1,0}, f32[768]{0}, f32[768]{0}, f32[768]{0}, f32[3072,768]{1,0}, /*index=90*/f32[768]{0}, f32[768]{0}, f32[768]{0}, f32[768,768]{1,0}, f32[768]{0}, /*index=95*/f32[768,768]{1,0}, f32[768]{0}, f32[768,768]{1,0}, f32[768]{0}, f32[768,768]{1,0}, /*index=100*/f32[3072]{0}, f32[768,3072]{1,0}, f32[768]{0}, f32[768]{0}, f32[768]{0}, /*index=105*/f32[3072,768]{1,0}, f32[768]{0}, f32[768]{0}, f32[768]{0}, f32[768,768]{1,0}, /*index=110*/f32[768]{0}, f32[768,768]{1,0}, f32[768]{0}, f32[768,768]{1,0}, f32[768]{0}, /*index=115*/f32[768,768]{1,0}, f32[3072]{0}, f32[768,3072]{1,0}, f32[768]{0}, f32[768]{0}, /*index=120*/f32[768]{0}, f32[3072,768]{1,0}, f32[768]{0}, f32[768]{0}, f32[768]{0}, /*index=125*/f32[768,768]{1,0}, f32[768]{0}, f32[768,768]{1,0}, f32[768]{0}, f32[768,768]{1,0}, /*index=130*/f32[768]{0}, f32[768,768]{1,0}, f32[3072]{0}, f32[768,3072]{1,0}, f32[768]{0}, /*index=135*/f32[768]{0}, f32[768]{0}, f32[3072,768]{1,0}, f32[768]{0}, f32[768]{0}, /*index=140*/f32[768]{0}, f32[768,768]{1,0}, f32[768]{0}, f32[768,768]{1,0}, f32[768]{0}, /*index=145*/f32[768,768]{1,0}, f32[768]{0}, f32[768,768]{1,0}, f32[3072]{0}, f32[768,3072]{1,0}, /*index=150*/f32[768]{0}, f32[768]{0}, f32[768]{0}, f32[3072,768]{1,0}, f32[768]{0}, /*index=155*/f32[768]{0}, f32[768]{0}, f32[768,768]{1,0}, f32[768]{0}, f32[768,768]{1,0}, /*index=160*/f32[768]{0}, f32[768,768]{1,0}, f32[768]{0}, f32[768,768]{1,0}, f32[3072]{0}, /*index=165*/f32[768,3072]{1,0}, f32[768]{0}, f32[768]{0}, f32[768]{0}, f32[3072,768]{1,0}, /*index=170*/f32[768]{0}, f32[768]{0}, f32[768]{0}, f32[768,768]{1,0}, f32[768]{0}, /*index=175*/f32[768,768]{1,0}, f32[768]{0}, f32[768,768]{1,0}, f32[768]{0}, f32[768,768]{1,0}, /*index=180*/f32[3072]{0}, f32[768,3072]{1,0}, f32[768]{0}, f32[768]{0}, f32[768]{0}, /*index=185*/f32[3072,768]{1,0}, f32[768]{0}, f32[768]{0}, f32[768]{0}, f32[768,768]{1,0}, /*index=190*/f32[768]{0}, f32[768,768]{1,0}, f32[768]{0}, f32[768,768]{1,0}, f32[768]{0}, /*index=195*/f32[768,768]{1,0}, f32[3072]{0}, f32[768,3072]{1,0}, f32[768]{0}, f32[768]{0}, /*index=200*/f32[768]{0}, f32[3072,768]{1,0}, s32[64,128]{1,0}, s32[64,128]{1,0}, s32[64,128]{1,0}) %parameter.1), index=68
  %bitcast.121 = f32[8192,768]{1,0} bitcast(f32[64,128,768]{2,1,0} %fusion.15)
  %get-tuple-element.71 = f32[768,3072]{1,0} get-tuple-element((f32[50265]{0}, f32[768]{0}, f32[768,768]{1,0}, f32[768]{0}, f32[768]{0}, /*index=5*/f32[768]{0}, f32[768]{0}, f32[514,768]{1,0}, f32[1,768]{1,0}, f32[50265,768]{1,0}, /*index=10*/f32[768]{0}, f32[768]{0}, f32[768]{0}, f32[768,768]{1,0}, f32[768]{0}, /*index=15*/f32[768,768]{1,0}, f32[768]{0}, f32[768,768]{1,0}, f32[768]{0}, f32[768,768]{1,0}, /*index=20*/f32[3072]{0}, f32[768,3072]{1,0}, f32[768]{0}, f32[768]{0}, f32[768]{0}, /*index=25*/f32[3072,768]{1,0}, f32[768]{0}, f32[768]{0}, f32[768]{0}, f32[768,768]{1,0}, /*index=30*/f32[768]{0}, f32[768,768]{1,0}, f32[768]{0}, f32[768,768]{1,0}, f32[768]{0}, /*index=35*/f32[768,768]{1,0}, f32[3072]{0}, f32[768,3072]{1,0}, f32[768]{0}, f32[768]{0}, /*index=40*/f32[768]{0}, f32[3072,768]{1,0}, f32[768]{0}, f32[768]{0}, f32[768]{0}, /*index=45*/f32[768,768]{1,0}, f32[768]{0}, f32[768,768]{1,0}, f32[768]{0}, f32[768,768]{1,0}, /*index=50*/f32[768]{0}, f32[768,768]{1,0}, f32[3072]{0}, f32[768,3072]{1,0}, f32[768]{0}, /*index=55*/f32[768]{0}, f32[768]{0}, f32[3072,768]{1,0}, f32[768]{0}, f32[768]{0}, /*index=60*/f32[768]{0}, f32[768,768]{1,0}, f32[768]{0}, f32[768,768]{1,0}, f32[768]{0}, /*index=65*/f32[768,768]{1,0}, f32[768]{0}, f32[768,768]{1,0}, f32[3072]{0}, f32[768,3072]{1,0}, /*index=70*/f32[768]{0}, f32[768]{0}, f32[768]{0}, f32[3072,768]{1,0}, f32[768]{0}, /*index=75*/f32[768]{0}, f32[768]{0}, f32[768,768]{1,0}, f32[768]{0}, f32[768,768]{1,0}, /*index=80*/f32[768]{0}, f32[768,768]{1,0}, f32[768]{0}, f32[768,768]{1,0}, f32[3072]{0}, /*index=85*/f32[768,3072]{1,0}, f32[768]{0}, f32[768]{0}, f32[768]{0}, f32[3072,768]{1,0}, /*index=90*/f32[768]{0}, f32[768]{0}, f32[768]{0}, f32[768,768]{1,0}, f32[768]{0}, /*index=95*/f32[768,768]{1,0}, f32[768]{0}, f32[768,768]{1,0}, f32[768]{0}, f32[768,768]{1,0}, /*index=100*/f32[3072]{0}, f32[768,3072]{1,0}, f32[768]{0}, f32[768]{0}, f32[768]{0}, /*index=105*/f32[3072,768]{1,0}, f32[768]{0}, f32[768]{0}, f32[768]{0}, f32[768,768]{1,0}, /*index=110*/f32[768]{0}, f32[768,768]{1,0}, f32[768]{0}, f32[768,768]{1,0}, f32[768]{0}, /*index=115*/f32[768,768]{1,0}, f32[3072]{0}, f32[768,3072]{1,0}, f32[768]{0}, f32[768]{0}, /*index=120*/f32[768]{0}, f32[3072,768]{1,0}, f32[768]{0}, f32[768]{0}, f32[768]{0}, /*index=125*/f32[768,768]{1,0}, f32[768]{0}, f32[768,768]{1,0}, f32[768]{0}, f32[768,768]{1,0}, /*index=130*/f32[768]{0}, f32[768,768]{1,0}, f32[3072]{0}, f32[768,3072]{1,0}, f32[768]{0}, /*index=135*/f32[768]{0}, f32[768]{0}, f32[3072,768]{1,0}, f32[768]{0}, f32[768]{0}, /*index=140*/f32[768]{0}, f32[768,768]{1,0}, f32[768]{0}, f32[768,768]{1,0}, f32[768]{0}, /*index=145*/f32[768,768]{1,0}, f32[768]{0}, f32[768,768]{1,0}, f32[3072]{0}, f32[768,3072]{1,0}, /*index=150*/f32[768]{0}, f32[768]{0}, f32[768]{0}, f32[3072,768]{1,0}, f32[768]{0}, /*index=155*/f32[768]{0}, f32[768]{0}, f32[768,768]{1,0}, f32[768]{0}, f32[768,768]{1,0}, /*index=160*/f32[768]{0}, f32[768,768]{1,0}, f32[768]{0}, f32[768,768]{1,0}, f32[3072]{0}, /*index=165*/f32[768,3072]{1,0}, f32[768]{0}, f32[768]{0}, f32[768]{0}, f32[3072,768]{1,0}, /*index=170*/f32[768]{0}, f32[768]{0}, f32[768]{0}, f32[768,768]{1,0}, f32[768]{0}, /*index=175*/f32[768,768]{1,0}, f32[768]{0}, f32[768,768]{1,0}, f32[768]{0}, f32[768,768]{1,0}, /*index=180*/f32[3072]{0}, f32[768,3072]{1,0}, f32[768]{0}, f32[768]{0}, f32[768]{0}, /*index=185*/f32[3072,768]{1,0}, f32[768]{0}, f32[768]{0}, f32[768]{0}, f32[768,768]{1,0}, /*index=190*/f32[768]{0}, f32[768,768]{1,0}, f32[768]{0}, f32[768,768]{1,0}, f32[768]{0}, /*index=195*/f32[768,768]{1,0}, f32[3072]{0}, f32[768,3072]{1,0}, f32[768]{0}, f32[768]{0}, /*index=200*/f32[768]{0}, f32[3072,768]{1,0}, s32[64,128]{1,0}, s32[64,128]{1,0}, s32[64,128]{1,0}) %parameter.1), index=69
  %custom-call.94 = f32[8192,3072]{1,0} custom-call(f32[8192,768]{1,0} %bitcast.121, f32[768,3072]{1,0} %get-tuple-element.71), custom_call_target="__cublas$gemm", backend_config="{\"alpha_real\":1,\"alpha_imag\":0,\"beta\":0,\"dot_dimension_numbers\":{\"lhs_contracting_dimensions\":[\"1\"],\"rhs_contracting_dimensions\":[\"0\"],\"lhs_batch_dimensions\":[],\"rhs_batch_dimensions\":[]},\"batch_size\":\"1\",\"selected_algorithm\":\"5\"}"
  %fusion.14 = f32[8192,3072]{1,0} fusion(f32[3072]{0} %get-tuple-element.70, f32[8192,3072]{1,0} %custom-call.94), kind=kLoop, calls=%fused_computation.14
  %get-tuple-element.75 = f32[3072,768]{1,0} get-tuple-element((f32[50265]{0}, f32[768]{0}, f32[768,768]{1,0}, f32[768]{0}, f32[768]{0}, /*index=5*/f32[768]{0}, f32[768]{0}, f32[514,768]{1,0}, f32[1,768]{1,0}, f32[50265,768]{1,0}, /*index=10*/f32[768]{0}, f32[768]{0}, f32[768]{0}, f32[768,768]{1,0}, f32[768]{0}, /*index=15*/f32[768,768]{1,0}, f32[768]{0}, f32[768,768]{1,0}, f32[768]{0}, f32[768,768]{1,0}, /*index=20*/f32[3072]{0}, f32[768,3072]{1,0}, f32[768]{0}, f32[768]{0}, f32[768]{0}, /*index=25*/f32[3072,768]{1,0}, f32[768]{0}, f32[768]{0}, f32[768]{0}, f32[768,768]{1,0}, /*index=30*/f32[768]{0}, f32[768,768]{1,0}, f32[768]{0}, f32[768,768]{1,0}, f32[768]{0}, /*index=35*/f32[768,768]{1,0}, f32[3072]{0}, f32[768,3072]{1,0}, f32[768]{0}, f32[768]{0}, /*index=40*/f32[768]{0}, f32[3072,768]{1,0}, f32[768]{0}, f32[768]{0}, f32[768]{0}, /*index=45*/f32[768,768]{1,0}, f32[768]{0}, f32[768,768]{1,0}, f32[768]{0}, f32[768,768]{1,0}, /*index=50*/f32[768]{0}, f32[768,768]{1,0}, f32[3072]{0}, f32[768,3072]{1,0}, f32[768]{0}, /*index=55*/f32[768]{0}, f32[768]{0}, f32[3072,768]{1,0}, f32[768]{0}, f32[768]{0}, /*index=60*/f32[768]{0}, f32[768,768]{1,0}, f32[768]{0}, f32[768,768]{1,0}, f32[768]{0}, /*index=65*/f32[768,768]{1,0}, f32[768]{0}, f32[768,768]{1,0}, f32[3072]{0}, f32[768,3072]{1,0}, /*index=70*/f32[768]{0}, f32[768]{0}, f32[768]{0}, f32[3072,768]{1,0}, f32[768]{0}, /*index=75*/f32[768]{0}, f32[768]{0}, f32[768,768]{1,0}, f32[768]{0}, f32[768,768]{1,0}, /*index=80*/f32[768]{0}, f32[768,768]{1,0}, f32[768]{0}, f32[768,768]{1,0}, f32[3072]{0}, /*index=85*/f32[768,3072]{1,0}, f32[768]{0}, f32[768]{0}, f32[768]{0}, f32[3072,768]{1,0}, /*index=90*/f32[768]{0}, f32[768]{0}, f32[768]{0}, f32[768,768]{1,0}, f32[768]{0}, /*index=95*/f32[768,768]{1,0}, f32[768]{0}, f32[768,768]{1,0}, f32[768]{0}, f32[768,768]{1,0}, /*index=100*/f32[3072]{0}, f32[768,3072]{1,0}, f32[768]{0}, f32[768]{0}, f32[768]{0}, /*index=105*/f32[3072,768]{1,0}, f32[768]{0}, f32[768]{0}, f32[768]{0}, f32[768,768]{1,0}, /*index=110*/f32[768]{0}, f32[768,768]{1,0}, f32[768]{0}, f32[768,768]{1,0}, f32[768]{0}, /*index=115*/f32[768,768]{1,0}, f32[3072]{0}, f32[768,3072]{1,0}, f32[768]{0}, f32[768]{0}, /*index=120*/f32[768]{0}, f32[3072,768]{1,0}, f32[768]{0}, f32[768]{0}, f32[768]{0}, /*index=125*/f32[768,768]{1,0}, f32[768]{0}, f32[768,768]{1,0}, f32[768]{0}, f32[768,768]{1,0}, /*index=130*/f32[768]{0}, f32[768,768]{1,0}, f32[3072]{0}, f32[768,3072]{1,0}, f32[768]{0}, /*index=135*/f32[768]{0}, f32[768]{0}, f32[3072,768]{1,0}, f32[768]{0}, f32[768]{0}, /*index=140*/f32[768]{0}, f32[768,768]{1,0}, f32[768]{0}, f32[768,768]{1,0}, f32[768]{0}, /*index=145*/f32[768,768]{1,0}, f32[768]{0}, f32[768,768]{1,0}, f32[3072]{0}, f32[768,3072]{1,0}, /*index=150*/f32[768]{0}, f32[768]{0}, f32[768]{0}, f32[3072,768]{1,0}, f32[768]{0}, /*index=155*/f32[768]{0}, f32[768]{0}, f32[768,768]{1,0}, f32[768]{0}, f32[768,768]{1,0}, /*index=160*/f32[768]{0}, f32[768,768]{1,0}, f32[768]{0}, f32[768,768]{1,0}, f32[3072]{0}, /*index=165*/f32[768,3072]{1,0}, f32[768]{0}, f32[768]{0}, f32[768]{0}, f32[3072,768]{1,0}, /*index=170*/f32[768]{0}, f32[768]{0}, f32[768]{0}, f32[768,768]{1,0}, f32[768]{0}, /*index=175*/f32[768,768]{1,0}, f32[768]{0}, f32[768,768]{1,0}, f32[768]{0}, f32[768,768]{1,0}, /*index=180*/f32[3072]{0}, f32[768,3072]{1,0}, f32[768]{0}, f32[768]{0}, f32[768]{0}, /*index=185*/f32[3072,768]{1,0}, f32[768]{0}, f32[768]{0}, f32[768]{0}, f32[768,768]{1,0}, /*index=190*/f32[768]{0}, f32[768,768]{1,0}, f32[768]{0}, f32[768,768]{1,0}, f32[768]{0}, /*index=195*/f32[768,768]{1,0}, f32[3072]{0}, f32[768,3072]{1,0}, f32[768]{0}, f32[768]{0}, /*index=200*/f32[768]{0}, f32[3072,768]{1,0}, s32[64,128]{1,0}, s32[64,128]{1,0}, s32[64,128]{1,0}) %parameter.1), index=73
  %custom-call.95 = f32[8192,768]{1,0} custom-call(f32[8192,3072]{1,0} %fusion.14, f32[3072,768]{1,0} %get-tuple-element.75), custom_call_target="__cublas$gemm", backend_config="{\"alpha_real\":1,\"alpha_imag\":0,\"beta\":0,\"dot_dimension_numbers\":{\"lhs_contracting_dimensions\":[\"1\"],\"rhs_contracting_dimensions\":[\"0\"],\"lhs_batch_dimensions\":[],\"rhs_batch_dimensions\":[]},\"batch_size\":\"1\",\"selected_algorithm\":\"9\"}"
  %fusion.219 = (f32[64,128]{1,0}, f32[64,128]{1,0}) fusion(f32[64,128,768]{2,1,0} %fusion.15, f32[768]{0} %get-tuple-element.74, f32[8192,768]{1,0} %custom-call.95), kind=kInput, calls=%fused_computation.219, metadata={op_type="reduce_sum" op_name="pmap(eval_step)/reduce_sum[ axes=(2,) ]" source_file="/usr/local/lib/python3.8/dist-packages/flax/linen/normalization.py" source_line=185}
  %get-tuple-element.211 = f32[64,128]{1,0} get-tuple-element((f32[64,128]{1,0}, f32[64,128]{1,0}) %fusion.219), index=1
  %get-tuple-element.210 = f32[64,128]{1,0} get-tuple-element((f32[64,128]{1,0}, f32[64,128]{1,0}) %fusion.219), index=0
  %fusion.11 = f32[8192,768]{1,0} fusion(f32[768]{0} %get-tuple-element.72, f32[768]{0} %get-tuple-element.73, f32[64,128]{1,0} %get-tuple-element.211, f32[64,128]{1,0} %get-tuple-element.210, f32[64,128,768]{2,1,0} %fusion.15, /*index=5*/f32[768]{0} %get-tuple-element.74, f32[8192,768]{1,0} %custom-call.95), kind=kLoop, calls=%fused_computation.11
  %get-tuple-element.4 = f32[768,768]{1,0} get-tuple-element((f32[50265]{0}, f32[768]{0}, f32[768,768]{1,0}, f32[768]{0}, f32[768]{0}, /*index=5*/f32[768]{0}, f32[768]{0}, f32[514,768]{1,0}, f32[1,768]{1,0}, f32[50265,768]{1,0}, /*index=10*/f32[768]{0}, f32[768]{0}, f32[768]{0}, f32[768,768]{1,0}, f32[768]{0}, /*index=15*/f32[768,768]{1,0}, f32[768]{0}, f32[768,768]{1,0}, f32[768]{0}, f32[768,768]{1,0}, /*index=20*/f32[3072]{0}, f32[768,3072]{1,0}, f32[768]{0}, f32[768]{0}, f32[768]{0}, /*index=25*/f32[3072,768]{1,0}, f32[768]{0}, f32[768]{0}, f32[768]{0}, f32[768,768]{1,0}, /*index=30*/f32[768]{0}, f32[768,768]{1,0}, f32[768]{0}, f32[768,768]{1,0}, f32[768]{0}, /*index=35*/f32[768,768]{1,0}, f32[3072]{0}, f32[768,3072]{1,0}, f32[768]{0}, f32[768]{0}, /*index=40*/f32[768]{0}, f32[3072,768]{1,0}, f32[768]{0}, f32[768]{0}, f32[768]{0}, /*index=45*/f32[768,768]{1,0}, f32[768]{0}, f32[768,768]{1,0}, f32[768]{0}, f32[768,768]{1,0}, /*index=50*/f32[768]{0}, f32[768,768]{1,0}, f32[3072]{0}, f32[768,3072]{1,0}, f32[768]{0}, /*index=55*/f32[768]{0}, f32[768]{0}, f32[3072,768]{1,0}, f32[768]{0}, f32[768]{0}, /*index=60*/f32[768]{0}, f32[768,768]{1,0}, f32[768]{0}, f32[768,768]{1,0}, f32[768]{0}, /*index=65*/f32[768,768]{1,0}, f32[768]{0}, f32[768,768]{1,0}, f32[3072]{0}, f32[768,3072]{1,0}, /*index=70*/f32[768]{0}, f32[768]{0}, f32[768]{0}, f32[3072,768]{1,0}, f32[768]{0}, /*index=75*/f32[768]{0}, f32[768]{0}, f32[768,768]{1,0}, f32[768]{0}, f32[768,768]{1,0}, /*index=80*/f32[768]{0}, f32[768,768]{1,0}, f32[768]{0}, f32[768,768]{1,0}, f32[3072]{0}, /*index=85*/f32[768,3072]{1,0}, f32[768]{0}, f32[768]{0}, f32[768]{0}, f32[3072,768]{1,0}, /*index=90*/f32[768]{0}, f32[768]{0}, f32[768]{0}, f32[768,768]{1,0}, f32[768]{0}, /*index=95*/f32[768,768]{1,0}, f32[768]{0}, f32[768,768]{1,0}, f32[768]{0}, f32[768,768]{1,0}, /*index=100*/f32[3072]{0}, f32[768,3072]{1,0}, f32[768]{0}, f32[768]{0}, f32[768]{0}, /*index=105*/f32[3072,768]{1,0}, f32[768]{0}, f32[768]{0}, f32[768]{0}, f32[768,768]{1,0}, /*index=110*/f32[768]{0}, f32[768,768]{1,0}, f32[768]{0}, f32[768,768]{1,0}, f32[768]{0}, /*index=115*/f32[768,768]{1,0}, f32[3072]{0}, f32[768,3072]{1,0}, f32[768]{0}, f32[768]{0}, /*index=120*/f32[768]{0}, f32[3072,768]{1,0}, f32[768]{0}, f32[768]{0}, f32[768]{0}, /*index=125*/f32[768,768]{1,0}, f32[768]{0}, f32[768,768]{1,0}, f32[768]{0}, f32[768,768]{1,0}, /*index=130*/f32[768]{0}, f32[768,768]{1,0}, f32[3072]{0}, f32[768,3072]{1,0}, f32[768]{0}, /*index=135*/f32[768]{0}, f32[768]{0}, f32[3072,768]{1,0}, f32[768]{0}, f32[768]{0}, /*index=140*/f32[768]{0}, f32[768,768]{1,0}, f32[768]{0}, f32[768,768]{1,0}, f32[768]{0}, /*index=145*/f32[768,768]{1,0}, f32[768]{0}, f32[768,768]{1,0}, f32[3072]{0}, f32[768,3072]{1,0}, /*index=150*/f32[768]{0}, f32[768]{0}, f32[768]{0}, f32[3072,768]{1,0}, f32[768]{0}, /*index=155*/f32[768]{0}, f32[768]{0}, f32[768,768]{1,0}, f32[768]{0}, f32[768,768]{1,0}, /*index=160*/f32[768]{0}, f32[768,768]{1,0}, f32[768]{0}, f32[768,768]{1,0}, f32[3072]{0}, /*index=165*/f32[768,3072]{1,0}, f32[768]{0}, f32[768]{0}, f32[768]{0}, f32[3072,768]{1,0}, /*index=170*/f32[768]{0}, f32[768]{0}, f32[768]{0}, f32[768,768]{1,0}, f32[768]{0}, /*index=175*/f32[768,768]{1,0}, f32[768]{0}, f32[768,768]{1,0}, f32[768]{0}, f32[768,768]{1,0}, /*index=180*/f32[3072]{0}, f32[768,3072]{1,0}, f32[768]{0}, f32[768]{0}, f32[768]{0}, /*index=185*/f32[3072,768]{1,0}, f32[768]{0}, f32[768]{0}, f32[768]{0}, f32[768,768]{1,0}, /*index=190*/f32[768]{0}, f32[768,768]{1,0}, f32[768]{0}, f32[768,768]{1,0}, f32[768]{0}, /*index=195*/f32[768,768]{1,0}, f32[3072]{0}, f32[768,3072]{1,0}, f32[768]{0}, f32[768]{0}, /*index=200*/f32[768]{0}, f32[3072,768]{1,0}, s32[64,128]{1,0}, s32[64,128]{1,0}, s32[64,128]{1,0}) %parameter.1), index=2
  %custom-call.96 = f32[8192,768]{1,0} custom-call(f32[8192,768]{1,0} %fusion.11, f32[768,768]{1,0} %get-tuple-element.4), custom_call_target="__cublas$gemm", backend_config="{\"alpha_real\":1,\"alpha_imag\":0,\"beta\":0,\"dot_dimension_numbers\":{\"lhs_contracting_dimensions\":[\"1\"],\"rhs_contracting_dimensions\":[\"0\"],\"lhs_batch_dimensions\":[],\"rhs_batch_dimensions\":[]},\"batch_size\":\"1\",\"selected_algorithm\":\"-1\"}"
  %fusion.220 = (f32[64,128]{1,0}, f32[64,128]{1,0}) fusion(f32[768]{0} %get-tuple-element.3, f32[8192,768]{1,0} %custom-call.96), kind=kInput, calls=%fused_computation.220, metadata={op_type="reduce_sum" op_name="pmap(eval_step)/reduce_sum[ axes=(2,) ]" source_file="/usr/local/lib/python3.8/dist-packages/flax/linen/normalization.py" source_line=185}
  %get-tuple-element.209 = f32[64,128]{1,0} get-tuple-element((f32[64,128]{1,0}, f32[64,128]{1,0}) %fusion.220), index=1
  %get-tuple-element.208 = f32[64,128]{1,0} get-tuple-element((f32[64,128]{1,0}, f32[64,128]{1,0}) %fusion.220), index=0
  %fusion.8 = f32[8192,768]{1,0} fusion(f32[768]{0} %get-tuple-element.5, f32[768]{0} %get-tuple-element.6, f32[64,128]{1,0} %get-tuple-element.209, f32[64,128]{1,0} %get-tuple-element.208, f32[768]{0} %get-tuple-element.3, /*index=5*/f32[8192,768]{1,0} %custom-call.96), kind=kLoop, calls=%fused_computation.8
  %custom-call.97 = f32[8192,50265]{1,0} custom-call(f32[8192,768]{1,0} %fusion.8, f32[50265,768]{1,0} %get-tuple-element.11), custom_call_target="__cublas$gemm", backend_config="{\"alpha_real\":1,\"alpha_imag\":0,\"beta\":0,\"dot_dimension_numbers\":{\"lhs_contracting_dimensions\":[\"1\"],\"rhs_contracting_dimensions\":[\"1\"],\"lhs_batch_dimensions\":[],\"rhs_batch_dimensions\":[]},\"batch_size\":\"1\",\"selected_algorithm\":\"-1\"}"
  %fusion.221 = f32[64,128]{1,0} fusion(f32[50265]{0} %get-tuple-element.2, f32[8192,50265]{1,0} %custom-call.97), kind=kInput, calls=%fused_computation.221, metadata={op_type="reduce_max" op_name="reduce_max[ axes=(2,) ]" source_file="roberta.py" source_line=233}
  %fusion.3 = f32[64,128]{1,0} fusion(f32[64,128]{1,0} %fusion.221, f32[50265]{0} %get-tuple-element.2, f32[8192,50265]{1,0} %custom-call.97), kind=kInput, calls=%fused_computation.3, metadata={op_type="reduce_sum" op_name="pmap(eval_step)/reduce_sum[ axes=(2,) ]" source_file="/usr/local/lib/python3.8/dist-packages/optax/_src/loss.py" source_line=164}
  %log = f32[64,128]{1,0} log(f32[64,128]{1,0} %fusion.3), metadata={op_type="log" op_name="pmap(eval_step)/log" source_file="/usr/local/lib/python3.8/dist-packages/optax/_src/loss.py" source_line=164}
  %get-tuple-element.206 = s32[64,128]{1,0} get-tuple-element((f32[50265]{0}, f32[768]{0}, f32[768,768]{1,0}, f32[768]{0}, f32[768]{0}, /*index=5*/f32[768]{0}, f32[768]{0}, f32[514,768]{1,0}, f32[1,768]{1,0}, f32[50265,768]{1,0}, /*index=10*/f32[768]{0}, f32[768]{0}, f32[768]{0}, f32[768,768]{1,0}, f32[768]{0}, /*index=15*/f32[768,768]{1,0}, f32[768]{0}, f32[768,768]{1,0}, f32[768]{0}, f32[768,768]{1,0}, /*index=20*/f32[3072]{0}, f32[768,3072]{1,0}, f32[768]{0}, f32[768]{0}, f32[768]{0}, /*index=25*/f32[3072,768]{1,0}, f32[768]{0}, f32[768]{0}, f32[768]{0}, f32[768,768]{1,0}, /*index=30*/f32[768]{0}, f32[768,768]{1,0}, f32[768]{0}, f32[768,768]{1,0}, f32[768]{0}, /*index=35*/f32[768,768]{1,0}, f32[3072]{0}, f32[768,3072]{1,0}, f32[768]{0}, f32[768]{0}, /*index=40*/f32[768]{0}, f32[3072,768]{1,0}, f32[768]{0}, f32[768]{0}, f32[768]{0}, /*index=45*/f32[768,768]{1,0}, f32[768]{0}, f32[768,768]{1,0}, f32[768]{0}, f32[768,768]{1,0}, /*index=50*/f32[768]{0}, f32[768,768]{1,0}, f32[3072]{0}, f32[768,3072]{1,0}, f32[768]{0}, /*index=55*/f32[768]{0}, f32[768]{0}, f32[3072,768]{1,0}, f32[768]{0}, f32[768]{0}, /*index=60*/f32[768]{0}, f32[768,768]{1,0}, f32[768]{0}, f32[768,768]{1,0}, f32[768]{0}, /*index=65*/f32[768,768]{1,0}, f32[768]{0}, f32[768,768]{1,0}, f32[3072]{0}, f32[768,3072]{1,0}, /*index=70*/f32[768]{0}, f32[768]{0}, f32[768]{0}, f32[3072,768]{1,0}, f32[768]{0}, /*index=75*/f32[768]{0}, f32[768]{0}, f32[768,768]{1,0}, f32[768]{0}, f32[768,768]{1,0}, /*index=80*/f32[768]{0}, f32[768,768]{1,0}, f32[768]{0}, f32[768,768]{1,0}, f32[3072]{0}, /*index=85*/f32[768,3072]{1,0}, f32[768]{0}, f32[768]{0}, f32[768]{0}, f32[3072,768]{1,0}, /*index=90*/f32[768]{0}, f32[768]{0}, f32[768]{0}, f32[768,768]{1,0}, f32[768]{0}, /*index=95*/f32[768,768]{1,0}, f32[768]{0}, f32[768,768]{1,0}, f32[768]{0}, f32[768,768]{1,0}, /*index=100*/f32[3072]{0}, f32[768,3072]{1,0}, f32[768]{0}, f32[768]{0}, f32[768]{0}, /*index=105*/f32[3072,768]{1,0}, f32[768]{0}, f32[768]{0}, f32[768]{0}, f32[768,768]{1,0}, /*index=110*/f32[768]{0}, f32[768,768]{1,0}, f32[768]{0}, f32[768,768]{1,0}, f32[768]{0}, /*index=115*/f32[768,768]{1,0}, f32[3072]{0}, f32[768,3072]{1,0}, f32[768]{0}, f32[768]{0}, /*index=120*/f32[768]{0}, f32[3072,768]{1,0}, f32[768]{0}, f32[768]{0}, f32[768]{0}, /*index=125*/f32[768,768]{1,0}, f32[768]{0}, f32[768,768]{1,0}, f32[768]{0}, f32[768,768]{1,0}, /*index=130*/f32[768]{0}, f32[768,768]{1,0}, f32[3072]{0}, f32[768,3072]{1,0}, f32[768]{0}, /*index=135*/f32[768]{0}, f32[768]{0}, f32[3072,768]{1,0}, f32[768]{0}, f32[768]{0}, /*index=140*/f32[768]{0}, f32[768,768]{1,0}, f32[768]{0}, f32[768,768]{1,0}, f32[768]{0}, /*index=145*/f32[768,768]{1,0}, f32[768]{0}, f32[768,768]{1,0}, f32[3072]{0}, f32[768,3072]{1,0}, /*index=150*/f32[768]{0}, f32[768]{0}, f32[768]{0}, f32[3072,768]{1,0}, f32[768]{0}, /*index=155*/f32[768]{0}, f32[768]{0}, f32[768,768]{1,0}, f32[768]{0}, f32[768,768]{1,0}, /*index=160*/f32[768]{0}, f32[768,768]{1,0}, f32[768]{0}, f32[768,768]{1,0}, f32[3072]{0}, /*index=165*/f32[768,3072]{1,0}, f32[768]{0}, f32[768]{0}, f32[768]{0}, f32[3072,768]{1,0}, /*index=170*/f32[768]{0}, f32[768]{0}, f32[768]{0}, f32[768,768]{1,0}, f32[768]{0}, /*index=175*/f32[768,768]{1,0}, f32[768]{0}, f32[768,768]{1,0}, f32[768]{0}, f32[768,768]{1,0}, /*index=180*/f32[3072]{0}, f32[768,3072]{1,0}, f32[768]{0}, f32[768]{0}, f32[768]{0}, /*index=185*/f32[3072,768]{1,0}, f32[768]{0}, f32[768]{0}, f32[768]{0}, f32[768,768]{1,0}, /*index=190*/f32[768]{0}, f32[768,768]{1,0}, f32[768]{0}, f32[768,768]{1,0}, f32[768]{0}, /*index=195*/f32[768,768]{1,0}, f32[3072]{0}, f32[768,3072]{1,0}, f32[768]{0}, f32[768]{0}, /*index=200*/f32[768]{0}, f32[3072,768]{1,0}, s32[64,128]{1,0}, s32[64,128]{1,0}, s32[64,128]{1,0}) %parameter.1), index=204
  %fusion.2 = f32[64,128]{1,0} fusion(f32[64,128]{1,0} %log, s32[64,128]{1,0} %get-tuple-element.206, f32[64,128]{1,0} %fusion.221, f32[50265]{0} %get-tuple-element.2, f32[8192,50265]{1,0} %custom-call.97), kind=kInput, calls=%fused_computation.2, metadata={op_type="reduce_sum" op_name="pmap(eval_step)/reduce_sum[ axes=(2,) ]" source_file="/usr/local/lib/python3.8/dist-packages/optax/_src/loss.py" source_line=164}
  %fusion.6 = s32[64,128]{1,0} fusion(f32[64,128]{1,0} %fusion.221, f32[50265]{0} %get-tuple-element.2, f32[8192,50265]{1,0} %custom-call.97), kind=kInput, calls=%fused_computation.6, metadata={op_type="reduce_min" op_name="reduce_min[ axes=(2,) ]" source_file="roberta.py" source_line=233}
  %fusion.1 = (f32[], f32[], f32[]) fusion(f32[64,128]{1,0} %fusion.2, s32[64,128]{1,0} %get-tuple-element.206, s32[64,128]{1,0} %fusion.6), kind=kInput, calls=%fused_computation.1, metadata={op_type="reduce_sum" op_name="pmap(eval_step)/reduce_sum[ axes=(0, 1) ]" source_file="roberta.py" source_line=190}
  %get-tuple-element.1 = f32[] get-tuple-element((f32[], f32[], f32[]) %fusion.1), index=1
  %get-tuple-element = f32[] get-tuple-element((f32[], f32[], f32[]) %fusion.1), index=0
  %get-tuple-element.207 = f32[] get-tuple-element((f32[], f32[], f32[]) %fusion.1), index=2
  ROOT %all-reduce = (f32[], f32[], f32[]) all-reduce(f32[] %get-tuple-element.1, f32[] %get-tuple-element, f32[] %get-tuple-element.207), replica_groups={{0,1,2,3,4,5,6,7}}, to_apply=%primitive_computation_add__2.3569
}

